logs/flat_anymal_c/Dec10_01-45-31_/model_250.pt (torch, 418700 bytes, 48 tensors)

std f4 [12]
0.41656208 0.51949877 0.4263232 0.42413297 0.5121299 0.44263038 0.42244324 0.51742685
0.4575361 0.4087259 0.5017015 0.45748034
00000000: a047 d53e dffd 043f 0947 da3e f527 d93e
00000010: f21a 033f 73a0 e23e 7b4a d83e 1676 043f
00000020: 2c42 ea3e 8544 d13e 826f 003f dd3a ea3e

actor.0.weight f4 [128, 48]
0.09610834 0.02300195 0.15924823 -0.07788128 0.6707892 0.7536444 0.9635249 0.5818448
0.033906657 -0.2043748 -0.045984656 -0.27580827 0.0828668 0.27312967 -0.5027627 0.32161185
0.45697454 -0.71587074 0.32225966 0.14570703 0.4101525 -0.17417799 0.10902987 0.25608587
0.19573799 -0.13341181 -0.21358748 -0.07284842 -0.5738216 -0.27565596 -0.3770856 -0.055154387
0.30398285 -0.4901696 -0.1310517 0.26962337 -0.08530555 0.1270775 0.0396929 -0.2465628
0.12570591 -0.0592339 -0.12602195 -0.039530177 -0.092142485 -0.039907053 0.12559834 -0.11704267
-0.34979472 0.018107949 -0.225461 -0.16367264 1.4231164 0.57092893 0.4195962 -0.006334972
0.15471639 0.38707146 -0.2951475 -0.75595105 0.5508763 -0.34645522 -0.6045781 -0.74040484
-0.08384696 0.10062651 -0.14084913 0.69050145 0.11262349 0.42285955 -0.80374306 -0.5024392
0.015195875 -0.10957964 -0.51795715 0.3064109 -0.032654352 0.2742605 0.3393233 -0.14429034
0.066527694 -0.6419354 -0.5731574 0.24015817 -0.028305724 -0.0319308 -0.054972548 0.080930226
-0.0009539048 -0.2548457 -0.016737824 -0.1423837 0.28275728 -0.07679467 -0.019169424 0.19377013
-0.01643138 -0.47270203 -0.26913753 0.54889214 -0.98989224 0.3793536 0.35541734 -1.8525952
-0.07266083 -0.137859 0.14055863 -1.0403204 0.6880792 0.509211 -0.15190259 0.50850314
0.4043719 -0.29062194 0.3899543 -0.6366255 -0.22761399 0.4132575 0.23652008 0.26568124
-0.4766986 0.8027743 -0.28871208 0.31841853 0.23565945 -0.1104704 0.54809326 -0.60746795
-0.1067822 0.5072925 -0.12672535 -0.05253636 -0.25006726 -0.060711265 0.33415928 0.09699711
-0.1675264 0.15867798 0.0716912 -0.13527468 -0.13701642 0.10299983 -0.16309676 -0.06770287
-0.24646322 0.26260728 -0.3381958 -0.21895787 0.56077063 -1.1318895 -0.46403208 -0.36743125
0.088508315 0.33402592 -0.49677664 1.1609333 -0.1294692 -0.41600016 -0.16015835 0.41715738
0.44346026 -0.42195186 -0.17518218 0.31641033 0.17122523 0.217165 -0.18469647 -0.101092845
-0.11812185 -0.17414922 0.064005315 0.3500523 -0.80046666 -0.35106006 -0.102401845 0.044898245
-0.2991559 0.051767673 -0.41338083 -0.025914088 0.12440585 0.14425077 -0.02178405 0.029725729
-0.09143431 -0.0204417 -0.031595346 0.034057125 -0.12394433 -0.03481026 -0.045469776 -0.23340902
0.048339397 0.25154603 0.09468136 0.008143304 -0.5462167 1.1481266 0.5884447 0.26994228
0.020423632 -0.12004192 0.047599975 -0.68865377 -0.31836846 0.2083959 0.09510084 0.089814484
0.7451621 -0.06923784 0.04721786 -0.7064311 0.3253318 0.21850508 0.32160696 0.6920645
-0.20374812 -0.28302893 -0.12422786 0.11520863 0.5891076 -0.17379928 0.36594874 -0.07620002
-0.10188537 -0.029771144 -0.2861775 0.68999135 -0.10849025 0.013702297 0.12800473 -0.058329675
-0.002218793 0.10822007 -0.21420032 0.09684821 -0.16176446 -0.021027459 0.093332104 -0.072839834
-0.0039603584 -0.059094876 0.31435883 0.10593802 1.1167464 0.85831565 0.15660119 0.07224236
0.14860389 0.17062682 -0.13873939 -1.4949026 0.32216614 0.07303183 -0.3357128 -0.39049768
00000000: 73d4 c43d 966e bc3c f811 233e 3880 9fbd
00000010: d7b8 2b3f d7ee 403f 91a9 763f c8f3 143f
00000020: b5e1 0a3d a147 51be 685a 3cbd be36 8dbe
00000030: 12b6 a93d a7d7 8b3e 0eb5 00bf 4faa a43e
00000040: 91f8 e93e 4e43 37bf 38ff a43e 3934 153e
00000050: 82ff d13e b75b 32be 0d4b df3d b01d 833e
00000060: 8a6f 483e 1b9d 08be adb6 5abe 8d31 95bd
00000070: f9e5 12bf c722 8dbe 5d11 c1be 91e9 61bd
00000080: a4a3 9b3e 83f7 fabe 6b32 06be 130c 8a3e
00000090: adb4 aebd 9b20 023e 0695 223d f57a 7cbe
000000a0: 0db9 003e 3f9f 72bd e60b 01be 65ea 21bd
000000b0: 33b5 bcbd 9475 23bd da9c 003e 11b4 efbd
000000c0: 4b18 b3be 1f57 943c 40df 66be cd99 27be
000000d0: ae28 b63f 6628 123f 50d5 d63e 9995 cfbb
000000e0: f96d 1e3e 3b2e c63e 931d 97be 0286 41bf
000000f0: 3b06 0d3f 9462 b1be a1c5 1abf 2c8b 3dbf
00000100: f4b7 abbd 4615 ce3d c13a 10be b4c4 303f
00000110: 25a7 e63d 0c81 d83e 1bc2 4dbf db9f 00bf
00000120: 1ff8 783c 4a6b e0bd d798 04bf e4e1 9c3e
00000130: 92c0 05bd df6b 8c3e c9bb ad3e d9c0 13be
00000140: ac3f 883d e155 24bf 72ba 12bf 06ec 753e
00000150: 68e1 e7bc dfc9 02bd e52a 61bd bfbe a53d
00000160: 780f 7aba 237b 82be c31d 89bc 08cd 11be
00000170: 90c5 903e 8646 9dbd 3209 9dbc ad6b 463e
00000180: 1a9b 86bc 0006 f2be 65cc 89be 3284 0c3f
00000190: 9469 7dbf a33a c23e 43f9 b53e d721 edbf
000001a0: 34cf 94bd e92a 0dbe 9aee 0f3e 3829 85bf
000001b0: f525 303f a75b 023f 5a8c 1bbe 432d 023f
000001c0: d509 cf3e 66cc 94be 17a8 c73e e4f9 22bf
000001d0: a413 69be 7d96 d33e 5232 723e 5f07 883e
000001e0: d711 f4be 9e82 4d3f 12d2 93be c107 a33e
000001f0: b650 713e 4e3e e2bd d74f 0c3f 0583 1bbf
00000200: a0b0 dabd ecdd 013f 4ac4 01be 5e30 57bd
00000210: d108 80be 60ac 78bd ed16 ab3e 6ca6 c63d
00000220: 0a8c 2bbe 7b7c 223e d6d2 923d 7285 0abe
00000230: 084e 0cbe 93f1 d23d d602 27be cda7 8abd
00000240: db60 7cbe 7674 863e 0028 adbe 7e36 60be
00000250: aa8e 0f3f c1e1 90bf 9d95 edbe f31f bcbe
00000260: d943 b53d 7205 ab3e 8259 febe 7699 943f
00000270: 9393 04be f9fd d4be 8d00 24be a795 d53e
00000280: 390d e33e 130a d8be f562 33be 8900 a23e
00000290: ab55 2f3e 8060 5e3e 1221 3dbe c409 cfbd
000002a0: dee9 f1bd 2c54 32be 3815 833d 0e3a b33e
000002b0: 62eb 4cbf 25be b3be 0fb8 d1bd 39e7 373d
000002c0: f62a 99be 570a 543d a7a6 d3be c849 d4bc
000002d0: 7fc8 fe3d 79b6 133e 7774 b2bc 5f83 f33c
000002e0: e941 bbbd 5a75 a7bc 1f6a 01bd 7c7f 0b3d
000002f0: 86d6 fdbd 3495 0ebd 843e 3abd c602 6fbe
00000300: 88ff 453d a4ca 803e 4de8 c13d 7e6b 053c
00000310: dcd4 0bbf d0f5 923f 50a4 163f e035 8a3e
00000320: 764f a73c 8ad8 f5bd 31f8 423d 9d4b 30bf
00000330: 3101 a3be bc65 553e 3bc4 c23d a8f0 b73d
00000340: f2c2 3e3f 92cc 8dbd 8467 413d abd8 34bf
00000350: e491 a63e ccbf 5f3e aba9 a43e 242b 313f
00000360: 59a3 50be 2be9 90be 2d6b febd 81f2 eb3d
00000370: c1cf 163f 70f8 31be a25d bb3e c20e 9cbd
00000380: 47a9 d0bd 9de2 f3bc db85 92be 46a3 303f
00000390: 2330 debd 997f 603c ac13 033e 19eb 6ebd
000003a0: 2b69 11bb 7ca2 dd3d 5457 5bbe 5b58 c63d
000003b0: 95a5 25be c741 acbc e724 bf3d 0d2d 95bd
000003c0: e5c5 81bb 780d 72bd a4f3 a03e 08f6 d83d
000003d0: 8cf1 8e3f 93ba 5b3f 105c 203e cdf3 933d
000003e0: 9e2b 183e ccb8 2e3e b311 0ebe f858 bfbf
000003f0: f6f2 a43e b691 953d 8ce2 abbe 50ef c7be

actor.0.bias f4 [128]
0.16095106 -0.1513129 0.07281417 -0.13963841 -0.12242574 -0.2520083 -0.23154476 -0.30548564
-0.21861666 -0.16406798 -0.33966354 0.112330206 -0.21975698 0.051927622 -0.061983272 -0.16157144
0.0050525283 -0.05815604 -0.054382253 0.043192517 -0.24838892 -0.16690756 0.0010953251 -0.12660927
0.037795316 0.09832614 -0.29240432 -0.22885805 -0.37166232 0.13518265 0.05813476 0.13283089
-0.037071526 0.121486366 -0.12978068 -0.029039405 0.14882906 0.259681 0.044617623 0.06766718
0.18388283 0.04675101 -0.013415969 -0.0041092415 -0.08470752 -0.064171344 -0.088361084 -0.19000626
0.0350141 0.28794843 0.20836723 0.08988303 -0.20947729 -0.020857427 0.013310177 0.06319626
-0.1883126 -0.065032035 -0.14706172 0.018966557 -0.07496418 -0.013292803 -0.0100438455 -0.12030311
-0.010635018 -0.09492846 0.009705349 -0.19537218 -0.21348177 -0.083952576 0.06883802 0.07567024
-0.12371829 0.13672952 -0.26913038 -0.09606982 -0.014823286 -0.036579166 0.023654856 0.08665204
0.1169282 -0.08760653 -0.15785135 -0.11261437 -0.34422022 -0.23581427 -0.17901736 -0.27152884
-0.13332604 -0.13675524 -0.04126168 -0.25218529 -0.3017661 -0.2932407 -0.055168454 -0.11348134
-0.34449154 0.23725855 -0.065606795 -0.23831387 0.03133469 0.15066257 -0.24987075 -0.16168633
-0.23774947 0.03609836 -0.07969072 -0.3171705 -0.19704449 -0.025300251 -0.16337699 0.07576015
-0.06735774 0.032693725 0.031906962 -0.3497458 -0.30243057 -0.036890037 -0.22355318 0.14962047
-0.10014354 0.174988 0.09177267 -0.15261985 -0.29876667 -0.19958809 -0.382951 -0.07526018
00000000: 5bd0 243e c5f1 1abe 981f 953d 5ffd 0ebe
00000010: 59ba fabd 3b07 81be 121a 6dbe 9d68 9cbe
00000020: 0cdd 5fbe 7001 28be 61e8 adbe 610d e63d
00000030: f907 61be 0fb2 543d 2ce2 7dbd fc72 25be
00000040: ae8f a53b 0735 6ebd edbf 5ebd a3ea 303d
00000050: aa59 7ebe d1e9 2abe 0391 8f3a dca5 01be
00000060: 43cf 1a3d 375f c93d 05b6 95be c459 6abe
00000070: 864a bebe 526d 0a3e b71e 6e3d d204 083e
00000080: 50d8 17bd d8cd f83d 3ae5 04be 0ce4 edbc
00000090: a566 183e e8f4 843e f8c0 363d 1795 8a3d
000000a0: c84b 3c3e fd7d 3f3d a7ce 5bbc d1a6 86bb
000000b0: 237b adbd 446c 83bd a8f6 b4bd 0091 42be
000000c0: f26a 0f3d fa6d 933e 385e 553e 9814 b83d
000000d0: 3781 56be 32dd aabc ee12 5a3c 0a6d 813d
000000e0: 05d5 40be 842f 85bd 5997 16be c15f 9b3c
000000f0: d286 99bd 0fca 59bc f18e 24bc 7a61 f6bd
00000100: 803e 2ebc da69 c2bd 2f03 1f3c a50f 48be
00000110: f79a 5abe 54ef abbd f3fa 8c3d 00f9 9a3d
00000120: 0460 fdbd d302 0c3e 75cb 89be 41c0 c4bd
00000130: 5edd 72bc 09d4 15bd d4c7 c13c a076 b13d
00000140: 0d78 ef3d 0d6b b3bd c9a3 21be 5da2 e6bd
00000150: a23d b0be 4c79 71be 5450 37be d405 8bbe
00000160: 9f86 08be 9109 0cbe 0202 29bd 6e1e 81be
00000170: 1681 9abe a523 96be 51f8 61bd e868 e8bd
00000180: 3261 b0be e8f3 723e db5c 86bd 8d08 74be
00000190: ce58 003d 4a47 1a3e 1ede 7fbe 1a91 25be
000001a0: 9974 73be e0db 133d e334 a3bd 2c64 a2be
000001b0: 08c6 49be 7942 cfbc 4c4c 27be 2328 9b3d
000001c0: dbf2 89bd dbe9 053d e0b0 023d e211 b3be
000001d0: 2ed8 9abe 021a 17bd 20eb 64be 1c36 193e
000001e0: 0e18 cdbd 0e30 333e 4ff3 bb3d 6148 1cbe
000001f0: f2f7 98be d260 4cbe 2712 c4be 0222 9abd

actor.2.weight f4 [64, 128]
0.04497366 -0.072687596 -0.26335478 0.04386204 0.287134 0.20006444 -0.017427765 0.078369826
-0.19690458 -0.43036073 0.15246539 0.039590284 -0.16712624 -0.09741864 0.16458133 -0.030415196
0.04343386 -0.22017224 0.025770586 -0.37291217 -0.14230882 -0.046963654 -0.16961122 0.0018456876
0.16417922 0.03944962 0.16940905 0.03062399 0.0548373 -0.4395251 0.12089332 -0.16997592
-0.16503428 -0.17116764 -0.19629322 0.2253693 -0.06256618 -0.13948105 -0.121469826 -0.119433336
-0.23191401 -0.43764356 0.13139807 -0.31449112 0.18918583 0.18927528 -0.28494015 -0.1253441
0.11777461 -0.12193081 -0.031320456 0.067016274 -0.11384472 0.08950216 -0.092779905 -0.27519092
-0.009455563 -0.16198905 0.0018605711 -0.42359316 -0.03956009 -0.034212 -0.22871985 -0.11669135
0.29469907 0.1284246 -0.10646597 -0.1747366 0.053317916 -0.064361006 -0.33221936 -0.21642049
-0.103664696 0.0020151066 0.5634866 -0.09055441 -0.09024512 -0.16395149 -0.39470443 -0.3811576
0.037358772 -0.30861813 -0.03301065 0.04205875 -0.20855853 -0.2964726 0.024093583 0.13752744
0.09985541 -0.08863788 -0.27966622 0.080398455 0.032570694 -0.035260472 0.30269313 -0.3662243
0.35968357 -0.051109243 -0.25915426 -0.08498308 0.16120718 -0.08724782 0.22300549 0.07680949
0.05610488 0.07297591 -0.012336352 0.22046033 0.061614636 -0.08651008 0.31702006 0.24057911
0.06515879 -0.17555793 -0.044670857 0.21306613 0.06869704 -0.15931538 0.16582881 -0.29059878
0.018158318 -0.16189083 -0.25270042 0.13567376 0.18482661 -0.17234923 -0.034212224 -0.1381599
-0.21003701 0.05457572 -0.22042502 0.25718936 -0.15732478 -0.15561071 -0.045671623 -0.13652553
-0.25293258 -0.28593352 0.02276623 -0.07505673 0.24293822 -0.17934814 0.19077191 0.11209553
-0.2697551 -0.05564642 0.010784675 -0.22227247 0.23476231 -0.05312164 0.035104096 0.1612727
0.016465988 -0.43760875 -0.07445082 -0.21108016 0.025040207 0.088151515 0.17248902 -0.47432145
0.060069 -0.08237299 0.163887 -0.22487643 -0.17950344 -0.10495049 0.1798725 -0.0052207066
-0.030594494 -0.0403916 -0.010426977 -0.10684348 0.21483992 -0.3097261 -0.25873438 -0.20267276
-0.32660723 -0.15649773 -0.5756209 -0.14154911 0.08037625 -0.06297437 -0.060506344 -0.22251266
0.029022757 0.108775295 0.12963474 -0.14364657 0.3703041 0.0006696696 -0.22883138 0.10744212
0.26161852 0.05651153 0.13809611 0.008147811 0.29857475 -0.0023191024 -0.12394268 0.10960099
0.12773722 -0.31106102 -0.13755824 0.073079005 -0.27250096 0.07420729 0.3544538 -0.22056432
-0.11631486 -0.41226456 0.18146703 -0.059984088 0.0018037744 -0.23240608 -0.14545314 -0.093716465
0.30330172 0.03318204 -0.27873594 0.2586386 0.2742835 0.3173271 0.11371451 0.13422494
-0.008871809 -0.055698566 0.14859678 0.039707158 -0.24103983 -0.46073592 0.115247935 0.053649567
-0.027711445 0.017846717 -0.13461728 -0.007261921 -0.38063183 -0.11365804 -0.11301318 0.10487777
0.20301494 -0.15332018 -0.10265613 0.30326852 0.23450094 0.031130396 0.22927643 -0.07957622
0.15889151 0.1891016 0.124024294 2.297653e-05 -0.19720262 0.10288987 -0.0655267 -0.017671157
00000000: 4d36 383d 3cdd 94bd 70d6 86be afa8 333d
00000010: 3a03 933e b1dd 4c3e acc4 8ebc 5c80 a03d
00000020: 5ba1 49be 3e58 dcbe e31f 1c3e 6c29 223d
00000030: 2423 2bbe 6d83 c7bd 0288 283e 4a29 f9bc
00000040: b4e7 313d d574 61be d61c d33c 58ee bebe
00000050: 67b9 11be f65c 40bd 90ae 2dbe 00eb f13a
00000060: 991e 283e ed95 213d 9179 2d3e 29df fa3c
00000070: 149d 603d 6f09 e1be eb96 f73d 2b0e 2ebe
00000080: bffe 28be 9246 2fbe 1701 49be 36c7 663e
00000090: b322 80bd 1fd4 0ebe 2cc5 f8bd 7799 f4bd
000000a0: de7a 6dbe d112 e0be 378d 063e fb04 a1be
000000b0: eeb9 413e 61d1 413e ade3 91be 345a 00be
000000c0: d133 f13d dcb6 f9bd e149 00bd d43f 893d
000000d0: 6c27 e9bd e94c b73d 6403 bebd d3e5 8cbe
000000e0: 81eb 1abc 75e0 25be 68de f33a 34e1 d8be
000000f0: c309 22bd e221 0cbd 8935 6abe e0fb eebd
00000100: cce2 963e bd81 033e d50a dabd 27ee 32be
00000110: e363 5a3d b4cf 83bd a818 aabe 559d 5dbe
00000120: 284e d4bd e10f 043b a840 103f 9774 b9bd
00000130: 6fd2 b8bd e6e2 27be b316 cabe 1727 c3be
00000140: 8305 193d 3203 9ebe 2d36 07bd cc45 2c3d
00000150: 5e90 55be 42cb 97be e85f c53c fed3 0c3e
00000160: fe80 cc3d c787 b5bd 6930 8fbe f2a7 a43d
00000170: d968 053d 496d 10bd 98fa 9a3e c081 bbbe
00000180: 7228 b83e ed57 51bd deaf 84be 9c0b aebd
00000190: 7f13 253e fcae b2bd 8d5b 643e 4b4e 9d3d
000001a0: 3bce 653d 6574 953d 691e 4abc 5ac0 613e
000001b0: a15f 7c3d 322c b1bd 7450 a23e 5f5a 763e
000001c0: f971 853d 75c5 33be caf8 36bd 022e 5a3e
000001d0: 09b1 8c3d 9223 23be 07cf 293e 5dc9 94be
000001e0: c1c0 943c b6c6 25be f361 81be 10ee 0a3e
000001f0: 3043 3d3e 517c 30be 1e22 0cbd ca79 0dbe
00000200: f113 57be ca8a 5f3d 19b7 61be 53ae 833e
00000210: bf19 21be 6a58 1fbe 2b12 3bbd 59cd 0bbe
00000220: 6180 81be e165 92be 3f80 ba3c 58b7 99bd
00000230: ccc4 783e 0aa7 37be b659 433e 5792 e53d
00000240: 571d 8abe 80ed 63bd 35b2 303c 659b 63be
00000250: 8865 703e 1496 59bd 50c9 0f3d ac24 253e
00000260: aee3 863c 410e e0be ac79 98bd 6625 58be
00000270: 1f21 cd3c c888 b43d f6a0 303e 43da f2be
00000280: e90a 763d 2cb3 a8bd fed1 273e 0246 66be
00000290: c0cf 37be 48f0 d6bd 7f30 383e 7612 abbb
000002a0: 4ea1 fabc aa71 25bd e9d5 2abc c1d0 dabd
000002b0: fffe 5b3e 6b94 9ebe d578 84be 7389 4fbe
000002c0: 1039 a7be f140 20be e45b 13bf 40f2 10be
000002d0: 4e9c a43d b5f8 80bd 80d5 77bd 5cda 63be
000002e0: 22c1 ed3c 95c5 de3d f8be 043e 1618 13be
000002f0: 8098 bd3e c48c 2f3a c652 6abe 9d0a dc3d
00000300: ddf2 853e a278 673d 1169 0d3e 657e 053c
00000310: cade 983e 15fc 17bb a9d5 fdbd 7c76 e03d
00000320: 8ccd 023e 6443 9fbe 11dc 0cbe 72aa 953d
00000330: 3f85 8bbe fef9 973d f87a b53e 9ddb 61be
00000340: 7c36 eebd 5714 d3be 7ed2 393e e0b1 75bd
00000350: a06c ec3a dcfb 6dbe abf1 14be 6bee bfbd
00000360: 5d4a 9b3e e4e9 073d 7ab6 8ebe 476c 843e
00000370: e36e 8c3e b378 a23e 27e3 e83d 4372 093e
00000380: 105b 11bc 2e24 64bd c129 183e f9a3 223d
00000390: 25d3 76be 94e5 ebbe 1c07 ec3d a6bf 5b3d
000003a0: 1d03 e3bc 4733 923c 1dd9 09be 69f5 edbb
000003b0: 2de2 c2be 8cc5 e8bd 7473 e7bd 28ca d63d
000003c0: 26e3 4f3e f7ff 1cbe 613d d2bd 0346 9b3e
000003d0: 0421 703e 2c05 ff3c 71c7 6a3e dbf8 a2bd
000003e0: 75b4 223e daa3 413e 7300 fe3d b9bd c037
000003f0: 7cef 49be edb7 d23d dd32 86bd 1ac3 90bc

actor.2.bias f4 [64]
-0.22532712 -0.19948633 -0.02959473 -0.1888744 -0.2360234 -0.023388727 -0.15257911 -0.110919945
-0.17952502 -0.15640984 -0.060247727 -0.0978248 -0.15856482 -0.14545473 -0.27038717 -0.21122207
-0.10768794 0.11569814 -0.10334237 -0.14925264 -0.02154301 -0.023317404 -0.17965414 -0.15832092
-0.17876697 0.017307058 -0.1514842 -0.28181756 -0.3416987 -0.25754264 -0.051219612 -0.17327173
-0.28894743 -0.2046805 -0.022437382 -0.14949432 -0.47638258 -0.070846856 -0.1263974 -0.15204847
-0.120837815 -0.18488246 -0.003490842 -0.22751908 -0.13002543 -0.11247701 -0.16095258 -0.070491925
-0.112541154 -0.13274392 -0.047857683 0.019449266 -0.1460663 -0.16425991 -0.07528401 -0.020293012
0.038594052 -0.26283938 -0.1452424 0.035368443 -0.2896005 -0.12820512 0.06789557 -0.18950306
00000000: 27bc 66be 2546 4cbe a670 f2bc 4a68 41be
00000010: 1eb0 71be b799 bfbc b33d 1cbe ff29 e3bd
00000020: 68d5 37be e729 20be 52c6 76bd 5e58 c8bd
00000030: d15e 22be 16f2 14be 3070 8abe 994a 58be
00000040: 7f8b dcbd 25f3 ec3d 2aa5 d3bd afd5 18be
00000050: f77a b0bc 2404 bfbc 41f7 37be e11e 22be
00000060: b00e 37be 88c7 8d3c ad1e 1bbe 644a 90be
00000070: 22f3 aebe a1dc 83be a8cb 51bd 256e 31be
00000080: ebf0 93be c497 51be 9ace b7bc 0a15 19be
00000090: 6be8 f3be 2818 91bd 526e 01be 98b2 1bbe
000000a0: d179 f7bd d451 3dbe 9cc6 64bb c3fa 68be
000000b0: 6325 05be 595a e6bd c1d0 24be 125e 90bd
000000c0: fa7b e6bd 06ee 07be 6b06 44bd 1154 9f3c
000000d0: 6792 15be c033 28be 812e 9abd 883d a6bc
000000e0: cc14 1e3d e292 86be 6cba 14be 80de 103d
000000f0: 8446 94be 3448 03be d50c 8b3d 170d 42be

actor.4.weight f4 [32, 64]
0.20186198 0.27710128 0.12210251 0.1264585 -0.05008658 -0.032502875 0.09849668 -0.090944044
0.077923246 -0.071887285 -0.029058237 0.1931803 0.029115787 0.069762126 0.015601958 0.12564348
0.12953617 0.20561926 -0.012625271 -0.041891553 -0.031348485 0.07301974 0.035874672 0.19598743
0.012035274 0.097208984 -0.0056391424 -0.0053242627 0.100993924 0.017383952 -0.076220006 0.07280732
0.22923888 0.073104575 -0.17338839 -0.26790157 0.4331629 -0.00056589226 -0.033306718 -0.007354225
0.08401396 0.04556279 -0.032930322 0.058273576 0.19897775 0.15938325 -0.022273602 -0.2888537
-0.2647433 0.022629822 0.066354215 -0.011577546 0.0829308 0.25409892 -0.13041617 0.07624463
-0.19624965 -0.12483313 0.09378603 0.093056425 0.11333721 0.12781735 -0.2483953 -0.10643685
-0.23133335 -0.08135956 -0.11536528 -0.06645058 0.003640371 -0.077740304 0.031745937 0.122695364
0.024233954 -0.14509831 -0.02441834 -0.054112673 0.19066775 -0.2545111 0.1453266 0.14265798
0.20858847 -0.13655461 -0.10013033 0.0655467 -0.010766654 -0.13583079 0.02195159 -0.25624904
-0.03862442 -0.053598564 0.12499024 -0.016839676 -0.14700074 -0.055860028 -0.2437479 -0.2216394
-0.149798 0.16174807 0.06948349 -0.30950993 -0.13413878 -0.099152006 -0.03966912 -0.27535564
0.1749353 -0.28796494 0.102079086 -0.12618348 0.3135726 0.178135 0.23731604 -0.03335457
0.0912985 0.04216294 -0.0055443854 0.14041486 -0.10777543 0.3707741 -0.016681787 -0.038675062
-0.11826946 -0.09694492 0.050918058 -0.070447154 0.058675207 -0.0719932 0.14004669 0.160644
0.23248592 -0.065400325 -0.060724773 0.20943949 0.13960081 -0.12520346 -0.49599168 -0.036617395
0.1381191 -0.43755603 -0.15807785 -0.21355033 -0.31572595 0.020063637 -0.07554738 0.12759012
0.012365511 -0.481704 -0.048240263 0.15925391 0.012231363 -0.19916962 -0.048124865 -0.100151934
-0.0050526666 -0.26737756 -0.12619735 -0.08642583 0.13373265 -0.073927365 -0.32791793 -0.034283184
0.07340636 0.07425469 0.23491628 -0.028905394 0.09033772 -0.12929021 -0.010997461 0.043466832
-0.086079724 0.19743867 0.062075675 0.048317358 -0.1951358 -0.20114559 0.09111152 0.019001273
-0.048129864 -0.037583295 -0.44724613 -0.1250242 -0.030478358 -0.27626365 -0.10782571 -0.019051475
-0.1132084 -0.1320671 -0.17412989 0.04739496 0.02487366 0.040384848 0.025143553 -0.07767117
0.15932587 0.06355086 0.04663231 -0.07089795 0.07945101 -0.16695447 0.11279455 0.15070787
0.23502088 -0.085406244 0.047900684 0.011219016 -0.07221297 -0.2427575 0.1577717 0.37632492
0.18643579 -0.04990504 -0.06038882 0.24182774 0.21603379 -0.07527004 0.21861683 0.039286926
0.20042685 0.16741408 0.023635816 -0.17304853 -0.175407 -0.15826774 0.07043902 -0.49166816
-0.04353227 0.03785972 -0.09832423 0.13507155 0.093071535 -0.0077024233 -0.13664337 0.29081422
-0.16932404 -0.2425453 -0.071187206 0.028678492 0.080548815 0.074539736 0.16246691 0.039423104
0.03442549 0.13280143 0.14567049 0.028071024 0.07167754 -0.042468257 0.20740755 0.043474615
-0.32801482 0.06571249 -0.17872092 0.15928693 -0.17026569 -0.36847875 -0.0147646 0.09155324
00000000: e8b4 4e3e 38e0 8d3e e110 fa3d 567e 013e
00000010: 9627 4dbd bc21 05bd a1b8 c93d df40 babd
00000020: 3996 9f3d a439 93bd 8a0b eebc 0ed1 453e
00000030: 3b84 ee3c 72df 8e3d 5b9f 7f3c afa8 003e
00000040: 21a5 043e db8d 523e 3ada 4ebc 7a96 2bbd
00000050: 4567 00bd 608b 953d 52f1 123d eeb0 483e
00000060: 992f 453c 8115 c73d 8ec8 b8bb 2777 aebb
00000070: e7d5 ce3d ca68 8e3c 3c19 9cbd 011c 953d
00000080: 99bd 6a3e dab7 953d ba8c 31be 652a 89be
00000090: 87c7 dd3e 6358 14ba a06c 08bd b6fb f0bb
000000a0: 830f ac3d 0ca0 3a3d f2e1 06bd 46b0 6e3d
000000b0: d3c0 4b3e 5d35 233e 2177 b6bc a2e4 93be
000000c0: 6f8c 87be 2d62 b93c b8e4 873d bfaf 3dbc
000000d0: a0d7 a93d 4119 823e d18b 05be 2526 9c3d
000000e0: abf5 48be 83a8 ffbd e412 c03d 5e94 be3d
000000f0: 571d e83d 8de2 023e 565b 7ebe 90fb d9bd
00000100: a6e2 6cbe d79f a6bd a244 ecbd 3e17 88bd
00000110: 4a93 6e3b 4f36 9fbd 0708 023d b547 fb3d
00000120: 4986 c63c a794 14be f808 c8bc 40a5 5dbd
00000130: 683e 433e 474f 82be 7fd0 143e ef14 123e
00000140: 3798 553e f9d4 0bbe 2111 cdbd 593d 863d
00000150: 9f66 30bc 3a17 0bbe d2d3 b33c 1333 83be
00000160: a434 1ebd 2b8a 5bbd e2fa ff3d 5cf3 89bc
00000170: 5d87 16be 7ccd 64bd 0d99 79be 70f5 62be
00000180: a664 19be 49a1 253e 5c4d 8e3d 1678 9ebe
00000190: ad5b 09be 3510 cbbd 167c 22bd 6afb 8cbe
000001a0: 3d22 333e 2470 93be d70e d13d 3e36 01be
000001b0: 968c a03e 0569 363e fa02 733e cd9e 08bd
000001c0: b5fa ba3d 0cb3 2c3d adad b5bb eac8 0f3e
000001d0: 5db9 dcbd 1ad6 bd3e 3ea8 88bc be69 1ebd
000001e0: 4237 f2bd 0f8b c6bd 748f 503d 9946 90bd
000001f0: 6a55 703d 2c71 93bd 6668 0f3e dc7f 243e
00000200: ca10 6e3e 9bf0 85bd 8aba 78bd 4e77 563e
00000210: 84f3 0e3e 5635 00be 9ff2 fdbe 1ffc 15bd
00000220: 186f 0d3e 5807 e0be 29df 21be f0ac 5abe
00000230: d5a6 a1be 7f5c a43c 96b8 9abd fca6 023e
00000240: b698 4a3c e8a1 f6be 9597 45bd 7513 233e
00000250: 0e66 483c 1ff3 4bbe 941e 45bd 751c cdbd
00000260: d790 a5bb b6e5 88be e139 01be 0700 b1bd
00000270: 36f1 083e 3b67 97bd dce4 a7be 866c 0cbd
00000280: 1356 963d d812 983d e58d 703e 01cb ecbc
00000290: fc02 b93d a764 04be b22e 34bc 470a 323d
000002a0: 914a b0bd 5d2d 4a3e 1043 7e3d 6ce8 453d
000002b0: aed1 47be 1cf9 4dbe ad98 ba3d 8fa8 9b3c
000002c0: d223 45bd f1f0 19bd 72fd e4be 5806 00be
000002d0: c0ad f9bc 6e72 8dbe bad3 dcbd d711 9cbc
000002e0: ced9 e7bd 993c 07be 1b4f 32be 3821 423d
000002f0: d9c3 cb3c 956a 253d daf9 cd3c 1012 9fbd
00000300: 5226 233e f426 823d 8501 3f3d f232 91bd
00000310: 36b7 a23d 1df6 2abe d400 e73d 2a53 1a3e
00000320: 50a9 703e 78e9 aebd 8233 443d f7cf 373c
00000330: 65e4 93bd 6c95 78be e88e 213e a9ad c03e
00000340: 06e9 3e3e 3a69 4cbd 445a 77bd b1a1 773e
00000350: f637 5d3e 2e27 9abd 17dd 5f3e 54eb 203d
00000360: b23c 4d3e 996e 2b3e e69f c13c a233 31be
00000370: e59d 33be f010 22be 5542 903d eebb fbbe
00000380: e54e 32bd cb12 1b3d 375e c9bd 3250 0a3e
00000390: 4a9c be3d 9c64 fcbb 3dec 0bbe 9ae5 943e
000003a0: 4863 2dbe cc5d 78be 99ca 91bd 28ef ea3c
000003b0: c7f6 a43d 4aa8 983d ba5d 263e 1f7a 213d
000003c0: be01 0d3d 19fd 073e a52a 153e 34f5 e53c
000003d0: adcb 923d 32f3 2dbd a562 543e 7012 323d
000003e0: 8ff1 a7be 4594 863d 9e02 37be 1d1c 233e
000003f0: 215a 2ebe 3fa9 bcbe 39e7 71bc 4480 bb3d

actor.4.bias f4 [32]
-0.006519389 0.1796014 -0.42216247 -0.055230357 -0.04184648 -0.10958031 -0.05652633 -0.0805046
-0.24770288 0.09742271 -0.21841969 -0.04393823 -0.015053403 0.0205451 -0.16106279 -0.17150179
-0.21281147 -0.20212701 -0.26455244 -0.00739505 0.08831751 -0.18005788 -0.20184141 -0.07251479
0.028753115 -0.049282733 -0.26546502 0.036597528 -0.012288605 0.16371544 -0.056965694 -0.12375568
00000000: 99a0 d5bb 6ee9 373e ae25 d8be 3a39 62bd
00000010: 3767 2bbd a46b e0bd 2788 67bd 99df a4bd
00000020: d3a5 7dbe 8f85 c73d 69a9 5fbe 93f8 33bd
00000030: 8ca2 76bc 334e a83c a5ed 24be 2a9e 2fbe
00000040: 40eb 59be 62fa 4ebe 6b73 87be 2d52 f2bb
00000050: d0df b43d 1861 38be 84af 4ebe a282 94bd
00000060: a78b eb3c b1dc 49bd 08eb 87be 4ae7 153d
00000070: 2556 49bc 05a5 273e dc54 69bd 9e73 fdbd

actor.6.weight f4 [12, 32]
-0.0050551854 -0.12583995 0.15722795 0.09282944 -0.10581772 -0.20138599 -0.059927598 -0.00081580057
0.054770336 -0.07312859 -0.020031197 0.15620536 -0.029975425 0.033263564 0.021095268 0.07032071
0.034335326 -0.041310444 -0.0564247 -0.054942664 -0.04529562 0.009520914 -0.028462261 -0.05891268
0.017545825 0.147758 0.043837216 0.17497994 0.004820614 -0.1081786 0.013591925 -0.06766887
0.076112196 0.124378756 0.09848871 -0.04012542 -0.06943742 -0.02534462 0.043899745 0.054289196
-0.017688647 0.14417441 -0.08696436 0.062844 -0.08901108 0.07485034 -0.31615576 0.0822444
-0.008783374 0.083983384 -0.1193863 -0.03090062 -0.1567041 -0.091554105 -0.03575107 0.1583266
0.19853279 -0.016885377 0.034111794 0.13127293 -0.13097796 -0.024772083 -0.037032463 -0.028071305
-0.047223 -0.07243738 -0.007003376 -0.024259627 -0.05536922 0.10871842 0.076857015 0.01714296
-0.2080841 0.024701862 -0.014429986 0.1443233 0.010065973 -0.102474086 0.22086765 -0.056510776
-0.11007274 -0.02157365 0.16401929 0.028042896 0.09780098 0.13860221 0.15475959 0.3154695
-0.18112336 0.1803876 0.114868395 -0.07118733 -0.059766717 -0.06745464 -0.036638737 -0.015581317
0.102359325 -0.08888361 0.23538822 -0.030047432 -0.018443545 0.13249674 0.0061369813 -0.058408376
0.033312995 0.112679385 -0.021681929 -0.06912325 -0.04760117 0.016419142 0.020125637 0.02035737
0.105916634 0.036933403 0.042131457 -0.14723071 0.06377326 -0.0894815 0.056148604 0.013530628
-0.057512306 0.09324943 -0.025619457 -0.17546399 -0.03118508 -0.085129865 -0.051393405 0.20171428
-0.03967819 -0.08267919 -0.016714236 -0.02912524 -0.20296551 -0.029342016 0.0064192824 -0.08460235
-0.03532278 0.11235994 0.09307255 -0.15380734 0.050372142 -0.008198147 -0.04846527 -0.026784882
-0.089543 -0.07481182 -0.21306945 0.07803611 0.004741463 -0.022576218 -0.19228025 0.015894342
-0.018717857 -0.018123068 0.09535047 0.20625855 0.027895859 -0.042574905 -0.10944513 0.12660763
0.16776226 -0.13740718 0.041997112 -0.013004315 0.08434317 0.3279038 0.052427404 0.08855204
0.03434073 -0.28336817 -0.13535412 -0.1539509 0.07657147 -0.04282511 0.026092602 -0.049247064
-0.06102167 0.15877037 -0.09452455 -0.060953785 0.05612803 0.17075819 0.0749383 0.023524204
0.13241915 -0.05549029 -0.016299643 -0.012553395 -0.107829854 0.065942734 -0.17369583 -0.17186774
0.12887727 0.07828024 -0.1035508 -0.08187402 -0.058595154 0.013346816 0.0701916 -0.03586262
-0.03287012 0.14308366 -0.19552125 0.034535617 0.048668403 0.032859303 0.07970872 -0.1810454
-0.07712277 -0.034194943 0.007524553 0.034859627 0.07673194 -0.19731739 0.111989304 -0.055292573
-0.083663285 -0.015594544 -0.030505234 0.15686627 0.07908521 -0.034349322 0.067806825 0.017099505
0.017273594 -0.09543777 -0.12386608 -0.060908925 0.09230092 -0.16417763 0.016179753 -0.031719957
0.14377429 0.04486545 0.00018115899 -0.016948638 0.03373235 -0.06012049 -0.025564488 -0.048684943
-0.32101238 0.018727886 -0.052533098 -0.034220833 0.041309748 0.113301046 -0.0860672 0.15756293
0.09421282 -0.17887537 0.101986066 -0.10683849 0.054993857 -0.15130201 -0.045645125 0.1270445
00000000: f8a5 a5bb 30dc 00be 5d00 213e 5d1d be3d
00000010: f6b6 d8bd 2138 4ebe a476 75bd 73db 55ba
00000020: dc56 603d 71c4 95bd 7718 a4bc 4cf4 1f3e
00000030: 068f f5bc 603f 083d fccf ac3c 4e04 903d
00000040: 33a3 0c3d 2435 29bd 961d 67bd 8f0b 61bd
00000050: e687 39bd 9cfd 1b3c b029 e9bc 6c4e 71bd
00000060: 43bc 8f3c e04d 173e a78e 333d f12d 333e
00000070: 3ef6 9d3b be8c ddbd aab0 5e3c fa95 8abd
00000080: b6e0 9b3d 4aba fe3d 73b4 c93d 8d5a 24bd
00000090: 3535 8ebd 859f cfbc 38d0 333d 595e 5e3d
000000a0: c8e7 90bc 75a2 133e 5f1a b2bd 5bb4 803d
000000b0: 714b b6bd 234b 993d 2bdf a1be c16f a83d
000000c0: 24e8 0fbc 7bff ab3d ce80 f4bd 4c23 fdbc
000000d0: 0a77 20be b880 bbbd b76f 12bd 5e20 223e
000000e0: 2e4c 4b3e 3453 8abc cfb8 0b3d 696c 063e
000000f0: 161f 06be d3ee cabc 5aaf 17bd cbf5 e5bc
00000100: e86c 41bd 0d5a 94bd 937c e5bb 20bc c6bc
00000110: d6ca 62bd c3a7 de3d 3667 9d3d 656f 8c3c
00000120: 0014 55be 8f5b ca3c bf6b 6cbc 7dc9 133e
00000130: c0eb 243c efdd d1bd 212b 623e d877 67bd
00000140: d16d e1bd 39bb b0bc acf4 273e 37ba e53c
00000150: e14b c83d bded 0d3e 4c79 1e3e 3885 a13e
00000160: 6778 39be 87b7 383e 1f40 eb3d aaca 91bd
00000170: f2cd 74bd a925 8abd 8012 16bd c848 7fbc
00000180: c4a1 d13d 9c08 b6bd 9c09 713e 0826 f6bc
00000190: eb16 97bc 3aad 073e bb18 c93b 9f3d 6fbd
000001a0: 3573 083d 73c4 e63d 4d9e b1bc 7e90 8dbd
000001b0: 72f9 42bd 7081 863c 85de a43c 80c4 a63c
000001c0: d2ea d83d 7b47 173d 0992 2c3d a6c3 16be
000001d0: 8e9b 823d 1442 b7bd 14fc 653d 91af 5d3c
000001e0: 0692 6bbd 8ff9 be3d e5df d1bc d5ac 33be
000001f0: da77 ffbc 9158 aebd e481 52bd 308e 4e3e
00000200: 9985 22bd b553 a9bd 4bec 88bc 0e98 eebc
00000210: 31d6 4fbe ab5e f0bc d858 d23b ff43 adbd
00000220: 9fae 10bd f81c e63d d29c be3d ac7f 1dbe
00000230: 0553 4e3d 8551 06bc 8583 46bd f86b dbbc
00000240: 5262 b7bd f136 99bd e12e 5abe 65d1 9f3d
00000250: 465e 9b3b c3f1 b8bc 1de5 44be da34 823c
00000260: 3156 99bc d476 94bc 1b47 c33d 7135 533e
00000270: db85 e43c 0663 2ebd c524 e0bd 6ea5 013e
00000280: dfc9 2b3e 78b4 0cbe 2a05 2c3d 0d10 55bc
00000290: 1dbc ac3d 02e3 a73e 1ebe 563d c65a b53d
000002a0: dea8 0c3d a215 91be 459a 0abe 4ea5 1dbe
000002b0: 81d1 9c3d 6269 2fbd 27c0 d53c 4ab7 49bd
000002c0: dcf1 79bd b394 223e 1696 c1bd adaa 79bd
000002d0: 81e6 653d 3cdb 2e3e 4079 993d d5b5 c03c
000002e0: e398 073e c949 63bd d486 85bc c1ac 4dbc
000002f0: e6d5 dcbd fc0c 873d 52dd 31be 19fe 2fbe
00000300: 67f8 033e 6451 a03d 7112 d4bd 91ad a7bd
00000310: 7901 70bd 9bac 5a3c 9dc0 8f3d afe4 12bd
00000320: d2a2 06bd 8684 123e b936 48be 3875 0d3d
00000330: 8558 473d 7a97 063d 533e a33d f763 39be
00000340: 8bf2 9dbd ff0f 0cbd 8790 f63b f8c8 0e3d
00000350: a325 9d3d 920d 4abe a65a e53d 777a 62bd
00000360: a857 abbd 4280 7fbc 1de6 f9bc 8da1 203e
00000370: 6df7 a13d e0b1 0cbd 4ede 8a3d 4314 8c3c
00000380: 5a81 8d3c e174 c3bd 80ad fdbd a37b 79bd
00000390: 4408 bd3d 2e1e 28be 678b 843c c9ec 01bd
000003a0: 9139 133e d6c4 373d 7ff5 3d39 dfd7 8abc
000003b0: ef2a 0a3d e740 76bd 9e6c d1bc dd69 47bd
000003c0: bc5b a4be 396b 993c f22c 57bd 252b 0cbd
000003d0: 6934 293d 610a e83d 0044 b0bd 2d58 213e
000003e0: a7f2 c03d 1b2b 37be 12de d03d 23ce dabd
000003f0: 3d41 613d eaee 1abe 62f6 3abd f417 023e

actor.6.bias f4 [12]
-0.19279768 -0.012330414 0.09564652 -0.1643428 -0.24104472 -0.06357037 0.17333287 -0.0014909576
-0.044089768 0.16448648 -0.07082208 -0.13912466
00000000: c16c 45be 8105 4abc 53e2 c33d 7b49 28be
00000010: 6dd4 76be 2f31 82bd 2c7e 313e 3c6c c3ba
00000020: 7997 34bd 256f 283e 2b0b 91bd b276 0ebe

critic.0.weight f4 [128, 48]
0.31977767 0.22950326 0.8034168 -0.2021044 0.5853818 -0.4732279 -0.99801517 0.80456996
-0.0148883425 -0.17206421 -0.36912566 0.76687086 -0.03351352 -0.06553009 0.032350305 -0.070777714
-0.1698771 -0.26308388 -0.30386016 0.06563972 -0.058636367 -0.29910362 -0.017289428 -0.15985174
0.20342281 -0.20014918 -0.036952037 -0.29857537 -0.23854233 0.040089775 -0.13791007 0.12545934
-0.19960412 -0.060542986 0.0048711947 0.06343385 0.03464035 0.03581434 -0.019552914 -0.03571048
0.017520292 -0.053802144 0.0043705204 0.0047289426 -0.04767492 -0.0002636693 -0.0674291 0.08001641
0.24855572 0.039016075 0.053140406 -0.14084995 0.23352943 -0.008687365 1.3464632 0.38398427
0.017876979 -0.059670202 -0.24692316 0.59229916 -0.0013216124 0.36213502 0.28657398 0.07154776
0.015150989 -0.07438388 0.29602686 0.2964356 0.26630276 -0.18792067 -0.28436163 -0.020405967
-0.060587835 0.3720092 0.19143638 0.10552115 -0.10256921 0.0009575223 0.031417035 -0.048238482
0.06562901 -0.10084559 -0.22938791 0.03187583 0.0052506416 0.058483936 -0.075908385 -0.004074503
0.059756916 0.029942457 0.03990203 0.09179549 -0.048638493 0.039287977 0.03363391 -0.03521711
-0.10790165 0.100576974 0.1811395 -0.036354642 0.065365374 0.29967344 -0.37128857 0.40543324
0.10561148 0.017758297 -0.18011412 1.0687802 -0.43960917 -0.38337827 -0.36286926 -0.11128458
0.0357442 0.09085173 0.28461006 0.1102661 0.094760284 0.1082058 -0.22191937 0.040615086
0.084574394 -0.040997446 -0.19800079 -0.25843874 0.34264308 -0.048384674 0.16293716 -0.013454208
0.13637987 -0.060787674 0.06575586 -0.015397468 0.06128544 -0.018539585 -0.08440138 -0.061277866
-0.004448153 0.011460729 -0.0359772 0.00781281 0.08603749 -0.012256812 -0.039746273 0.028854208
-0.48875043 -0.034443244 0.11210004 -0.066302806 -0.44869858 -0.2692711 -1.919643 -0.033319075
0.045371667 -0.49337447 0.18467295 0.19971558 0.41727522 -0.2737114 -0.33575022 -0.7223444
-0.4085789 -0.29254535 -0.42502958 -0.7791405 -0.38745937 0.6933761 -0.261938 -0.35905796
0.21678622 0.26626888 -0.027970599 -0.33186156 0.18440145 -0.07671442 -0.22743875 -0.06642081
-0.11170485 0.20483106 0.18726535 -0.06661817 0.0018305244 0.0070056007 0.036233455 -0.031249767
-0.0075884215 0.011232073 0.02650979 -0.02671076 -0.025759997 0.008260064 -0.016622797 -0.017738229
-0.16733599 0.07726571 0.04592512 0.08392529 0.85003966 0.013214247 0.5578372 -0.5613105
-0.07718764 -0.087487645 0.17107354 -0.58004326 0.005290767 -0.0898689 -0.44128576 0.13005157
-0.08277858 -0.34903467 -0.084453344 0.27747038 0.26096842 -0.23365484 0.09299315 0.18396083
0.8167174 0.58218694 -0.15119559 0.008078016 0.09244377 0.039305385 -0.23794249 0.23610303
0.22814485 -0.01580687 -0.13300121 0.14892563 -0.0012538588 0.04788814 -0.057366036 -0.103523545
0.03572292 0.048465773 -0.039620213 -0.018720001 0.119592674 -0.03758053 -0.07998456 -0.010145277
0.21645178 -0.43895167 -0.23699027 0.05207572 0.5688983 0.13397364 1.0003648 -0.7070591
-0.12711328 -0.23478733 0.09129811 0.3807882 0.034134943 0.3783982 0.08354396 0.4142045
00000000: e6b9 a33e e702 6b3e b9ac 4d3f 75f4 4ebe
00000010: 95db 153f ed4a f2be ec7d 7fbf 4cf8 4d3f
00000020: 3cee 73bc 9a31 30be 0afe bcbe a651 443f
00000030: 7945 09bd a434 86bd c181 043d e8f3 90bd
00000040: 43f4 2dbe eeb2 86be 8f93 9bbe 1e6e 863d
00000050: b02c 70bd 1c24 99be 8fa2 8dbc 2db0 23be
00000060: 124e 503e e8f3 4cbe 055b 17bd dfde 98be
00000070: 7144 74be 2d35 243d 4c38 0dbe 6a78 003e
00000080: 0665 4cbe ecfb 77bd 8b9e 9f3b 9be9 813d
00000090: 0ae3 0d3d 0fb2 123d 6f2d a0bc 2745 12bd
000000a0: b786 8f3c a35f 5cbd 9536 8f3b 3ff5 9a3b
000000b0: c746 43bd 183d 8ab9 4518 8abd a5df a33d
000000c0: 6485 7e3e 52cf 1f3d c1a9 593d f83a 10be
000000d0: 5722 6f3e 7355 0ebc e858 ac3f 9699 c43e
000000e0: be72 923c be68 74bd 6dd9 7cbe eba0 173f
000000f0: f439 adba c369 b93e d3b9 923e a287 923d
00000100: db3b 783c 9356 98bd d590 973e 68c6 973e
00000110: d658 883e 476e 40be d997 91be 6a2a a7bc
00000120: f32a 78bd fd77 be3e e607 443e 791b d83d
00000130: ce0f d2bd 3c02 7b3a 26af 003d b795 45bd
00000140: 8168 863d 2288 cebd aae4 6abe 3b90 023d
00000150: 930d ac3b da8c 6f3d db75 9bbd 6983 85bb
00000160: abc3 743d e249 f53c 5070 233d 46ff bb3d
00000170: 2839 47bd 6eec 203d b6c3 093d d13f 10bd
00000180: 8afb dcbd 4dfb cd3d a27c 393e 9be8 14bd
00000190: 48de 853d cc6e 993e 8919 bebe f294 cf3e
000001a0: d54a d83d d979 913c d66f 38be cacd 883f
000001b0: 7414 e1be 284a c4be 00ca b9be 2be9 e3bd
000001c0: 8368 123d 7910 ba3d 69b8 913e 31d3 e13d
000001d0: ae11 c23d 019b dd3d d53e 63be 015c 263d
000001e0: 5735 ad3d f0ec 27bd b8c0 4abe 1552 84be
000001f0: ea6e af3e 022f 46bd 00d9 263e 0a6f 5cbc
00000200: 2aa7 0b3e 7ffc 78bd 02ab 863d a945 7cbc
00000210: 7106 7b3d 54e0 97bc a1da acbd 80fe 7abd
00000220: d0c1 91bb c8c5 3b3c d45c 13bd 4d01 003c
00000230: 6c34 b03d ccd0 48bc fdcc 22bd a95f ec3c
00000240: 7f3d fabe 5c14 0dbd b594 e53d c4c9 87bd
00000250: d2bb e5be e7dd 89be ddb6 f5bf 9579 08bd
00000260: a4d7 393d 949b fcbe e81a 3d3e 3e82 4c3e
00000270: 19a5 d53e e723 8cbe 74e7 abbe 90eb 38bf
00000280: 4131 d1be 81c8 95be 7a9d d9be c075 47bf
00000290: 1361 c6be 1981 313f bd1c 86be 72d6 b7be
000002a0: 35fd 5d3e 6554 883e 9922 e5bc c2e9 a9be
000002b0: bcd3 3c3e 731c 9dbd b4e5 68be a207 88bd
000002c0: 83c5 e4bd 3cbf 513e 7dc2 3f3e 1b6f 88bd
000002d0: 35ee ef3a 3d8f e53b 8869 143d 83ff ffbc
000002e0: 4ba8 f8bb bb06 383c 0f2b d93c 86d0 dabc
000002f0: a106 d3bc 3855 073c 882c 88bc c34f 91bc
00000300: 205a 2bbe 7c3d 9e3d fb1b 3c3d 06e1 ab3d
00000310: 339c 593f 9280 583c 6bce 0e3f 0cb2 0fbf
00000320: 8e14 9ebd b92c b3bd e72d 2f3e b77d 14bf
00000330: 2c5e ad3b 300d b8bd 35f0 e1be 3d2c 053e
00000340: d187 a9bd acb4 b2be e0f5 acbd 9910 8e3e
00000350: a79d 853e 3743 6fbe 3173 be3d 3a60 3c3e
00000360: 6414 513f 340a 153f 04d3 1abe a859 043c
00000370: 2953 bd3d affe 203d 32a7 73be fec4 713e
00000380: ce9e 693e 697d 81bc 7831 08be f67f 183e
00000390: 8558 a4ba 5b26 443d a6f8 6abd 2704 d4bd
000003a0: 3252 123d 0c84 463d ce48 22bd b05a 99bc
000003b0: 01ed f43d 0bee 19bd f2ce a3bd 6038 26bc
000003c0: 89a5 5d3e 46be e0be 94ad 72be 5a4d 553d
000003d0: 52a3 113f 6330 093e f40b 803f d301 35bf
000003e0: fc29 02be 176c 70be 81fa ba3d acf6 c23e
000003f0: 15d1 0b3d 69bd c13e 1819 ab3d 9d12 d43e

critic.0.bias f4 [128]
0.29024518 0.0006393767 -0.2796488 -0.32940006 -0.100934096 0.20531574 -0.19861096 0.012082907
0.037624463 0.031988785 -0.2300719 0.11076474 0.014619729 -0.011675465 0.02874785 0.001045803
0.20046897 -0.20181793 0.01899531 -0.24477383 0.20533566 -0.21859261 -0.11653563 -0.07179375
-0.006018801 -0.17387609 -0.035875678 0.062301558 0.058055528 -0.26655084 -0.17672616 -0.23673107
-0.3226028 -0.28491437 -0.03623596 -0.12532762 0.23798509 -0.033672724 -0.089312784 -0.22971588
-0.037561145 -0.04271489 -0.011495338 -0.1972828 -0.265879 -0.34879398 -0.21742365 -0.1841352
-0.26146585 -0.29574686 -0.2694794 -0.08812142 -0.22199878 -0.22263609 -0.1497275 -0.05466665
-0.24834369 0.021268915 -0.2927691 0.14069057 0.01174931 -0.2765175 -0.2880047 -0.16670418
-0.14731888 0.014386112 0.22967994 0.07933869 -0.068916366 0.1975884 0.19492786 0.26000836
-0.15361834 -0.16894828 0.06342351 -0.16156565 -0.20228866 -0.27321485 0.13740431 -0.12239659
0.14862418 -0.11446059 -0.25992563 -0.08539716 0.2356243 0.046637807 -0.28320473 -0.27015474
-0.19294906 -0.16770877 0.014766751 -0.24911383 0.061308406 0.028499 -0.09409769 -0.17114781
-0.10186689 -0.032585125 0.03645941 -0.02079275 0.10371836 -0.24635452 -0.09270628 0.14529726
-0.021184126 0.20461145 -0.43463722 -0.18222259 0.14601423 -0.09990513 -0.11869829 -0.09516977
0.051002026 -0.030520631 -0.25095716 0.034361795 -0.119841576 -0.09850656 -0.0152710555 0.15963435
-0.2903226 -0.14541104 -0.0596973 0.102788605 -0.30293873 -0.18204828 -0.0044165174 -0.34548354
00000000: 049b 943e d89b 273a 212e 8fbe 20a7 a8be
00000010: 89b6 cebd 4a3e 523e ac60 4bbe 63f7 453c
00000020: 1c1c 1a3d ac06 033d f897 6bbe a0d8 e23d
00000030: 9687 6f3c 734a 3fbc 9c80 eb3c 5313 893a
00000040: bd47 4d3e 5ca9 4ebe 0d9c 9b3c fea5 7abe
00000050: 8343 523e bed6 5fbe 3baa eebd 9a08 93bd
00000060: 5d39 c5bb 930c 32be 60f2 12bd eb2f 7f3d
00000070: a2cb 6d3d 5a79 88be b4f7 34be a169 72be
00000080: 322c a5be 4ce0 91be 286c 14bd e255 00be
00000090: 5db2 733e 69ec 09bd 9fe9 b6bd a43a 6bbe
000000a0: b7d9 19bd cff5 2ebd f156 3cbc 8104 4abe
000000b0: 4b21 88be 2095 b2be 4ea4 5ebe f08d 3cbe
000000c0: dade 85be 226c 97be 34f9 89be 0179 b4bd
000000d0: a653 63be b7fa 63be 2a52 19be 23ea 5fbd
000000e0: cf4d 7ebe 263c ae3c d5e5 95be 3011 103e
000000f0: 2e80 403c b493 8dbe 5a75 93be 80b4 2abe
00000100: c3da 16be bab3 6b3c 3831 6b3e 537c a23d
00000110: 0624 8dbd 9d54 4a3e 2b9b 473e d11f 853e
00000120: 204e 1dbe c700 2dbe 2fe4 813d 7771 25be
00000130: c224 4fbe d1e2 8bbe b7b3 0c3e 10ab fabd
00000140: f030 183e 506a eabd f914 85be b5e4 aebd
00000150: 7f47 713e 4907 3f3d 3600 91be b951 8abe
00000160: 7094 45be d9bb 2bbe 3ef0 713c b217 7fbe
00000170: 861e 7b3d bc76 e93c 4ab6 c0bd 5f41 2fbe
00000180: 979f d0bd fb77 05bd 7656 153d 8f55 aabc
00000190: 4b6a d43d 5c44 7cbe cadc bdbd cec8 143e
000001a0: 558a adbc aa85 513e c588 debe 8f98 3abe
000001b0: c184 153e 109b ccbd 1718 f3bd 5ee8 c2bd
000001c0: 80e7 503d 6706 fabc 757d 80be f4be 0c3d
000001d0: 806f f5bd cfbd c9bd 7333 7abc 3077 233e
000001e0: 2aa5 94be a2e6 14be 2885 74bd d582 d23d
000001f0: c91a 9bbe dd6a 3abe 6fb8 90bb 38e3 b0be

critic.2.weight f4 [64, 128]
-0.19553472 -0.088744536 -0.10562017 -0.32279792 0.101298146 -0.11347972 -0.08816744 -0.081440054
-0.11603761 -0.18418029 0.06869297 -0.35926512 0.10002508 0.0097758435 0.0902026 0.1630334
0.0053466363 0.00688293 0.22147141 -0.20258033 0.14156693 0.16316651 0.22676882 -0.08690949
0.25120205 0.12347737 -0.21375015 -0.12607725 -0.13761379 -0.17820044 -0.24027844 -0.3499207
-0.08014898 -0.00901503 -0.38036212 0.029134756 0.15098701 -0.15441668 0.08140043 -0.102504894
0.12807739 0.031975776 0.013791718 -0.22615315 -0.04120635 -0.015173602 -0.028007574 0.035389543
-0.1127234 -0.16225334 -0.19356467 0.03679803 0.2173705 -0.117737554 -0.21918373 0.0961298
0.024506483 0.0053760624 -0.18874191 0.10067646 0.04345652 0.0346837 -0.024076065 -0.15600416
0.076479964 0.2546008 0.097271666 -0.13412227 -0.1215939 -0.29676065 0.10531538 -0.06610052
-0.06740523 -0.038243484 -0.26797202 0.18496458 -0.14211431 0.17529945 -0.06743645 -0.10507255
0.049811274 -0.1006541 -0.06440888 0.09169477 -0.10206261 0.1084263 0.101211295 -0.25713894
0.11859151 -0.007181959 -0.12073441 0.030009277 0.07150012 0.12426671 0.20270728 0.052533586
0.10983329 0.14937173 0.064711556 -0.004191025 0.1578905 -0.43443733 0.23473075 0.23606625
0.07485642 -0.13041244 -0.16897938 0.1815318 0.018024623 -0.01162682 -0.11441311 0.07078388
-0.16496892 -0.07001193 -0.10794445 0.1272623 -0.07476778 0.08019947 0.22595626 0.032343138
-0.02889899 -0.1896813 0.07312148 -0.12532096 -0.06091822 0.2144979 0.11702448 -0.09386954
0.027196936 -0.15360269 0.0056696525 -0.08254225 -0.07882733 -0.27825406 0.046001267 0.14169262
-0.035469092 -0.18003051 0.09097008 -0.04892113 -0.06921091 -0.002801988 0.27305737 0.012172377
-0.06458468 -0.0023872203 -0.016057737 0.19168156 -0.046984635 0.08667007 -0.046540115 -0.094253115
-0.13267598 -0.04941364 -0.0056153946 -0.030218948 -0.001829194 0.10971007 -0.25045586 0.09339501
0.010095645 0.09582617 0.011637466 -0.0031605263 -0.0029238216 0.013830892 0.13197397 -0.0016798459
-0.1322678 0.00029585717 -0.07347179 -0.034467846 -0.064818494 0.13041157 -0.13221608 -0.08694746
0.017485853 0.1721411 0.09379901 0.07752099 -0.002095782 0.100674406 -0.034700632 -0.1692829
-0.10966576 0.057663124 -0.13140741 0.061279774 -0.07478919 0.10436448 0.08126558 -0.021646595
-0.044545505 -0.20730808 0.108248 -0.03549569 0.0967176 -0.027295772 -0.016953489 0.123687826
-0.04398512 0.06269406 0.039553598 -0.17189306 -0.13019928 -0.17402443 0.035369236 0.12665266
-0.14925744 -0.049755022 0.11388652 0.11489858 -0.17782119 0.14238054 -0.08964866 -0.025766036
-0.13725087 -0.1403614 -0.03019814 0.06350476 -0.02970183 0.00093331817 -0.035275046 0.0516696
-0.011493337 0.14004745 -0.08399449 -0.07267426 0.100473195 0.020800974 0.0151799 -0.26213053
-0.045733448 -0.050867636 -0.21851815 0.06501004 -0.0344517 0.036653988 -0.04773289 0.17807192
-0.033628896 0.04191551 -0.0005462222 -0.18580784 -0.16234796 -0.08181348 -0.14435151 -0.14621873
-0.20522991 0.02650447 -0.034151886 -0.00056487595 -0.04882377 -0.06271693 -0.06998691 -0.0021952572
00000000: 413a 48be b2bf b5bd 634f d8bd c545 a5be
00000010: 6775 cf3d 0e68 e8bd 2191 b4bd 0bca a6bd
00000020: 20a5 edbd c299 3cbe e6ae 8c3d 99f1 b7be
00000030: f3d9 cc3d dc2a 203c 24bc b83d 3af2 263e
00000040: d632 af3b 348a e13b 67c9 623e 3871 4fbe
00000050: ecf6 103e 1f15 273e 1636 683e 9afd b1bd
00000060: 8e9d 803e b4e1 fc3d 52e1 5abe 651a 01be
00000070: a1ea 0cbe 2d7a 36be 8d0b 76be ce28 b3be
00000080: 2625 a4bd c7b3 13bc d3be c2be 03ac ee3c
00000090: 579c 1a3e 681f 1ebe 45b5 a63d 16ee d1bd
000000a0: b826 033e 08f9 023d a8f6 613c b194 67be
000000b0: fdc7 28bd b39a 78bc 2470 e5bc a0f4 103d
000000c0: 87db e6bd bd25 26be d135 46be 88b9 163d
000000d0: 5f96 5e3e 6320 f1bd b371 60be b3df c43d
000000e0: d2c1 c83c ae29 b03b 8f45 41be 762f ce3d
000000f0: 77ff 313d 7f10 0e3d 2b3b c5bc 8ebf 1fbe
00000100: 87a1 9c3d 095b 823e 5e36 c73d 5957 09be
00000110: 3906 f9bd 03f1 97be 97af d73d b65f 87bd
00000120: c10b 8abd 33a5 1cbd a133 89be 5b67 3d3e
00000130: 6a86 11be b381 333e 1f1c 8abd 4730 d7bd
00000140: e806 4c3d bd23 cebd cee8 83bd 78ca bb3d
00000150: 3406 d1bd 9c0e de3d de47 cf3d b7a7 83be
00000160: 1be0 f23d a456 ebbb 9a43 f7bd 04d6 f53c
00000170: a86e 923d 8b7f fe3d 7f92 4f3e 752d 573d
00000180: 47f0 e03d e7f4 183e 7e87 843d de54 89bb
00000190: 0cae 213e 926e debe 425d 703e 5abb 713e
000001a0: 534e 993d d78a 05be ee08 2dbe 79e3 393e
000001b0: 60a8 933c 6b7e 3ebc 6c51 eabd 24f7 903d
000001c0: 9ded 28be 6a62 8fbd fb11 ddbd 0c51 023e
000001d0: da1f 99bd 9f3f a43d 1461 673e 3d7a 043d
000001e0: 93bd ecbc d13b 42be b7c0 953d 2354 00be
000001f0: 6285 79bd 56a5 5b3e 88aa ef3d ac3e c0bd
00000200: 1ccc de3c 064a 1dbe 7ec8 b93b e90b a9bd
00000210: 3970 a1bd 5177 8ebe d36b 3c3d df17 113e
00000220: 0a48 11bd eb59 38be 854e ba3d 8661 48bd
00000230: 73be 8dbd 8fa1 37bb 2dce 8b3e a66e 473c
00000240: f944 84bd e972 1cbb 848b 83bc 2c48 443e
00000250: f672 40bd 1480 b13d d9a0 3ebd c707 c1bd
00000260: 36dc 07be f565 4abd 5801 b8bb ba8d f7bc
00000270: 91c1 efba acaf e03d c03b 80be e245 bf3d
00000280: 3468 253c 8340 c43d 12ab 3e3c d520 4fbb
00000290: 969d 3fbb f79a 623c 2f24 073e 462e dcba
000002a0: 3671 07be 471d 9b39 6178 96bd 282e 0dbd
000002b0: 8fbf 84bd 9c8a 053e a763 07be 8311 b2bd
000002c0: 7e3e 8f3c c245 303e b219 c03d 53c3 9e3d
000002d0: 6359 09bb 622e ce3d 4022 0ebd 7f58 2dbe
000002e0: 7198 e0bd 2b30 6c3d aa8f 06be 8000 7b3d
000002f0: 132b 99bd 0bbd d53d 926e a63d 3354 b1bc
00000300: 5975 36bd 9248 54be 21b1 dd3d ee63 11bd
00000310: e113 c63d 629b dfbc 0be2 8abc 0b50 fd3d
00000320: be29 34bd be65 803d f402 223d bc04 30be
00000330: f652 05be 7633 32be 55df 103d 3cb1 013e
00000340: f1d6 18be eccb 4bbd 563d e93d f24f eb3d
00000350: c216 36be 34cc 113e b799 b7bd 4b13 d3bc
00000360: 7e8b 0cbe e6ba 0fbe 1762 f7bc c90e 823d
00000370: 4151 f3bc eca9 743a 917c 10bd 81a3 533d
00000380: 8d4e 3cbc 9968 0f3e 4e05 acbd 3ed6 94bd
00000390: e4c4 cd3d ce66 aa3c 1eb5 783c f935 86be
000003a0: ff52 3bbd 955a 50bd 39c3 5fbe fc23 853d
000003b0: 3a1d 0dbd 7e22 163d 9083 43bd 7c58 363e
000003c0: 74be 09bd 99af 2b3d 5a30 0fba 6944 3ebe
000003d0: 8b3e 26be d38d a7bd e2d0 13be 5dba 15be
000003e0: ca27 52be e71f d93c d9e2 0bbd 2f14 14ba
000003f0: 6ffb 47bd bc71 80bd 4c55 8fbd 4ede 0fbb

critic.2.bias f4 [64]
-0.073406 0.058260415 -0.03993384 0.13239545 -0.31976447 0.0027581446 0.020965474 -0.17877023
0.14294711 -0.14439952 -0.04287252 -0.18692668 -0.40611777 -0.07635055 0.2681579 -0.13482678
-0.22437361 -0.11854235 0.02071487 -0.22388059 0.0116517525 0.023459839 -0.19154541 -0.3019539
0.18761808 0.023958288 -0.27320558 0.058295332 -0.1956062 -0.1144067 0.19973682 0.05926972
-0.41305202 -0.108646296 -0.24369527 -0.27896 0.044417843 -0.15525465 0.17976384 -0.1346035
0.04824217 -0.045751344 -0.07868951 -0.22505824 -0.3982888 0.14346196 0.09683497 0.030139921
0.10814152 0.027023949 0.0045367107 0.11201514 -0.0043360014 -0.023546852 -0.080967925 0.007290841
-0.15349403 -0.17692369 -0.1704386 0.00050424004 -0.00324687 -0.08878203 -0.00447015 -0.39125994
00000000: e355 96bd 79a2 6e3d ab91 23bd ac92 073e
00000010: 2bb8 a3be fdc1 343b c9bf ab3c 8b0f 37be
00000020: ba60 123e 78dd 13be 189b 2fbd b569 3fbe
00000030: abee cfbe ad5d 9cbd fe4b 893e 0810 0abe
00000040: 32c2 65be 55c6 f2bd 3bb2 a93c f440 65be
00000050: fee6 3e3c d92e c03c 7b24 44be b499 9abe
00000060: f41e 403e 2c44 c43c 9ae1 8bbe 16c7 6e3d
00000070: fe4c 48be 0f4e eabd cf87 4c3e cec4 723d
00000080: 8e7b d3be f381 debd 418b 79be d8d3 8ebe
00000090: 7cef 353d 13fb 1ebe 0314 383e 80d5 09be
000000a0: 9599 453d c365 3bbd f727 a1bd ab75 66be
000000b0: 82ec cbbe b1e7 123e 6a51 c63d ffe7 f63c
000000c0: 4d79 dd3d 5461 dd3c b0a8 943b 3268 e53d
000000d0: 0415 8ebb 54e5 c0bc 83d2 a5bd 02e8 ee3b
000000e0: 8a2d 1dbe 7c2b 35be 7587 2ebe fa2e 043a
000000f0: 70c9 54bb 5ad3 b5bd 567a 92bb 3953 c8be
