logs/flat_anymal_c/Dec10_01-45-31_/model_200.pt (torch, 418700 bytes, 48 tensors)

std f4 [12]
0.43673524 0.5425161 0.45452777 0.43872446 0.53483135 0.46589598 0.43678492 0.55340326
0.47530833 0.4260005 0.53170395 0.46782073
00000000: c39b df3e 56e2 0a3f ddb7 e83e 7ea0 e03e
00000010: b5ea 083f eb89 ee3e 46a2 df3e d6ab 0d3f
00000020: 9d5b f33e bd1c da3e c01d 083f 3386 ef3e

actor.0.weight f4 [128, 48]
0.08619423 0.034051273 0.16038048 -0.15672867 0.6411707 0.7448427 0.94718474 0.49892315
0.052744072 -0.23241629 -0.033335656 -0.28279918 0.110846326 0.19855681 -0.4738884 0.2996426
0.45555568 -0.70328873 0.27634448 0.22931576 0.4138779 -0.18031643 0.09006235 0.27030215
0.08994657 -0.08904946 -0.25195187 0.10740962 -0.5502396 -0.28902912 -0.21159397 -0.1558877
0.3066371 -0.39874163 -0.15486985 0.25225297 -0.068005234 0.07319496 0.07250643 -0.1748166
0.048678003 -0.059716806 -0.21235396 -0.054200195 -0.056039114 -0.089652404 0.14255345 -0.09103781
-0.35238802 0.009323329 -0.1881868 -0.13636442 1.5224334 0.6087362 0.5710363 0.11007252
0.16626306 0.36138213 -0.3157469 -0.7407733 0.5919353 -0.32250786 -0.6090361 -0.74619794
-0.09008599 0.095310055 -0.14006718 0.6682788 0.123101965 0.39893273 -0.7972287 -0.51118106
0.101793244 -0.08222641 -0.52901596 0.2274573 0.060965292 0.2830724 0.29061386 -0.07187945
-0.015937267 -0.6373993 -0.6415438 0.25870728 -0.013391429 0.006160286 -0.03745165 0.10561133
-0.0054717413 -0.23973796 -0.033251572 -0.16464897 0.27386692 -0.061741743 -0.0014476031 0.19520627
-0.03349467 -0.49793938 -0.28228924 0.63513374 -1.0164177 0.3951757 0.31138232 -1.7832769
-0.068735085 -0.14067242 0.12403026 -1.0215882 0.6860088 0.559986 -0.14386344 0.4858364
0.4000569 -0.2972052 0.40731114 -0.6289123 -0.2183986 0.41719604 0.2487663 0.2559805
-0.5479364 0.8125023 -0.22112253 0.40369198 0.26019526 -0.0822223 0.51890135 -0.54068017
-0.12811941 0.4757931 -0.13714613 -0.073683135 -0.28910977 -0.034905236 0.3034207 0.07989858
-0.13345733 0.14950123 0.06609501 -0.15872441 -0.11725422 0.08273574 -0.15871023 -0.054175463
-0.25389382 0.25192356 -0.3499229 -0.23727052 0.4944306 -1.1285098 -0.46594644 -0.33180547
0.08261927 0.34160826 -0.5082008 1.146104 -0.121287555 -0.41178343 -0.18420917 0.33653283
0.451187 -0.42810145 -0.15222561 0.31628665 0.1654597 0.17068203 -0.20367613 -0.07296737
-0.16554412 -0.17936186 0.11398228 0.3373176 -0.75026184 -0.37584525 -0.0823279 0.08460709
-0.32017863 0.020443117 -0.4287695 -0.04514929 0.14856578 0.1396565 -0.027260844 0.03536848
-0.11186911 -0.029610934 -0.036940455 0.049548417 -0.12631127 -0.022114998 -0.031851646 -0.23408851
0.08102208 0.20984507 0.042457346 -0.0051240236 -0.53356355 1.1729283 0.56056476 0.30112657
0.021353483 -0.10085861 0.019970957 -0.66832757 -0.28009346 0.1755041 0.10258411 0.082733944
0.75108576 -0.08214705 0.04993452 -0.6705527 0.32398483 0.16219719 0.29915163 0.7090775
-0.1859212 -0.3161559 -0.17421485 0.21568784 0.615209 -0.15087311 0.54538757 -0.081155084
-0.17191422 0.06811796 -0.30311716 0.7479906 -0.110156335 -0.016741134 0.11010765 -0.03483425
-0.03539673 0.12042616 -0.20319684 0.14350459 -0.15183908 -0.05199426 0.068889745 -0.06970968
0.013252493 -0.06313748 0.3105113 0.11613571 1.1432722 0.86420715 0.2604652 0.06924748
0.14415431 0.17580952 -0.16285372 -1.4788996 0.2565791 0.07640344 -0.3302361 -0.37724277
00000000: 9a86 b03d 5979 0b3d c83a 243e 7b7d 20be
00000010: c323 243f 03ae 3e3f b37a 723f db72 ff3e
00000020: 2b0a 583d 89fe 6dbe f88a 08bd 0ecb 90be
00000030: 6603 e33d 7a52 4b3e 80a1 f2be c16a 993e
00000040: 983e e93e bb0a 34bf 067d 8d3e c0d1 6a3e
00000050: cee7 d33e dfa4 38be 9c72 b83d 0b65 8a3e
00000060: e835 b83d 905f b6bd d6ff 80be 93f9 db3d
00000070: 81dc 0cbf a0fb 93be 17ac 58be 06a1 1fbe
00000080: 8aff 9c3e dd27 ccbe 3496 1ebe 4d27 813e
00000090: 5446 8bbd 3de7 953d 407e 943d 1f03 33be
000000a0: 9662 473d 9c99 74bd 5173 59be 0601 5ebd
000000b0: 4589 65bd ae9b b7bd 88f9 113e 0872 babd
000000c0: 346c b4be e0c0 183c 0ab4 40be 1da3 0bbe
000000d0: 19df c23f 23d6 1b3f 6f2f 123f b46d e13d
000000e0: dd40 2a3e 1407 b93e 94a9 a1be 52a3 3dbf
000000f0: 1289 173f c01f a5be cae9 1bbf d406 3fbf
00000100: 017f b8bd eb31 c33d c56d 0fbe 5214 2b3f
00000110: e21c fc3d e940 cc3e 2e17 4cbf c3dc 02bf
00000120: fa78 d03d 5266 a8bd 976d 07bf 91ea 683e
00000130: beb6 793d deee 903e 57cb 943e 8835 93bd
00000140: df8e 82bc 9a2c 23bf 373c 24bf 4875 843e
00000150: b967 5bbc 39dc c93b e766 19bd c14a d83d
00000160: 4b4c b3bb de7d 75be cd32 08bd bd99 28be
00000170: 4938 8c3e e9e4 7cbd 80bd bdba 27e4 473e
00000180: b531 09bd e9f1 febe 3788 90be 2098 223f
00000190: fa19 82bf 7854 ca3e 816d 9f3e 6b42 e4bf
000001a0: fbc4 8cbd 6e0c 10be 9403 fe3d 67c3 82bf
000001b0: 469e 2f3f 3e5b 0f3f f050 13be 8cbf f83e
000001c0: 42d4 cc3e 482b 98be 168b d03e 6600 21bf
000001d0: e2a3 5fbe b89a d53e 98bc 7e3e e00f 833e
000001e0: 8f45 0cbf 2700 503f f26d 62be b7b0 ce3e
000001f0: 5038 853e 2a64 a8bd b8d6 043f 046a 0abf
00000200: bc31 03be 279b f33e 0970 0cbe 2fe7 96bd
00000210: 3206 94be cbf8 0ebd f559 9b3e dea1 a33d
00000220: 0aa9 08be da16 193e d25c 873d a788 22be
00000230: fb22 f0bd 5b71 a93d ef84 22be 17e7 5dbd
00000240: 5ffe 81be 20fc 803e 1829 b3be 0bf7 72be
00000250: 0226 fd3e 0273 90bf 8890 eebe 68e2 a9be
00000260: 4b34 a93d 47e7 ae3e 7319 02bf 89b3 923f
00000270: 9c65 f8bd 47d5 d2be 54a1 3cbe 084e ac3e
00000280: fc01 e73e 1d30 dbbe 08e1 1bbe 53f0 a13e
00000290: 456e 293e 45c7 2e3e 7a90 50be eb6f 95bd
000002a0: 6684 29be a3aa 37be 8b6f e93d e4b4 ac3e
000002b0: 2911 40bf ca6e c0be 889b a8bd 7b46 ad3d
000002c0: 74ee a3be 5378 a73c ad87 dbbe 76ee 38bd
000002d0: a121 183e 1d02 0f3e 2252 dfbc 8ade 103d
000002e0: a21b e5bd a192 f2bc e04e 17bd 48f3 4a3d
000002f0: be57 01be 832a b5bc df76 02bd e6b4 6fbe
00000300: e7ee a53d a0e1 563e c1e7 2d3d 6de7 a7bb
00000310: 9f97 08bf 8422 963f 2c81 0f3f 432d 9a3e
00000320: 80ed ae3c f58e cebd 229a a33c 8417 2bbf
00000330: 6968 8fbe 59b7 333e 9e17 d23d 6a70 a93d
00000340: 2847 403f b63c a8bd 2488 4c3d 57a9 2bbf
00000350: 57e1 a53e 0517 263e 672a 993e 1a86 353f
00000360: 2162 3ebe 30df a1be 6165 32be 46dd 5c3e
00000370: 567e 1d3f 7b7e 1abe 859e 0b3f a334 a6bd
00000380: 480a 30be 6e81 8b3d 2c32 9bbe 507c 3f3f
00000390: a599 e1bd b424 89bc 1f80 e13d 5cae 0ebd
000003a0: 29fc 10bd fea1 f63d d512 50be def2 123e
000003b0: b47b 1bbe eff7 54bd 1116 8d3d f3c3 8ebd
000003c0: fc20 593c 394e 81bd 56fb 9e3e 8fd8 ed3d
000003d0: be56 923f ae3c 5d3f b25b 853e 9fd1 8d3d
000003e0: 309d 133e 6907 343e 20c3 26be 954c bdbf
000003f0: 565e 833e 6879 9c3d b514 a9be f725 c1be

actor.0.bias f4 [128]
0.14737342 -0.1619488 0.06949036 -0.13582498 -0.120161414 -0.24472861 -0.23222524 -0.290747
-0.20769572 -0.15932095 -0.3249723 0.11847124 -0.2094521 0.062141243 -0.05837327 -0.1623696
0.00078729104 -0.06494632 -0.046532556 0.040343173 -0.22951314 -0.15896057 -0.0055453624 -0.13429467
0.048031837 0.097862914 -0.27767283 -0.22648306 -0.36078843 0.1160241 0.055773173 0.13831735
-0.03828003 0.11766284 -0.14994638 -0.027770752 0.15570952 0.24374807 0.034843035 0.061868884
0.17217782 0.047248095 -0.003122147 0.0016086642 -0.085229106 -0.059437394 -0.08656151 -0.18869944
0.03464941 0.2664931 0.20505762 0.09142444 -0.20049562 -0.014658609 0.014011543 0.067740425
-0.18860978 -0.059665143 -0.15186182 0.021464705 -0.072804995 -0.0069491533 -0.017302245 -0.11034898
-0.021058898 -0.086180665 -0.0054061254 -0.19306442 -0.22597417 -0.090094976 0.07684858 0.075629786
-0.12437567 0.14376664 -0.2514435 -0.080248475 -0.013495019 -0.03216026 0.01543227 0.08835554
0.11118741 -0.07770871 -0.1542745 -0.099486694 -0.35507587 -0.22701772 -0.17288586 -0.25845122
-0.14067355 -0.12772354 -0.03579529 -0.24979047 -0.30835286 -0.29778644 -0.05036731 -0.122728616
-0.33440349 0.23551163 -0.06501136 -0.23111206 0.037877087 0.15144606 -0.24432407 -0.16752593
-0.2310672 0.03809513 -0.06468414 -0.318603 -0.2006129 -0.026089594 -0.16086741 0.05978282
-0.06003565 0.036589377 0.022113636 -0.34702158 -0.3011691 -0.03543626 -0.2185409 0.15509224
-0.10092132 0.17692994 0.092435956 -0.15824226 -0.27282727 -0.20052958 -0.36615604 -0.07724253
00000000: 0fe9 163e e8d5 25be f650 8e3d b415 0bbe
00000010: 3017 f6bd 239a 7abe 74cc 6dbe cadc 94be
00000020: 30ae 54be 0825 23be c562 a6be 0da1 f23d
00000030: 9c7a 56be d187 7e3d cf18 6fbd 3744 26be
00000040: 3562 4e3a 9402 85bd ec98 3ebd e23e 253d
00000050: 7e05 6bbe 8fc6 22be dfb5 b5bb 8b84 09be
00000060: 08bd 443d 5a6c c83d 222b 8ebe 2deb 67be
00000070: 43b9 b8be 0b9e ed3d 6972 643d 10a3 0d3e
00000080: 85cb 1cbd 37f9 f03d 8b8b 19be 7d7f e3bc
00000090: 5172 1f3e 1899 793e 92b7 0e3d 3a6a 7d3d
000000a0: 624f 303e 3887 413d ef9c 4cbb d0d9 d23a
000000b0: 998c aebd a074 73bd 2947 b1bd 6d3a 41be
000000c0: 8aec 0d3d c971 883e a0fa 513e bd3c bb3d
000000d0: b94e 4dbe aa2a 70bc ac90 653c 7ebb 8a3d
000000e0: ec22 41be 7063 74bd aa81 1bbe c0d6 af3c
000000f0: c91a 95bd b9b5 e3bb 70bd 8dbc a5fe e1bd
00000100: b683 acbc 7d7f b0bd de25 b1bb aeb2 45be
00000110: c665 67be b783 b8bd ca62 9d3d cae3 9a3d
00000120: acb8 febd 9037 133e 34bd 80be 5059 a4bd
00000130: 361a 5dbc 7aba 03bd a2d7 7c3c c0f3 b43d
00000140: 3ab6 e33d bf25 9fbd 22fa 1dbe aebf cbbd
00000150: 81cc b5be 5577 68be fe08 31be b853 84be
00000160: ba0c 10be f6c9 02be 159e 12bd 13c9 7fbe
00000170: 6de0 9dbe 7777 98be f44d 4ebd 2459 fbbd
00000180: ef36 abbe f629 713e ad24 85bd a4a8 6cbe
00000190: 0125 1b3d ad14 1b3e 1730 7abe eb8b 2bbe
000001a0: e19c 6cbe a409 1c3d 1e79 84bd ef1f a3be
000001b0: 786d 4dbe d8b9 d5bc 6dba 24be d5de 743d
000001c0: f1e7 75bd bede 153d a827 b53c d0ac b1be
000001d0: d632 9abe 9d25 11bd 30c9 5fbe 80d0 1e3e
000001e0: d6af cebd 1f2d 353e 104f bd3d 420a 22be
000001f0: 04b0 8bbe a057 4dbe ce78 bbbe 5531 9ebd

actor.2.weight f4 [64, 128]
0.085384764 -0.05249078 -0.25638935 0.023977153 0.24563964 0.19742844 -0.021171102 0.07235661
-0.23500638 -0.41508517 0.14730431 0.03002752 -0.15949804 -0.084516004 0.1461348 -0.028333519
0.038731128 -0.22625618 0.025621766 -0.38690767 -0.1404278 -0.015683888 -0.19904535 -0.058397915
0.17961422 0.053219125 0.117656015 0.046992477 0.05469748 -0.42742187 0.12616228 -0.14485623
-0.186133 -0.15014212 -0.2004289 0.21894935 -0.036535863 -0.12508069 -0.13178447 -0.16359676
-0.25296426 -0.4185849 0.12830436 -0.3117435 0.19879562 0.2023233 -0.3147585 -0.07292775
0.09807046 -0.103916965 -0.02242688 0.13490874 -0.10288563 0.08215098 -0.06023595 -0.26989457
0.010708433 -0.08974732 0.0062537305 -0.37897685 -0.023384102 -0.071455844 -0.22708003 -0.1296324
0.29907298 0.13342114 -0.08313428 -0.15622595 0.042614207 -0.08516126 -0.29816404 -0.22422238
-0.13767715 0.04574492 0.5566867 -0.08187701 -0.077043734 -0.13576108 -0.38553908 -0.36966437
0.065305926 -0.2795924 -0.05636135 0.001927203 -0.19004577 -0.2959993 0.021361895 0.09755346
0.10574357 -0.080906905 -0.2873935 0.08137798 -0.027644925 -0.003804037 0.25660938 -0.37875268
0.35211328 -0.068797834 -0.2512167 -0.061987083 0.15561572 -0.07691342 0.21880993 0.058065344
0.047508106 0.091028266 0.004687876 0.17884634 0.058769166 -0.100350894 0.3486055 0.23617624
0.03966392 -0.15430793 -0.046498057 0.23515029 0.076073594 -0.17424648 0.1271113 -0.35419917
-0.04037224 -0.13940476 -0.26062095 0.13553222 0.17666745 -0.15135361 -0.039201416 -0.14915708
-0.17207554 0.04715363 -0.21483403 0.28030127 -0.17800596 -0.18635246 -0.095592 -0.1465825
-0.229756 -0.2757702 -0.013960187 -0.07394272 0.26051277 -0.1779713 0.20327137 0.12504563
-0.3154025 -0.0529599 -0.016448682 -0.22020909 0.22862574 -0.05083818 0.035628192 0.112947
0.039066657 -0.4526101 -0.101641595 -0.20454636 0.014926696 0.09186614 0.15835114 -0.45403028
0.04308124 -0.10826779 0.1592346 -0.26235712 -0.18302436 -0.11084337 0.21082224 -0.07290131
-0.042127647 -0.082675524 0.001586283 -0.089798406 0.22077316 -0.25388157 -0.25491133 -0.17377506
-0.3394811 -0.11565861 -0.58437055 -0.16043875 0.079694025 -0.023910832 -0.057076167 -0.23077537
0.009586283 0.09301549 0.13448876 -0.12676996 0.36837643 0.0014716892 -0.2297515 0.09189631
0.22638617 0.07141469 0.12670633 0.014678213 0.31807557 -0.001538429 -0.11873084 0.12705572
0.14981453 -0.32139087 -0.13826297 0.065081775 -0.2610793 0.08921277 0.37729186 -0.22919874
-0.13979861 -0.39056158 0.17567481 -0.041578423 0.0005544732 -0.24285558 -0.13038023 -0.0894798
0.27983606 -0.038039103 -0.27663046 0.25867772 0.26707512 0.27126187 0.104711674 0.17252836
-0.0077581964 -0.07990236 0.17911364 0.1012457 -0.23955369 -0.44850117 0.08107096 0.09509214
-0.018512206 0.026658092 -0.14426845 -0.016419109 -0.3785434 -0.11457696 -0.11457848 0.087728314
0.19490072 -0.16422965 -0.15810682 0.29789558 0.24169198 -0.013751964 0.21795093 -0.0928498
0.13381062 0.1928107 0.101622075 -0.015643287 -0.18779428 0.100070305 -0.06472908 -0.01328619
00000000: 35de ae3d 9200 57bd 7745 83be bc6b c43c
00000010: f588 7b3e ae2a 4a3e 056f adbc b42f 943d
00000020: 83a5 70be 0b86 d4be f1d6 163e 46fc f53c
00000030: 7453 23be ba16 adbd 5ca4 153e b21b e8bc
00000040: 88a4 1e3d b3af 67be bde4 d13c c318 c6be
00000050: 4ecc 0fbe 7f7b 80bc 8bd2 4bbe a732 6fbd
00000060: caec 373e 4cfc 593d a3f5 f03d 2f7b 403d
00000070: 770a 603d 0ad7 dabe af30 013e 3155 14be
00000080: a699 3ebe dbbe 19be 3c3d 4dbe 4234 603e
00000090: a1a6 15bd 2715 00be 82f2 06be e985 27be
000000a0: 8884 81be c350 d6be 3862 033e d89c 9fbe
000000b0: 1491 4b3e d72d 4f3e 0728 a1be 255b 95bd
000000c0: 2ad9 c83d 6bd2 d4bd 94b8 b7bc 8425 0a3e
000000d0: b4b5 d2bd c63e a83d f9b9 76bd 9f2f 8abe
000000e0: 6c72 2f3c 71cd b7bd 18ec cc3b 4109 c2be
000000f0: 0490 bfbc 7157 92bd ab87 68be 5bbe 04be
00000100: 1820 993e 8d9f 083e 4e42 aabd b2f9 1fbe
00000110: 3c8c 2e3d 0769 aebd f5a8 98be 8d9a 65be
00000120: 3dfb 0cbe 065f 3b3d 0583 0e3f 22af a7bd
00000130: 1bc9 9dbd f404 0bbe 6165 c5be a644 bdbe
00000140: 1dbf 853d bc26 8fbe 29db 66bd 349a fc3a
00000150: 5c9b 42be 388d 97be 24ff ae3c 1cca c73d
00000160: 1690 d83d 85b2 a5bd 3e25 93be 80a9 a63d
00000170: 9c77 e2bc 274d 79bb 4e62 833e dfeb c1be
00000180: 3148 b43e e1e5 8cbd 7a9f 80be 2be6 7dbd
00000190: ba59 1f3e c884 9dbd b60f 603e edd5 6d3d
000001a0: dc97 423d 076d ba3d c19c 993b 7f23 373e
000001b0: f0b7 703d c584 cdbd 6c7c b23e 2fd8 713e
000001c0: a276 223d e602 1ebe bf74 3ebd 3dcb 703e
000001d0: 79cc 9b3d ab6d 32be 7729 023e 9859 b5be
000001e0: 5d5d 25bd 1fc0 0ebe 1c70 85be f5c8 0a3e
000001f0: 50e8 343e 71fc 1abe aa91 20bd a2bc 18be
00000200: 9234 30be 2a24 413d 74fd 5bbe a683 8f3e
00000210: 3247 36be 2ed3 3ebe bdc5 c3bd b919 16be
00000220: 2845 6bbe c031 8dbe 45b9 64bc 486f 97bd
00000230: ee61 853e 1c3e 36be 5f26 503e f60b 003e
00000240: 707c a1be 7bec 58bd 63bf 86bc 7e7e 61be
00000250: de1c 6a3e b23b 50bd deee 113d c250 e73d
00000260: 5c04 203d 83bc e7be 7829 d0bd 9a74 51be
00000270: 1a8f 743c 5124 bc3d cd26 223e a876 e8be
00000280: f475 303d 81bb ddbd 650e 233e ac53 86be
00000290: bd6a 3bbe d901 e3bd c9e1 573e 484d 95bd
000002a0: 0a8e 2cbd c951 a9bd d3ea cf3a 3ae8 b7bd
000002b0: 5c12 623e c4fc 81be bd83 82be 17f2 31be
000002c0: 77d0 adbe 6cde ecbd 4f99 15bf 0e4a 24be
000002d0: 9f36 a33d a6e0 c3bc b3c8 69bd 6150 6cbe
000002e0: c90f 1d3c e87e be3d 6cb7 093e fccf 01be
000002f0: d69b bc3e b2e5 c03a fa43 6bbe 2234 bc3d
00000300: c7d1 673e dd41 923d 4ebf 013e e37c 703c
00000310: cdda a23e 1ca5 c9ba 2829 f3bd e51a 023e
00000320: fb68 193e 588d a4be cf94 0dbe 9849 853d
00000330: 30ac 85be 2fb5 b63d 662c c13e 13b3 6abe
00000340: 5e27 0fbe b0f7 c7be 19e4 333e 234e 2abd
00000350: 115a 113a 22af 78be 6582 05be 2f41 b7bd
00000360: ac46 8f3e e4ce 1bbd 82a2 8dbe 6871 843e
00000370: 12be 883e d6e2 8a3e 1373 d63d 46ab 303e
00000380: 7838 febb d9a3 a3bd 9169 373e e859 cf3d
00000390: 904d 75be f2a1 e5be 8808 a63d abbf c23d
000003a0: e9a6 97bc 1262 da3c 1cbb 13be 5e81 86bc
000003b0: 71d0 c1be 53a7 eabd 1fa8 eabd e7aa b33d
000003c0: 0e94 473e d12b 28be c1e6 21be c585 983e
000003d0: 1a7e 773e eb4f 61bc 872e 5f3e 0928 bebd
000003e0: a705 093e 2b70 453e 3c1f d03d 5a26 80bc
000003f0: 254d 40be a9f1 cc3d ae90 84bd 52ae 59bc

actor.2.bias f4 [64]
-0.21432966 -0.20423445 -0.02417555 -0.18461752 -0.24192934 -0.016714614 -0.1370266 -0.12135171
-0.16658935 -0.17662475 -0.085129544 -0.086713165 -0.16347112 -0.14906387 -0.26770994 -0.19597256
-0.117182955 0.107378945 -0.10575414 -0.15016584 -0.020749573 -0.0030756032 -0.18706045 -0.15314128
-0.17271613 0.01783992 -0.14307664 -0.27974573 -0.3304976 -0.23947056 -0.06439656 -0.17607395
-0.2824168 -0.17355236 -0.023736965 -0.14169218 -0.45157132 -0.06995575 -0.09911665 -0.14553581
-0.102195196 -0.16837159 -0.0023473823 -0.236956 -0.12815152 -0.11412746 -0.16609195 -0.06905693
-0.10910272 -0.11722197 -0.042269334 0.017956797 -0.13411693 -0.16737187 -0.08059606 -0.023115488
0.048582077 -0.25769156 -0.1406318 0.04410882 -0.28100052 -0.12607622 0.07020167 -0.19231495
00000000: 3c79 5bbe d622 51be ce0b c6bc 600c 3dbe
00000010: 53bc 77be 16ed 88bc b350 0cbe 3f87 f8bd
00000020: 6696 2abe 1edd 34be 6658 aebd ac96 b1bd
00000030: f964 27be 33a4 18be 4711 89be 08ad 48be
00000040: 9efd efbd 7ee9 db3d a095 d8bd 13c5 19be
00000050: 02fb a9bc 0f90 49bb c68c 3fbe 11d1 1cbe
00000060: 7fdc 30be 0625 923c af82 12be d53a 8fbe
00000070: fb36 a9be c537 75be 58e2 83bd bb4c 34be
00000080: ef98 90be b6b7 31be 0674 c2bc c117 11be
00000090: 5b34 e7be f644 8fbd acfd cabd 5707 15be
000000a0: b74b d1bd 9a69 2cbe 8ad6 19bb 98a4 72be
000000b0: 273a 03be a8bb e9bd 0214 2abe b86d 8dbd
000000c0: 3f71 dfbd 1212 f0bd 9c22 2dbd 221a 933c
000000d0: f355 09be 8863 2bbe 8c0f a5bd b15c bdbc
000000e0: 00fe 463d 26f0 83be c801 10be 73ab 343d
000000f0: 4ddf 8fbe 201a 01be e5c5 8f3d 36ee 44be

actor.4.weight f4 [32, 64]
0.21313693 0.22913809 0.08323109 0.11623806 -0.028092608 -0.042547114 0.07674861 -0.12090604
0.056199457 -0.076039985 -0.08410277 0.19564976 0.013713674 0.08051809 0.060613755 0.10408041
0.14694113 0.18471688 0.030133333 -0.029355062 -0.049202237 0.034909565 0.05532943 0.20462257
0.05747761 0.06725887 0.04208811 -0.029345136 0.10279901 0.010055631 -0.03817528 0.07695596
0.22262225 0.05786157 -0.17482202 -0.27868938 0.39193815 0.05582657 -0.03867357 0.02416271
0.089001715 0.051931873 2.4573954e-05 0.043909848 0.21411927 0.17036985 -0.07761882 -0.2985504
-0.27390835 0.047950003 0.0899877 -0.024054153 0.08018254 0.24883786 -0.16551907 0.030798664
-0.20287831 -0.094322644 0.114060745 0.09136348 0.08700583 0.1135302 -0.21941544 -0.12382264
-0.2225797 -0.042733144 -0.14704648 -0.07008837 0.0039131595 -0.10949885 0.046169728 0.09457056
0.029767634 -0.13333112 -0.013684918 -0.010630408 0.13040723 -0.23284824 0.14222021 0.16819236
0.14843057 -0.119966865 -0.10692645 0.067621775 0.012072619 -0.1413419 0.0037017316 -0.26329085
-0.022555513 -0.042322215 0.11990571 -0.04078495 -0.15526462 -0.042838734 -0.21825725 -0.18920846
-0.1051114 0.14530267 0.04719464 -0.29393542 -0.14767532 -0.08349896 -0.040726777 -0.28768563
0.18780342 -0.27431408 0.033672955 -0.08994891 0.27151823 0.19860151 0.22500992 -0.04200102
0.09306872 -0.0049170293 0.015131131 0.16425307 -0.11448092 0.3717994 -0.0042084744 -0.05133806
-0.074215956 -0.11585237 0.042725902 -0.05900878 0.062672935 -0.09166344 0.14153813 0.20368612
0.24804594 -0.07530284 0.0016550615 0.20200747 0.14241438 -0.08127042 -0.4549899 -0.07002567
0.12562336 -0.41732126 -0.14850625 -0.19673787 -0.29306763 0.06765218 -0.061063215 0.12662157
0.04528953 -0.4891706 -0.03127548 0.14857228 0.022253176 -0.10798805 -0.031474855 -0.016245017
-0.008015496 -0.25280055 -0.12565269 -0.07728971 0.13527486 -0.04140609 -0.29450598 -0.033195727
0.10679186 0.12894851 0.237842 0.017188296 0.096984334 -0.14012368 -0.022134306 0.048892647
-0.060843263 0.17469472 0.06966102 0.089802966 -0.20284235 -0.21815723 0.044811793 0.016664283
-0.04967693 -0.027414246 -0.42938077 -0.14471029 -0.06142581 -0.23795831 -0.0889639 -0.01565688
-0.115367115 -0.10912258 -0.15547411 0.032429643 0.021576615 0.020745615 0.03480648 -0.06473732
0.15340114 0.09378097 0.027965624 -0.03278111 0.07718493 -0.19547993 0.114026174 0.15053761
0.25743747 -0.042161483 0.08164408 -0.021182064 -0.105611555 -0.20618418 0.18152888 0.36286733
0.18058334 -0.042210147 -0.08528257 0.23947102 0.24115264 -0.056802053 0.24320944 0.045624845
0.16853903 0.16000344 0.04337951 -0.20322289 -0.13573645 -0.14723088 0.09052458 -0.50779897
-0.021853177 0.05525791 -0.09139715 0.1304121 0.09218669 0.015290397 -0.13880551 0.2879212
-0.18611534 -0.22919278 -0.026337748 0.04491011 0.11374758 0.08051393 0.12439202 0.036774315
0.029759059 0.09522609 0.17165437 0.03658745 0.058508605 -0.07972998 0.18100573 0.06360386
-0.29710796 0.038249794 -0.16635321 0.13813685 -0.19512546 -0.3226817 -0.036226824 0.10176662
00000000: 9140 5a3e 2da3 6a3e 1075 aa3d 380e ee3d
00000010: 7822 e6bc e245 2ebd 602e 9d3d 969d f7bd
00000020: 6731 663d daba 9bbd 133e acbd 6958 483e
00000030: 51af 603c abe6 a43d 2146 783d 1c28 d53d
00000040: bc77 163e 6c26 3d3e 2eda f63c 077a f0bc
00000050: 4988 49bd 55fd 0e3d 1da1 623d 9488 513e
00000060: a46d 6b3d 05bf 893d 9564 2c3d 3665 f0bc
00000070: 4a88 d23d 60c0 243c af5d 1cbd 169b 9d3d
00000080: 16f7 633e 4100 6d3d 8b04 33be 60b0 8ebe
00000090: 1eac c83e 67aa 643d 2d68 1ebd e0f0 c53c
000000a0: 8846 b63d 84b6 543d 2a24 ce37 d0da 333d
000000b0: 1542 5b3e 6f75 2e3e 9ef6 9ebd 99db 98be
000000c0: b73d 8cbe 3967 443d 794b b83d 370d c5bc
000000d0: be36 a43d 5acf 7e3e d57d 29be 7b4d fc3c
000000e0: 55bf 4fbe 3b2c c1bd ae98 e93d c71c bb3d
000000f0: 1d30 b23d 8682 e83d 71ae 60be b996 fdbd
00000100: efeb 63be f308 2fbd 5a93 16be 7e8a 8fbd
00000110: f639 803b ef40 e0bd 781c 3d3d 36ae c13d
00000120: 41db f33c f487 08be b536 60bc 2a2b 2ebc
00000130: 7989 053e c56f 6ebe 2da2 113e 9e3a 2c3e
00000140: 2ffe 173e 30b1 f5bd 41fc dabd 497d 8a3d
00000150: 3ccc 453c eebb 10be c098 723b 0fce 86be
00000160: 57c6 b8bc 0f5a 2dbd 2091 f53d 1f0e 27bd
00000170: b0fd 1ebe ab77 2fbd d47e 5fbe ddbf 41be
00000180: a544 d7bd 39ca 143e 2b4f 413d b47e 96be
00000190: 3338 17be 8101 abbd 1fd1 26bd 884b 93be
000001a0: 8a4f 403e e572 8cbe a7ec 093d 2237 b8bd
000001b0: 7004 8b3e 325e 4b3e 0069 663e 4309 2cbd
000001c0: d09a be3d 081f a1bb 90e8 773c f531 283e
000001d0: f974 eabd 7e5c be3e 3ee7 89bb dc47 52bd
000001e0: 89fe 97bd 0244 edbd 5b01 2f3d 31b3 71bd
000001f0: ab5a 803d 0bba bbbd 5fef 103e 1893 503e
00000200: c1ff 7d3e 6038 9abd a6ee d83a 0cdb 4e3e
00000210: 13d5 113e 1b71 a6bd 70f4 e8be 9e69 8fbd
00000220: 69a3 003e 22ab d5be 0612 18be a775 49be
00000230: f60c 96be 3a8d 8a3d 6c1d 7abd 16a9 013e
00000240: 8481 393d 9274 fabe b81a 00bd 5523 183e
00000250: 4b4c b63c d728 ddbd c7eb 00bd 4514 85bc
00000260: 6d53 03bc 136f 81be 19ab 00be 114a 9ebd
00000270: 7e85 0a3e 6f99 29bd 7dc9 96be 3ef8 07bd
00000280: b1b5 da3d 140b 043e da8c 733e 78ce 8c3c
00000290: b99f c63d 957c 0fbe 0153 b5bc a843 483d
000002a0: c936 79bd 2ce3 323e 70aa 8e3d 9eea b73d
000002b0: e8b5 4fbe 9c64 5fbe 928c 373d 8983 883c
000002c0: 097a 4bbd d793 e0bc ccd7 dbbe ef2e 14be
000002d0: a199 7bbd 58ab 73be b532 b6bd db42 80bc
000002e0: 9845 ecbd a97b dfbd 9b34 1fbe f2d4 043d
000002f0: 71c1 b03c b5f2 a93c 3d91 0e3d 0095 84bd
00000300: 3015 1d3e 3d10 c03d 2a18 e53c 7c45 06bd
00000310: 2213 9e3d e42b 48be 8e86 e93d 8826 1a3e
00000320: d8ce 833e 85b1 2cbd 0335 a73d 0286 adbc
00000330: df4a d8bd f221 53be b5e2 393e bfc9 b93e
00000340: d7ea 383e 8ce4 2cbd a1a8 aebd e437 753e
00000350: b8f0 763e 45a9 68bd e50b 793e 1ee1 3a3d
00000360: 7f95 2c3e f1d7 233e b7ae 313d a919 50be
00000370: 7ffe 0abe b1c3 16be f364 b93d 1dff 01bf
00000380: 6f05 b3bc 1e56 623d 6e2e bbbd c08a 053e
00000390: 60cc bc3d 9384 7a3c 0823 0ebe 686a 933e
000003a0: 0595 3ebe 83b1 6abe 43c2 d7bc aaf3 373d
000003b0: 7ef4 e83d 7de4 a43d 3ec1 fe3d aaa0 163d
000003c0: 45c9 f33c e505 c33d 2ac6 2f3e b9dc 153d
000003d0: b8a6 6f3d 7949 a3bd 9159 393e be42 823d
000003e0: 891e 98be d1ab 1c3d 7f58 2abe bf73 0d3e
000003f0: f8ce 47be 8936 a5be 9462 14bd 056b d03d

actor.4.bias f4 [32]
-0.010587533 0.18871437 -0.3994403 -0.049554266 -0.03957759 -0.11264281 -0.049296975 -0.088287234
-0.23791601 0.0929978 -0.22554143 -0.071177304 -0.022103406 0.03147432 -0.15437126 -0.17946677
-0.20653766 -0.20507595 -0.26742724 -0.008964535 0.09584002 -0.18487129 -0.20023471 -0.0710231
0.023708306 -0.0354594 -0.2656645 0.029537331 -0.021148354 0.15946236 -0.059022304 -0.12910867
00000000: 5577 2dbc 573e 413e 7083 ccbe 6af9 4abd
00000010: 1c1c 22bd 46b1 e6bd a0eb 49bd f0cf b4bd
00000020: 41a0 73be a175 be3d 55f4 66be 68c5 91bd
00000030: 3412 b5bc 37eb 003d 8013 1ebe 23c6 37be
00000040: 9c7e 53be 6eff 51be 39ec 88be fcdf 12bc
00000050: c647 c43d e64e 3dbe 540a 4dbe 8f74 91bd
00000060: ec37 c23c e03d 11bd 2d05 88be 46f8 f13c
00000070: 503f adbc 1a4a 233e 5fc1 71bd 1035 04be

actor.6.weight f4 [12, 32]
-0.005883616 -0.10173889 0.13930987 0.09014759 -0.08949811 -0.20711319 -0.03670775 -0.006341712
0.057010107 -0.075641334 -0.018309401 0.13436823 -0.035913132 0.06081585 0.029103385 0.08770352
0.029724177 -0.061141774 -0.071616024 -0.06697479 -0.019489432 0.024079893 -0.04180073 -0.07016333
0.053046964 0.1412086 0.021239674 0.18553683 0.015627874 -0.11344293 0.01714958 -0.071270205
0.028884675 0.1064742 0.054482553 -0.053511724 -0.05685118 -0.0077689597 0.067919865 0.06134897
-0.032484118 0.14624992 -0.08028132 0.10732968 -0.102437794 0.032516506 -0.30922014 0.05080607
-0.023402251 0.09488063 -0.111108094 -0.0032898495 -0.14587873 -0.095997415 -0.023300538 0.13146411
0.19739977 -0.03993998 0.063167915 0.086775504 -0.12090857 -0.02243924 -0.011773859 -0.018410819
-0.05231174 -0.06295229 0.015743218 -0.012470298 -0.055279933 0.090296246 0.064181834 0.05108042
-0.17632475 0.029528875 -0.026601542 0.11670726 -0.0068368404 -0.11161194 0.21926251 -0.07142707
-0.115211636 -0.009750339 0.16802354 0.03067232 0.08056262 0.15134618 0.15659405 0.32152796
-0.18001923 0.1722282 0.12829898 -0.072506234 -0.049040504 -0.056922298 -0.020677239 -0.011289111
0.042211995 -0.08982271 0.22935417 -0.022874763 -0.0021331515 0.12474788 0.013038195 -0.0563146
0.029251551 0.10818302 -0.006863615 -0.040915955 -0.044401847 0.0021782676 0.013642479 0.042201232
0.110145494 0.0298272 0.0165476 -0.16312209 0.07264108 -0.103656106 0.055751085 -0.01711688
-0.061537586 0.09580794 0.0027918336 -0.18492907 -0.0161757 -0.09027026 -0.070241995 0.1968236
-0.05970141 -0.07409811 -0.016458238 -0.044884536 -0.20104237 -0.015898762 0.0017110268 -0.0828726
-0.08167969 0.1156801 0.11880124 -0.14334597 0.07264015 -0.018958967 -0.039392345 -0.07902908
-0.101286486 -0.069368586 -0.21636385 0.056419477 -0.009132071 -0.03441578 -0.17372859 0.01928561
-0.051851008 -0.000622089 0.108548924 0.19266944 0.029743135 -0.028163342 -0.09400581 0.13499613
0.1471409 -0.12761939 0.013027373 -0.033841692 0.07767034 0.32441753 0.058467537 0.10848252
0.031660438 -0.29680726 -0.14183326 -0.16270167 0.07951436 -0.029144427 0.027993254 -0.03966104
-0.06941731 0.14351971 -0.078173704 -0.07788171 0.060584344 0.18425283 0.09704837 0.019138495
0.12362775 -0.053131845 -0.015219618 -0.029699817 -0.120125696 0.045372665 -0.18539938 -0.17329417
0.1695997 0.052273672 -0.074029684 -0.11085742 -0.05565474 -0.0029441994 0.044453777 -0.0578291
-0.044765264 0.10601357 -0.18620875 0.045699686 0.07529141 0.08662433 0.07614151 -0.15484753
-0.07518656 -0.010610892 -0.008987621 0.05777779 0.07985636 -0.205258 0.121694624 -0.03539094
-0.08521524 -0.04309542 -0.014577547 0.18108343 0.08402666 -0.042943016 0.056375604 0.0065259305
-0.026628286 -0.11983692 -0.14404604 -0.07080286 0.0749895 -0.15763924 -0.0038756963 -0.054116715
0.14496313 0.055863548 -0.0035208077 -0.022690006 0.010037475 -0.06298144 -0.035717897 -0.025723176
-0.31599924 -0.0041934643 -0.08723756 -0.044002715 0.041463632 0.11051227 -0.08816488 0.16826205
0.10660136 -0.18667974 0.10118592 -0.11190606 0.0443596 -0.16577396 -0.06759459 0.11324901
00000000: 59cb c0bb 7b5c d0bd 3fa7 0e3e 4d9f b83d
00000010: c94a b7bd 7b15 54be de5a 16bd 23ce cfbb
00000020: 6e83 693d d8e9 9abd 99fd 95bc d397 093e
00000030: a619 13bd 0a1a 793d 396a ee3c e79d b33d
00000040: 1e80 f33c cc6f 7abd 6cab 92bd 142a 89bd
00000050: 4da8 9fbc 3243 c53c 3e37 2bbd cbb1 8fbd
00000060: c647 593d fd98 103e d3fe ad3c 5efd 3d3e
00000070: 0706 803c c454 e8bd 477d 8c3c 1df6 91bd
00000080: 8e9f ec3c 250f da3d 1929 5f3d 1c2f 5bbd
00000090: c8dc 68bd c292 febb 9219 8b3d 0f49 7b3d
000000a0: 110e 05bd 8ac2 153e 886a a4bd aacf db3d
000000b0: e8ca d1bd 0730 053d 1a52 9ebe 071a 503d
000000c0: 14b6 bfbc c750 c23d a48c e3bd 849a 57bb
000000d0: 3c61 15be 4b9a c4bd c5e0 bebc 879e 063e
000000e0: 2a23 4a3e 1b98 23bd 2e5e 813d 5bb7 b13d
000000f0: ea9e f7bd 7fd2 b7bc 25e7 40bc 49d2 96bc
00000100: d644 56bd 21ed 80bd ecf7 803c 3950 4cbc
00000110: 366d 62bd 3ded b83d c471 833d b439 513d
00000120: 7a8e 34be 8ae6 f13c 7aeb d9bc 3704 ef3d
00000130: 9307 e0bb cd94 e4bd 5a86 603e 5b48 92bd
00000140: 14f4 ebbd e3bf 1fbc 5d0e 2c3e 8444 fb3c
00000150: 04fe a43d 7efa 1a3e 315a 203e 509f a43e
00000160: f656 38be 975c 303e cf60 033e 267e 94bd
00000170: b2de 48bd 5b27 69bd 5063 a9bc f7f5 38bc
00000180: 7ce6 2c3d f8f4 b7bd d2db 6a3e db63 bbbc
00000190: 58cc 0bbb d17b ff3d 279e 553c 23aa 66bd
000001a0: f3a0 ef3c 0f8f dd3d 2de8 e0bb 7d97 27bd
000001b0: b6de 35bd 44c1 0e3b b484 5f3c 33db 2c3d
000001c0: f693 e13d 2c58 f43c d58e 873c 7a09 27be
000001d0: d9c4 943d a749 d4bd 405b 643d b338 8cbc
000001e0: d60e 7cbd f436 c43d 32f7 363b 0c5e 3dbe
000001f0: e782 84bc 9ddf b8bd 09db 8fbd 208c 493e
00000200: 7789 74bd c0c0 97bd 6dd3 86bc d9d8 37bd
00000210: 0dde 4dbe 1f3e 82bc 8844 e03a 1cb9 a9bd
00000220: ae47 a7bd b0e9 ec3d 114e f33d 49c9 12be
00000230: 5cc4 943d d64f 9bbc de59 21bd 00da a1bd
00000240: 4a6f cfbd 1e11 8ebd 7c8e 5dbe 1c18 673d
00000250: af9e 15bc 90f7 0cbd e8e5 31be dbfc 9d3c
00000260: b961 54bd b013 23ba e64e de3d 234b 453e
00000270: e0a7 f33c cfb6 e6bc 1e86 c0bd 6d3c 0a3e
00000280: 1bac 163e a8ae 02be c370 553c 969d 0abd
00000290: a111 9f3d 0e1a a63e a87b 6f3d 152c de3d
000002a0: 60ae 013d 1ff7 97be bd3c 11be 449b 26be
000002b0: 6dd8 a23d 4bc0 eebc 1c52 e53c 9d73 22bd
000002c0: aa2a 8ebd d5f6 123e 8919 a0bd 7280 9fbd
000002d0: 4a27 783d c6ac 3c3e 4cc1 c63d 55c8 9c3c
000002e0: 8c30 fd3d c7a0 59bd b45b 79bc 084d f3bc
000002f0: 7604 f6bd b0d8 393d 56d9 3dbe 0774 31be
00000300: 8bab 2d3e eb1c 563d e09c 97bd 3709 e3bd
00000310: 3af6 63bd 78f3 40bb 2a15 363d 35de 6cbd
00000320: c85b 37bd a51d d93d 82ad 3ebe 982f 3b3d
00000330: 6232 9a3d 1968 b13d 14f0 9b3d 5a90 1ebe
00000340: 69fb 99bd 4fd9 2dbc d140 13bc 67a8 6c3d
00000350: bb8b a33d 272f 52be 083b f93d 17f6 10bd
00000360: 5485 aebd d384 30bd aad6 6ebc ef6d 393e
00000370: 2b16 ac3d 04e5 2fbd 1bea 663d 79d7 d53b
00000380: 9023 dabc 0f6d f5bd ce80 13be 1701 91bd
00000390: 1894 993d 2e6c 21be 65ff 7dbb 7da9 5dbd
000003a0: 3771 143e 2dd1 643d 5abd 66bb 64e0 b9bc
000003b0: 3974 243c 6afc 80bd ee4c 12bd 69b9 d2bc
000003c0: a7ca a1be 5469 89bb 9ba9 b2bd 313c 34bd
000003d0: c5d5 293d 4254 e23d ca8f b4bd e34c 2c3e
000003e0: d051 da3d f928 3fbe 903a cf3d 012f e5bd
000003f0: 69b2 353d a6c0 29be 086f 8abd 19ef e73d

actor.6.bias f4 [12]
-0.18409905 -0.024038713 0.096357025 -0.14212985 -0.23875669 -0.06146005 0.18424703 0.003819732
-0.048069622 0.16272222 -0.06244281 -0.14981483
00000000: 7684 3cbe d6ec c4bc d556 c53d 7d8a 11be
00000010: a27c 74be 89bd 7bbd 41ab 3c3e 7854 7a3b
00000020: a7e4 44bd a7a0 263e 08c4 7fbd 0f69 19be

critic.0.weight f4 [128, 48]
0.30526054 0.23334315 0.7531561 -0.24478288 0.5159351 -0.4670761 -1.0113068 0.6759687
-0.017769083 -0.18436381 -0.3742291 0.77106035 -0.020641273 -0.080233544 0.032395557 -0.03458884
-0.1815424 -0.24478592 -0.30987772 0.044324797 -0.054880846 -0.30207732 -0.017618697 -0.16974905
0.2164742 -0.22982945 -0.0066550774 -0.37089005 -0.26899672 0.018891012 -0.112073824 0.1934395
-0.23205264 -0.031462926 0.018256843 0.06611744 0.023093196 0.019477172 0.0062978137 -0.03046055
-9.324801e-05 -0.06468055 0.0007602909 0.0053899866 -0.028158171 0.024643473 -0.08919351 0.08565226
0.21707608 -0.014576149 0.003063671 -0.14414144 0.2014042 0.005446751 1.3040471 0.2713399
-0.007378048 -0.08783164 -0.27719596 0.5956126 0.019630788 0.31761935 0.32425144 0.10505643
-0.021367276 -0.007800469 0.31284198 0.22113882 0.26258418 -0.11186895 -0.26401508 -0.020495567
0.02128918 0.37808302 0.1446885 0.13856067 -0.1399814 0.0057365657 0.027886199 -0.026178356
0.07129868 -0.15639813 -0.16030376 -0.01619782 -0.03175167 0.040151782 -0.06970428 0.02963732
0.0012024578 0.002126541 0.049812734 0.08101295 -0.04630731 0.06294225 0.025984598 -0.035551757
-0.11701082 0.0844466 0.13995822 -0.027579367 0.024322808 0.2710308 -0.40566334 0.34875625
0.11006451 0.02384974 -0.18580742 1.0683813 -0.43122473 -0.36406636 -0.3429408 -0.086395636
0.0542653 0.09486882 0.28843725 0.080884375 0.10976279 0.105326004 -0.2093933 0.03674954
0.025478957 -0.052002497 -0.17555672 -0.25014076 0.32244495 -0.028142683 0.11584893 0.017300515
0.12642667 -0.029231032 0.08975462 -0.044412598 0.05691528 -0.007449083 -0.0656658 -0.061170302
0.005378366 0.019091811 -0.041026257 0.002101621 0.09888678 -0.0060176807 -0.010879659 -0.0038616236
-0.50665873 -0.05712865 0.12549229 -0.07724625 -0.3970194 -0.2754061 -1.892878 -0.09228123
0.054933734 -0.51005936 0.19043091 0.26683322 0.413281 -0.25081283 -0.3422248 -0.6572192
-0.39723036 -0.30076882 -0.44186294 -0.7208321 -0.36340854 0.716176 -0.27399033 -0.37813127
0.21667452 0.24665494 -0.035287276 -0.2670776 0.12599874 -0.06817932 -0.26343244 -0.044701673
-0.08599382 0.1973098 0.2096578 -0.11987682 0.012255944 0.0004194145 0.037867025 -0.016177574
-0.012348644 0.019618541 0.023165498 -0.03219157 -0.025048379 0.01350509 -0.008482757 -0.025012264
-0.14748117 0.10357127 0.09267095 0.102252856 0.89559114 0.014138646 0.63311327 -0.44140232
-0.075956814 -0.032616377 0.1685162 -0.5408096 -0.053632643 -0.112488024 -0.42758986 0.08628551
-0.04344159 -0.37265694 -0.08489679 0.30248675 0.24858533 -0.24358626 0.08674563 0.16263992
0.70637316 0.6128725 -0.22329712 -0.054403186 0.19212674 0.055127315 -0.29575926 0.14773263
0.19795519 0.15813245 -0.13862273 0.14771439 0.0031887959 0.047359508 -0.06860412 -0.10667274
0.046093248 0.067626245 -0.057225507 -0.033721875 0.10769651 -0.017688636 -0.04754546 0.03143563
0.21870144 -0.44806498 -0.22931957 0.09252219 0.4879127 0.13873787 0.919885 -0.7469365
-0.12234231 -0.23815157 0.090246305 0.37547877 0.067394845 0.29675597 0.08509557 0.45800093
00000000: 1c4b 9c3e 82f1 6e3e d7ce 403f 5da8 7abe
00000010: 5314 043f 9924 efbe 8072 81bf 490c 2d3f
00000020: 7890 91bc dec9 3cbe f59a bfbe 3664 453f
00000030: e317 a9bc 7c51 a4bd 34b1 043d 07ad 0dbd
00000040: 40e6 39be 29a9 7abe 4ba8 9ebe eb8d 353d
00000050: bdca 60bd e1a9 9abe 1655 90bc b2d2 2dbe
00000060: 6aab 5d3e 6958 6bbe d612 dabb 4de5 bdbe
00000070: f0b9 89be 53c1 9a3c f686 e5bd 0115 463e
00000080: 359f 6dbe 45df 00bd 608f 953c 9568 873d
00000090: f12d bd3c 978e 9f3c e45d ce3b 6788 f9bc
000000a0: 258e c3b8 3c77 84bd 424e 473a 7c9e b03b
000000b0: f7ab e6bc 1ce1 c93c 16ab b6bd 746a af3d
000000c0: 3149 5e3e cdd0 6ebc dfc7 483b d099 13be
000000d0: e73c 4e3e a97a b23b 04eb a63f 10ed 8a3e
000000e0: 8dc3 f1bb 13e1 b3bd a1ec 8dbe 117a 183f
000000f0: bfd0 a03c 019f a23e 4904 a63e d327 d73d
00000100: 6d0a afbc 149b ffbb d32c a03e 3772 623e
00000110: 6f71 863e 8c1b e5bd fc2c 87be 52e6 a7bc
00000120: a566 ae3c 1994 c13e 3929 143e d9e2 0d3e
00000130: 4957 0fbe cdf9 bb3b 9971 e43c fe73 d6bc
00000140: 0b05 923d d526 20be ab26 24be 4ab1 84bc
00000150: 0a0e 02bd 3276 243d 1ec1 8ebd f7c9 f23c
00000160: ca9b 9d3a 705d 0b3b 7008 4c3d 1eea a53d
00000170: bcac 3dbd dee7 803d a7dd d43c b89e 11bd
00000180: 5ea3 efbd 57f2 ac3d 3551 0f3e 20ee e1bc
00000190: a040 c73c 8dc4 8a3e 1bb3 cfbe 2e90 b23e
000001a0: 8069 e13d 8860 c33c 4d44 3ebe b8c0 883f
000001b0: 7dc9 dcbe e866 babe f095 afbe 32f0 b0bd
000001c0: 4b45 5e3d 954a c23d 0cae 933e b5a6 a53d
000001d0: 50cb e03d 29b5 d73d 326b 56be b086 163d
000001e0: 3fb9 d03c 9200 55bd 24c5 33be 7312 80be
000001f0: 8117 a53e 7c8b e6bc 3442 ed3d cfb9 8d3c
00000200: fe75 013e eb75 efbc 45d1 b73d fce9 35bd
00000210: ff1f 693d 7017 f4bb ca7b 86bd b68d 7abd
00000220: 013d b03b 6e66 9c3c 260b 28bd 59bb 093b
00000230: 2785 ca3d f72f c5bb 9940 32bc 4b13 7dbb
00000240: 63b4 01bf bbff 69bd 0d81 003e 4833 9ebd
00000250: 2046 cbbe 0702 8dbe d449 f2bf f1fd bcbd
00000260: 3202 613d 4093 02bf 5200 433e 5d9e 883e
00000270: 9199 d33e 8a6a 80be 1738 afbe 843f 28bf
00000280: c761 cbbe 5ffe 99be dc3b e2be 7488 38bf
00000290: af10 babe 4f57 373f 7648 8cbe 6c9a c1be
000002a0: eddf 5d3e 1d93 7c3e 6489 10bd 65be 88be
000002b0: d005 013e 99a1 8bbd 9ee0 86be 1a19 37bd
000002c0: 871d b0bd 950b 4a3e 89b0 563e fa81 f5bd
000002d0: 28cd 483c dce4 db39 741a 1b3d d586 84bc
000002e0: f851 4abc 10b7 a03c 92c5 bd3c 4fdb 03bd
000002f0: 4232 cdbc 7444 5d3c 43fb 0abc 85e6 ccbc
00000300: 4e05 17be 2d1d d43d 44ca bd3d f269 d13d
00000310: 7645 653f c8a5 673c b613 223f 7cff e1be
00000320: 3f8f 9bbd c098 05bd 838f 2c3e 7f72 0abf
00000330: e7ad 5bbd 1f60 e6bd 0fed dabe 75b6 b03d
00000340: cfef 31bd e4cc bebe 5ede adbd 8bdf 9a3e
00000350: 278d 7e3e ad6e 79be b1a7 b13d 148b 263e
00000360: dfd4 343f 36e5 1c3f 00a8 64be e0d5 5ebd
00000370: dfbc 443e 2ecd 613d c26d 97be 3947 173e
00000380: c4b4 4a3e 79ed 213e 1ef3 0dbe 7142 173e
00000390: 1efb 503b 0bfc 413d 5180 8cbd 3d77 dabd
000003a0: 46cc 3c3d a17f 8a3d 4b65 6abd f31f 0abd
000003b0: fd8f dc3d c2e7 90bc 07bf 42bd a6c2 003d
000003c0: 45f3 5f3e c668 e5be c0d2 6abe 467c bd3d
000003d0: b2cf f93e 4d11 0e3e 957d 6b3f 3b37 3fbf
000003e0: 9b8e fabd 01de 73be 0ed3 b83d c13e c03e
000003f0: 4f06 8a3d 66f0 973e 9646 ae3d 197f ea3e

critic.0.bias f4 [128]
0.2719661 0.020636301 -0.2699733 -0.32822746 -0.08274423 0.19132803 -0.18469746 0.009765746
0.045659818 0.051198382 -0.22126454 0.09900422 0.041575328 0.032078996 0.046375804 0.013373478
0.19178341 -0.18142733 0.04490238 -0.23435393 0.18351613 -0.2114633 -0.08789805 -0.042787645
0.011111044 -0.15201288 -0.032421242 0.07410958 0.06678372 -0.24515755 -0.15268381 -0.22327106
-0.30809706 -0.2659137 -0.037710916 -0.118543014 0.21804704 -0.019841705 -0.08531001 -0.2106952
0.0026645898 -0.051210474 -0.007442324 -0.1864882 -0.25148457 -0.33243093 -0.20452616 -0.16375066
-0.24267231 -0.2790991 -0.24940987 -0.06929597 -0.20793298 -0.20672601 -0.1380891 -0.042680506
-0.22887714 0.014192986 -0.2759436 0.14894208 0.01989245 -0.26463017 -0.27538097 -0.14896528
-0.12695713 0.018580696 0.21308208 0.09372867 -0.042278208 0.17339443 0.17456728 0.25428388
-0.15696865 -0.1446761 0.042394318 -0.14910834 -0.18085742 -0.25503904 0.120580025 -0.11332935
0.14103015 -0.09924625 -0.25343364 -0.059674505 0.2236723 0.052644018 -0.26386216 -0.25639263
-0.17648235 -0.1542097 -0.00963993 -0.22234878 0.07627381 0.037435535 -0.07273957 -0.15323542
-0.07061347 -0.029737445 0.058092173 -0.0017130433 0.09220208 -0.23882543 -0.073011085 0.11737189
0.00491523 0.1900792 -0.4196359 -0.16630493 0.12261323 -0.09200691 -0.10539865 -0.073608324
0.054923683 -0.03678652 -0.24799669 0.03348937 -0.096572034 -0.075924836 0.011335907 0.14900094
-0.27902743 -0.1337448 -0.0690987 0.106080234 -0.2895602 -0.17100656 0.013041474 -0.34004033
00000000: 243f 8b3e 760d a93c f139 8abe 6e0d a8be
00000010: cf75 a9bd 7feb 433e 5521 3dbe 8200 203c
00000020: ca05 3b3d 65b5 513d 2c93 62be b9c2 ca3d
00000030: e44a 2a3d 4465 033d 8ef4 3d3d 6f1c 5b3c
00000040: df62 443e 16c8 39be 8feb 373d 7afa 6fbe
00000050: a7eb 3b3e d689 58be e503 b4bd 1942 2fbd
00000060: 190b 363c 44a9 1bbe 23cc 04bd c3c6 973d
00000070: e7c5 883d 950a 7bbe 2559 1cbe 2ba1 64be
00000080: e6be 9dbe d725 88be c376 1abd aec6 f2bd
00000090: b947 5f3e 128b a2bc 04b7 aebd 7cc0 57be
000000a0: 66a0 2e3b 13c2 51bd bdde f3bb c3f6 3ebe
000000b0: 96c2 80be 6334 aabe 4e6f 51be 41ae 27be
000000c0: 177f 78be 14e6 8ebe 4d65 7fbe 0ceb 8dbd
000000d0: 62ec 54be fcaf 53be 3b67 0dbe c1d1 2ebd
000000e0: c55e 6abe b389 683c 7b48 8dbe 4684 183e
000000f0: 7ef5 a23c 9b7d 87be bcfe 8cbe 5b8a 18be
00000100: 0d01 02be 8b36 983c 3032 5a3e d1f4 bf3d
00000110: ea2b 2dbd 4f8e 313e c4c1 323e 7f31 823e
00000120: 64bc 20be f925 14be aaa5 2d3d dbaf 18be
00000130: b032 39be 7a94 82be a9f2 f63d 3819 e8bd
00000140: 356a 103e 9e41 cbbd 0ec2 81be 416d 74bd
00000150: 5a0a 653e 41a1 573d f118 87be e545 83be
00000160: cab7 34be 26e9 1dbe ccf0 1dbc 66af 63be
00000170: 7135 9c3d 0156 193d 7cf8 94bd bfe9 1cbe
00000180: cc9d 90bd f19b f3bc 0ff2 6d3d 3288 e0ba
00000190: 72d4 bc3d a78e 74be d686 95bd ac60 f03d
000001a0: f00f a13b 1fa4 423e 84da d6be d74b 2abe
000001b0: a51c fb3d 1e6e bcbd 3fdb d7bd f6bf 96bd
000001c0: a8f7 603d 76ad 16bd d8f2 7dbe 262c 093d
000001d0: 8fc7 c5bd 7b7e 9bbd 3dba 393c b493 183e
000001e0: afdc 8ebe 66f4 08be 9f83 8dbd 9840 d93d
000001f0: 3c41 94be 581c 2fbe e8ab 553c c419 aebe

critic.2.weight f4 [64, 128]
-0.13570538 -0.098575726 -0.0729605 -0.32740346 0.061603192 -0.11636299 -0.0628982 -0.08216226
-0.066158615 -0.18096113 0.059593283 -0.26190513 0.05109384 -2.0646643e-05 0.17770526 0.19700083
-0.030034782 0.026646778 0.22228758 -0.19848457 0.113051906 0.14411817 0.1926821 -0.052528646
0.21586211 0.07457207 -0.15933123 -0.13199665 -0.12359212 -0.19897102 -0.21606767 -0.3255493
-0.1502517 0.0005454794 -0.35464433 0.037539583 0.1393866 -0.16042796 0.096115366 -0.092359476
0.08605506 0.045128644 0.015416429 -0.21924973 -0.029751403 -0.008061803 -0.102990136 0.016279709
-0.09705869 -0.13472943 -0.1818774 0.02761551 0.22121456 -0.10949247 -0.20077041 0.008805614
0.048719525 -0.0040330803 -0.20609221 0.03613884 0.019579753 0.03320803 -0.033049002 -0.14553846
0.089267865 0.2166158 0.0956491 -0.11588633 -0.09261328 -0.2813304 0.09934188 -0.03424877
-0.05642364 -0.038661357 -0.22126412 0.14400214 -0.121688105 0.15201598 -0.07087136 -0.07354371
0.024118207 -0.118371256 -0.028587604 0.10675527 -0.058746684 0.11223832 0.05260134 -0.24661031
0.09502029 -0.050879333 -0.08247833 0.04396483 0.0089323735 0.124112904 0.22538155 0.055623204
0.038356464 0.13878402 0.07408018 -0.043222465 0.13435222 -0.40733963 0.18095912 0.1964156
0.04079614 -0.07979771 -0.20597647 0.17174123 -0.0007283827 -0.028800778 -0.080069914 0.07335772
-0.15968868 -0.06072531 -0.09466397 0.14150243 -0.07631766 0.065709345 0.19494742 0.08916344
-0.044509847 -0.1720179 0.08725065 -0.08671752 -0.023194792 0.16093533 0.07847176 -0.10414515
0.041348692 -0.14642958 0.005100509 -0.08581233 -0.072477706 -0.24582332 0.0538344 0.12657024
-0.019448467 -0.21823725 0.094236 -0.04046876 -0.059045397 0.011437433 0.21997966 0.029397048
-0.042338394 0.0120103145 -0.004131772 0.18478368 -0.023157565 0.10079028 -0.015845507 -0.031933557
-0.12013165 -0.04013887 0.03521805 0.036090743 0.020970728 0.11829994 -0.26915336 0.07632597
0.053476054 0.06938873 0.005148678 0.036598787 -0.018044265 0.0023351642 0.13044162 0.022354558
-0.10189444 0.0072471034 -0.05385019 -0.02073801 -0.049635354 0.12509651 -0.11663522 -0.09181053
0.004562516 0.15614548 0.10048826 0.070615284 -0.010131561 0.10989742 -0.037381638 -0.11435932
-0.073804826 0.0652208 -0.14410207 0.006771752 -0.042778708 0.09056684 0.03197248 -0.017661246
-0.058630385 -0.18483281 0.097386576 -0.02166029 0.10153628 -0.053857557 -0.049097534 0.09010601
-0.017465983 0.040553745 0.043850172 -0.09330103 -0.09601191 -0.13489689 -0.003030914 0.09463507
-0.13770166 -0.10060692 0.051128186 0.14683437 -0.15855046 0.13647309 -0.07593091 -0.041396234
-0.09766536 -0.13823748 -0.008134006 0.06962048 -0.06390398 -0.030156868 -0.014586443 0.009309142
0.00578887 0.08791474 -0.07803433 -0.054663494 0.07954536 0.035127457 0.020775715 -0.23317568
-0.03277651 -0.06017643 -0.19430646 0.061960246 0.011053624 0.069442466 -0.048286192 0.166416
-0.027513428 0.03770627 -0.023957912 -0.16471827 -0.1308035 -0.0678455 -0.11442855 -0.108574115
-0.1783477 0.0179539 -0.03350659 -0.013358644 -0.050817806 -0.018745191 -0.08884027 0.014499356
00000000: 5af6 0abe 12e2 c9bd 516c 95bd 6da1 a7be
00000010: a153 7c3d b84f eebd c5d0 80bd b044 a8bd
00000020: 2b7e 87bd e04d 39be 1618 743d 6e18 86be
00000030: c647 513d 5432 adb7 5ef8 353e 96ba 493e
00000040: 810b f6bc 584a da3c 5b9f 633e 8a3f 4bbe
00000050: c287 e73d b793 133e 754e 453e 4728 57bd
00000060: f50a 5d3e 3eb9 983d ba27 23be 212a 07be
00000070: de1d fdbd 0fbf 4bbe d840 5dbe 66ae a6be
00000080: 95db 19be 81fe 0e3a f193 b5be 1bc3 193d
00000090: 5cbb 0e3e 3a47 24be 22d8 c43d f726 bdbd
000000a0: a33d b03d d0d8 383d 3195 7c3c 0083 60be
000000b0: 37b9 f3bc a715 04bc 7eec d2bd 065d 853c
000000c0: b5c6 c6bd 83f6 09be 123e 3abe ec39 e23c
000000d0: 1286 623e 973d e0bd c296 4dbe 6c45 103c
000000e0: 208e 473d ee27 84bb d609 53be 5206 143d
000000f0: b865 a03c 2505 083d 645e 07bd 0908 15be
00000100: 12d2 b63d 88d0 5d3e ade3 c33d d055 edbd
00000110: 08ac bdbd 8a0a 90be c173 cb3d 7048 0cbd
00000120: 7a1c 67bd 5f5b 1ebd 1093 62be 4c75 133e
00000130: 9d37 f9bd 14aa 1b3e 0125 91bd 169e 96bd
00000140: 8c93 c53c a16c f2bd 8d30 eabc 82a2 da3d
00000150: 5da0 70bd 34dd e53d 8174 573d 6a87 7cbe
00000160: ff99 c23d d966 50bd 66ea a8bd 7714 343d
00000170: 1759 123c e82e fe3d 6cca 663e 28d5 633d
00000180: ab1b 1d3d 661d 0e3e 59b7 973d 0a0a 31bd
00000190: a193 093e d28e d0be 594d 393e 2c21 493e
000001a0: da19 273d fb6c a3bd 7feb 52be efdc 2f3e
000001b0: f0f0 3eba 9cef ebbc b2fb a3bd 933c 963d
000001c0: 6e85 23be 1abb 78bd 2fdf c1bd 03e6 103e
000001d0: 6f4c 9cbd 9f92 863d 4ca0 473e 529b b63d
000001e0: f54f 36bd 7625 30be 78b0 b23d f598 b1bd
000001f0: 0103 bebc 3bcc 243e cdb5 a03d 0d4a d5bd
00000200: 3f5d 293d a3f1 15be 2c22 a73b 60be afbd
00000210: 316f 94bd 1cb9 7bbe 7681 5c3d a19b 013e
00000220: 6452 9fbc 9679 5fbe cefe c03d 92c2 25bd
00000230: 96d9 71bd 1264 3b3c 5942 613e 14d2 f03c
00000240: 066b 2dbd e9c6 443c d163 87bb ef37 3d3e
00000250: efb4 bdbc 226b ce3d 70ce 81bc c3cc 02bd
00000260: 9507 f6bd a868 24bd cd40 103d e3d3 133d
00000270: ceca ab3c 3d47 f23d 78ce 89be ca50 9c3d
00000280: b509 5b3d ae1b 8e3d 3eb6 a83b 9ce8 153d
00000290: 91d1 93bc 8e09 193b 7d92 053e e820 b73c
000002a0: 08ae d0bd 1c79 ed3b 0492 5cbd c2e2 a9bc
000002b0: 714e 4bbd 4d19 003e 72de eebd 2907 bcbd
000002c0: 2981 953b 9ae4 1f3e cacc cd3d bf9e 903d
000002d0: d9fe 25bc e611 e13d 7d1d 19bd 3835 eabd
000002e0: fc26 97bd 7c92 853d 7e8f 13be 93e5 dd3b
000002f0: ba38 2fbd 1b7b b93d 93f5 023d 51ae 90bc
00000300: 6a26 70bd d044 3dbe 9d72 c73d ec70 b1bc
00000310: 41f2 cf3d be99 5cbd 7f1a 49bd 8089 b83d
00000320: d214 8fbc af1b 263d 3d9c 333d 9c14 bfbd
00000330: e4a1 c4bd 6922 0abe 4da2 46bb 08d0 c13d
00000340: aa01 0dbe 000b cebd ca6b 513d c05b 163e
00000350: 0d5b 22be 9abf 0b3e aa81 9bbd 198f 29bd
00000360: c704 c8bd 208e 0dbe 7e44 05bc 2f95 8e3d
00000370: 17e0 82bd 890b f7bc fafb 6ebc 5f85 183c
00000380: 90b0 bd3b a50c b43d 76d0 9fbd d4e6 5fbd
00000390: ade8 a23d cfe1 0f3d d531 aa3c 9bc5 6ebe
000003a0: a940 06bd 8f7b 76bd 46f8 46be 07ca 7d3d
000003b0: 421a 353c da37 8e3d bec7 45bd f568 2a3e
000003c0: d763 e1bc e471 1a3d 6243 c4bc e8ab 28be
000003d0: 5af1 05be 95f2 8abd 8459 eabd 1b5c debd
000003e0: c8a0 36be 0f14 933c 353e 09bd 37de 5abc
000003f0: 5526 50bd 848f 99bc e3f1 b5bd b58e 6d3c

critic.2.bias f4 [64]
-0.06317958 0.045810763 -0.013090063 0.12563159 -0.2958779 0.02037889 0.026125126 -0.1729889
0.13618258 -0.1378445 -0.036799245 -0.17008911 -0.40353864 -0.05851172 0.2594076 -0.1180809
-0.20784885 -0.11477801 0.021330288 -0.18720712 0.01870903 0.018795438 -0.18020953 -0.28815928
0.18329151 0.024006344 -0.25259167 0.06328691 -0.1907927 -0.10868231 0.19264208 0.04978888
-0.39411148 -0.10329722 -0.2258927 -0.23965317 0.029863525 -0.14458896 0.17242089 -0.12974302
0.04410226 -0.0469855 -0.076419905 -0.21707149 -0.39157936 0.12346458 0.09068624 0.029187562
0.11230864 0.034229413 0.0247206 0.12076434 -0.0029991567 -0.03123948 -0.07416337 0.0045717
-0.14387809 -0.1583187 -0.16114828 -0.015843628 -0.00031040484 -0.07382432 -0.00864708 -0.38285798
00000000: 4c64 81bd 11a4 3b3d b477 56bc 91a5 003e
00000010: 4f7d 97be a1f1 a63c 5c04 d63c 0124 31be
00000020: 7273 0b3e 1c27 0dbe ceba 16bd d72b 2ebe
00000030: 9e9c cebe fca9 6fbd 13d1 843e 66d4 f1bd
00000040: 54d6 54be bc10 ebbd dbbc ae3c 39b3 3fbe
00000050: ae43 993c e4f8 993c d988 38be 9d89 93be
00000060: c5b0 3b3e f4a8 c43c b253 81be 919c 813d
00000070: 295f 43be d594 debd f743 453e 6def 4b3d
00000080: fbc8 c9be 7e8d d3bd 6a50 67be a467 75be
00000090: 5aa4 f43c 210f 14be 1a8f 303e 5bdb 04be
000000a0: 92a4 343d de73 40bd 0a82 9cbd fd47 5ebe
000000b0: 177d c8be ffda fc3d b5b9 b93d c11a ef3c
000000c0: 1202 e63d 2434 0c3d db82 ca3c 4b53 f73d
000000d0: 808d 44bb f0e9 ffbc f7e2 97bd 33ce 953b
000000e0: c754 13be 4c1e 22be 0e04 25be 7fca 81bc
000000f0: d5bd a2b9 3531 97bd 7bac 0dbc f605 c4be
