logs/flat_anymal_c/Nov23_11-24-27_/model_0.pt (torch, 418700 bytes, 48 tensors)

std f4 [12]
0	0x3f80767e	1.0036161
1	0x3f8095f9	1.0045768
2	0x3f807b0c	1.0037551
3	0x3f80febf	1.0077742
4	0x3f80dd81	1.0067598
5	0x3f816fee	1.0112283
6	0x3f80ff87	1.0077981
7	0x3f805ce6	1.002835
8	0x3f80ab4e	1.0052278
9	0x3f812287	1.0088662
10	0x3f808b58	1.0042524
11	0x3f80b480	1.0055084

actor.0.weight f4 [128, 48]
0	0xbde10d89	-0.1098891
1	0xbd8074f2	-0.062723055
2	0x3c8d2a5a	0.017232109
3	0x3d40b141	0.047044042
4	0x3d28a488	0.041172534
5	0x3d4a3cce	0.049374394
6	0xbdf660ac	-0.120301574
7	0xbdddd85a	-0.108322814
8	0x3df91bd9	0.12163515
9	0xbdee8306	-0.116460845
10	0xbd37e26e	-0.044893675
11	0x3dcd92ee	0.1003779
12	0x3dd99dfc	0.10625836
13	0x3dafa8c2	0.0857711
14	0xbd56fc7b	-0.052486878
15	0x3d5a2fd1	0.053268258
16	0x3d7fd19a	0.06245575
17	0xbdce9164	-0.10086325
18	0xbd916b01	-0.071004875
19	0x3c9c361e	0.019068774
20	0x3e068a9d	0.13138814
21	0xbd11dee1	-0.035612945
22	0x3d4474ff	0.04796314
23	0x3ddbb99e	0.10728763
24	0x3da78f91	0.0818168
25	0x3d0bb002	0.0341034
26	0xbd4ac8b0	-0.049507797
27	0x3da34920	0.07972932
28	0xbe0d272d	-0.13784476
29	0x3ceae55a	0.028673816
30	0x3bf673df	0.007521137
31	0xbd2839e9	-0.041070852
32	0x3e18920a	0.1489946
33	0xbe0c0275	-0.13672812
34	0xbdab6041	-0.08367968
35	0x3e01f579	0.12691297
36	0xbd1d6005	-0.03842165
37	0x3cad97be	0.02119052
38	0x3c767f08	0.015044935
39	0x3df05436	0.11734812
40	0x3c190803	0.009340289
41	0xbd3f287b	-0.046669465
42	0xbd5520ae	-0.05203312
43	0xbd429d11	-0.04751307
44	0xbdc08d7a	-0.094019845
45	0x3d429da2	0.04751361
46	0xbc2dbada	-0.010603631
47	0xbdb38734	-0.08766022
48	0xbd3042b0	-0.04303235
49	0xbd0d9ee9	-0.034575377
50	0x3d2a867c	0.04163216
51	0xbdd36fc8	-0.10324055
52	0x3e0c336f	0.13691495
53	0xbdee597a	-0.1163816
54	0x3e0f83a1	0.14015056
55	0x3ba3c3cd	0.0049977065
56	0x3d45c288	0.048281223
57	0x3d3cae8f	0.04606491
58	0xbdf96da0	-0.121791124
59	0xbe0c3ff0	-0.13696265
60	0x3ce91e43	0.028456813
61	0xbcc671d8	-0.024224207
62	0xbd47eda7	-0.048810627
63	0xbd92eac6	-0.07173686
64	0xbdcf34e4	-0.1011751
65	0x3d8d5bfb	0.069023095
66	0xbddac9af	-0.10682999
67	0xbd83e783	-0.06440642
68	0x3d92332a	0.07138665
69	0x3d7748d9	0.060372207
70	0xbd93ab2d	-0.072103836
71	0xbe0b7daf	-0.13622163
72	0x3da86c87	0.08223825
73	0x3dded828	0.10881072
74	0xbd837748	-0.064192355
75	0x3e0132bc	0.1261701
76	0xbdb2bfde	-0.08728002
77	0x3df0b47e	0.11753176
78	0x3d4ce752	0.05002529
79	0xbe02e7ce	-0.12783739
80	0x3d2e4b46	0.042552255
81	0xbd9359ce	-0.07194863
82	0xbcd72b18	-0.026265666
83	0xba825fe8	-0.0009946795
84	0xbdcaa659	-0.098950095
85	0x3d703719	0.058646295
86	0x3dd224e3	0.10260942
87	0xbd0ab28a	-0.033861674
88	0x3d851fd0	0.065002084
89	0xbe0ae10e	-0.13562414
90	0x3c5b74c1	0.0133945355
91	0xbda0d6fb	-0.07853504
92	0x3c19da0b	0.009390364
93	0xbd4e4637	-0.05035993
94	0xbd9dd04c	-0.07705745
95	0xbd04a1c4	-0.032380834
96	0xbe045428	-0.12922728
97	0xbd6a16f6	-0.057150804
98	0xbd6b4af2	-0.05744452
99	0x3e0d7c31	0.13816907
100	0xbd789399	-0.060687635
101	0xbcb1f88c	-0.021724962
102	0xbcf1682f	-0.029468624
103	0xbde65c38	-0.11248058
104	0x3d270420	0.04077542
105	0xbde4c3d9	-0.111701675
106	0x3d63072a	0.055426754
107	0xbd37da81	-0.044886116
108	0x3d71ebf3	0.05906291
109	0x3dbfd424	0.093666345
110	0x3dda0dd0	0.10647166
111	0x3e0aed7c	0.13567156
112	0xbd151cb7	-0.036404338
113	0xbe172de1	-0.14763595
114	0xbd718ac8	-0.058970243
115	0xbe24ea74	-0.16105062
116	0x3ce72827	0.028217388
117	0xbe067809	-0.13131727
118	0xbc952216	-0.01820473
119	0x3deb0c90	0.114770055
120	0xbcd2437c	-0.025666945
121	0x3cd706da	0.026248384
122	0x3df210dc	0.11819622
123	0xbd97f105	-0.07419018
124	0xbdf46799	-0.11933822
125	0x3d91a2cf	0.071111314
126	0x3de43cfe	0.11144446
127	0xbc89a98b	-0.016804477
128	0xbdd431a3	-0.1036103
129	0x3c971571	0.018442841
130	0x3d4b53dc	0.04964052
131	0xbdf302cf	-0.1186577
132	0xbd891c5f	-0.066948645
133	0xbb86a950	-0.004109539
134	0x3da244bc	0.07923266
135	0x3a90a6c6	0.001103603
136	0x3e0caa09	0.13736738
137	0x3e10d3d3	0.14143305
138	0x3d135964	0.03597392
139	0xbd987b6a	-0.07445414
140	0xbd94b74e	-0.07261525
141	0xbce560c3	-0.028000241
142	0x3c21ed40	0.009883225
143	0xbda8e052	-0.08245911
144	0xbe0e04e7	-0.13869058
145	0xbd128a26	-0.03577628
146	0xbdd537c8	-0.1041103
147	0x3d46b3ec	0.04851143
148	0xbd83bfb2	-0.06433047
149	0xbd27bd8e	-0.040952258
150	0x3d770260	0.060305
151	0x3cdbc9b6	0.026829582
152	0x3a07da80	0.00051824003
153	0x3db171fb	0.08664318
154	0xbdd76ef8	-0.105192125
155	0x3d3aba5d	0.045587886
156	0x3c3c5ac2	0.011496248
157	0xbe1a869e	-0.15090415
158	0x3cd7cc83	0.026342636
159	0xbdbd83b9	-0.0925364
160	0xbd13c1b5	-0.036073405
161	0xbd8908b8	-0.06691116
162	0xbe0e4096	-0.13891825
163	0x3daeadba	0.085292295
164	0x3da8ea8a	0.0824786
165	0x3c5f610b	0.013633977
166	0xbdab2836	-0.08357279
167	0x3e0aefec	0.13568085
168	0xbd740281	-0.0595727
169	0xbdc9d126	-0.09854345
170	0xbdf3abc8	-0.11897999
171	0x3c9d4af9	0.019200789
172	0xbd8b71ba	-0.06808801
173	0xbce5bf46	-0.028045308
174	0xbe0dd339	-0.13850106
175	0xbd54dee7	-0.05197039
176	0xbe0b2d12	-0.13591412
177	0xbde0f213	-0.10983672
178	0xbe04f027	-0.12982236
179	0xbda6a6df	-0.08137297
180	0x3debecec	0.11519799
181	0xbd29b4a4	-0.041432038
182	0xbdbfd662	-0.09367062
183	0x3e0ea8e2	0.13931611
184	0x3c86b113	0.016441857
185	0xbded2faf	-0.115813605
186	0xbdd6006e	-0.10449301
187	0x3c863936	0.016384702
188	0xbdc7ab0c	-0.097494215
189	0x3d7d18e6	0.061791323
190	0xbdf847e1	-0.12123085
191	0xbe02d727	-0.12777387
192	0x3db80d5a	0.089869216
193	0xbaae4a6f	-0.001329733
194	0x3d4ae49a	0.049534418
195	0xbd3aa452	-0.045566864
196	0xbda1d1d2	-0.07901348
197	0x3dd11073	0.102082156
198	0xbc5eb511	-0.013592974
199	0x3dc70e4f	0.09719526
200	0xbd293131	-0.04130668
201	0xbd04f01a	-0.03245554
202	0xbce106e2	-0.027469102
203	0xbd82b16c	-0.06381497
204	0x3d1cdbdd	0.038295615
205	0x3ceef596	0.029169839
206	0xbd74d7de	-0.05977618
207	0xbda3e885	-0.08003334
208	0x3dfb679f	0.122756235
209	0xbc115b42	-0.008871855
210	0xbb952ba7	-0.004552323
211	0xbdbf50ea	-0.09341605
212	0x3dca26f1	0.09870709
213	0x3dda2637	0.1065182
214	0x3d5f3f64	0.054503813
215	0x3e0520ec	0.1300084
216	0x3dba9e0b	0.091121756
217	0x3df0c868	0.117569745
218	0xbd7c80e4	-0.061646357
219	0xbd757308	-0.059924155
220	0xbcb77942	-0.022396687
221	0xbdb46c47	-0.08809715
222	0x3d7da668	0.061926275
223	0xbd98f5e9	-0.07468779
224	0x3d48e580	0.049046993
225	0x3db3c0b9	0.08776993
226	0xbc80a67d	-0.015704388
227	0x3e06757a	0.13130751
228	0xbd841181	-0.06448651
229	0x3d79c4b0	0.06097859
230	0x3dc701f0	0.097171664
231	0xbdb24112	-0.087038174
232	0xba0a04ac	-0.00052649784
233	0x3ddf6931	0.109087355
234	0xbddde139	-0.108339734
235	0xbda01fe9	-0.078185864
236	0xbe122080	-0.1427021
237	0x3dbce6d6	0.09223716
238	0x3db9b045	0.09066824
239	0x3cb297ce	0.021800902
240	0x3cd1bc10	0.02560237
241	0xbe11ec26	-0.1425024
242	0x3d769794	0.06020315
243	0xbd9a1c6e	-0.07524954
244	0x3d8b8573	0.06812563
245	0xbdbeb54a	-0.09311922
246	0xbde431c2	-0.11142303
247	0x3dded470	0.10880363
248	0x3d26aa77	0.04068991
249	0xbd2ee70b	-0.04270081
250	0xbdc63c02	-0.09679414
251	0xbe0a49c3	-0.135047
252	0x3dd08039	0.101807065
253	0xbd1dabdd	-0.03849398
254	0x3d25ae55	0.04044946
255	0x3daa0d7b	0.083033524

actor.0.bias f4 [128]
0	0x3d77df76	0.060515843
1	0xbdc65599	-0.09684295
2	0xbd258882	-0.040413387
3	0xbdc1eb5c	-0.09468719
4	0xbba9af85	-0.0051783943
5	0xbe034883	-0.1282063
6	0xbe0bf1fa	-0.13666525
7	0xbe0ae08a	-0.13562217
8	0xbdef333c	-0.11679694
9	0xbdd7016e	-0.104983196
10	0xbd9ef5e3	-0.07761743
11	0x3e01b693	0.12667303
12	0xbc39fcce	-0.011351777
13	0x3e131df9	0.14366902
14	0x3c3b8c8c	0.011447083
15	0x3b48b85e	0.003062747
16	0x3dc5837b	0.096442185
17	0xbe014cc0	-0.12626934
18	0x3d5232df	0.051318046
19	0x3e127f7b	0.14306442
20	0xbdb2ebf3	-0.0873641
21	0xbdd100f4	-0.1020526
22	0xbd5ea44c	-0.054355904
23	0x3e03b794	0.12862998
24	0x3e0ef036	0.1395882
25	0x3d9b6000	0.0758667
26	0xbd8d374d	-0.068953134
27	0xbd8cbf5b	-0.06872436
28	0xbe062062	-0.1309829
29	0x3ca42a8a	0.020039815
30	0x3cda4c99	0.026647853
31	0xbc303042	-0.010753693
32	0x3dc13f74	0.09435931
33	0x3d9b9451	0.075966485
34	0xbe0a6b18	-0.13517416
35	0x3dde40e3	0.1085222
36	0x3dd4aaeb	0.103841625
37	0x3df137b0	0.117782
38	0x3e003f05	0.1252404
39	0xbc8aeb0a	-0.016957778
40	0x3e0123d3	0.12611322
41	0x3d9a0514	0.075205
42	0x3d2b9f66	0.04190006
43	0xbd1f87a3	-0.038947713
44	0x3c01190b	0.007879506
45	0xbd2bca88	-0.041941196
46	0x3d84cd76	0.06484501
47	0xbdbc6168	-0.09198266
48	0x3d80d577	0.06290715
49	0x3dfa5329	0.12222893
50	0x3df78d2e	0.12087475
51	0x3df0f341	0.11765147
52	0xbc47ecba	-0.012202436
53	0x3d9adaa7	0.07561236
54	0x3daa23bc	0.08307597
55	0x3c9eb39d	0.019372756
56	0xbdb8f9a2	-0.09031989
57	0xbe042950	-0.12906384
58	0x3d8dddb8	0.06927055
59	0x3e0f85b2	0.14015844
60	0xbcdad275	-0.026711682
61	0x3d933448	0.07187706
62	0xbce7395c	-0.028225593
63	0x3d26be55	0.04070886
64	0x3db5f59f	0.08884739
65	0xbdb71895	-0.089402355
66	0x3cc1122a	0.023568232
67	0xbc92c88a	-0.01791789
68	0xbd28d943	-0.041222822
69	0x3c19bd73	0.009383547
70	0x3dc16a43	0.09444096
71	0x3dc628b1	0.0967573
72	0xbd7f75cb	-0.062368196
73	0x3df193d5	0.11795775
74	0xbd988f98	-0.07449263
75	0x3d5c6f75	0.05381723
76	0x3dc5fa0a	0.09666832
77	0xbaca6576	-0.0015441615
78	0xbc9138a7	-0.01772721
79	0x3d894522	0.06702639
80	0x3e105834	0.14096147
81	0xbd4b2263	-0.04959334
82	0x3d73be5c	0.059507713
83	0xbd3eebaa	-0.046611466
84	0xbdf1ed21	-0.11812807
85	0x3cb7dee5	0.022445152
86	0x3d6d392b	0.057915848
87	0xbe12b7e8	-0.14327967
88	0xbdf01e7a	-0.11724563
89	0xbe01218e	-0.12610456
90	0xbbb74abb	-0.0055936254
91	0xbe02229c	-0.12708515
92	0xbd87a9b3	-0.066241644
93	0xbe135eb9	-0.14391603
94	0x3d4a4c52	0.04938919
95	0x3d3f50f0	0.046708047
96	0xbda9185b	-0.082565986
97	0x3db6d077	0.0892648
98	0x3d2fd492	0.042927332
99	0xbe0339c6	-0.12815008
100	0x3e05c5dc	0.13063759
101	0x3dde0825	0.10841397
102	0x3cb3ec37	0.021963222
103	0xbcf55321	-0.029946866
104	0xbe0b55f1	-0.13607003
105	0x3c9c6659	0.019091772
106	0x3e06b58e	0.13155195
107	0xbdf666b5	-0.120313086
108	0xbd73f2fe	-0.059557907
109	0x3c7ac870	0.015306577
110	0xbe062798	-0.13101041
111	0x3d98e688	0.07465845
112	0x3de4138b	0.1113654
113	0x3dfb4b0e	0.12270175
114	0xbc1fa4b3	-0.009743857
115	0xbe135e37	-0.14391409
116	0xbd34b307	-0.044116046
117	0xbc8d9d9b	-0.017287066
118	0x3c534b2f	0.012896343
119	0x3e00ea80	0.12589455
120	0xbbea1d45	-0.0071446025
121	0x3e126a31	0.14298321
122	0x3e0f6b1b	0.14005701
123	0xbdea40a8	-0.114381135
124	0xbe0403dc	-0.12892097
125	0xbdb7ee4e	-0.08981
126	0xbde31db2	-0.11089648
127	0xbd089257	-0.033342686

actor.2.weight f4 [64, 128]
0	0xbd8c38a2	-0.06846739
1	0xbd087d19	-0.033322427
2	0xbd7c24e6	-0.061558627
3	0x3d3cc6f5	0.046088178
4	0xbc2b9b04	-0.01047397
5	0x3d4d45c1	0.05011535
6	0x3c804690	0.015658647
7	0x3d40d3d9	0.047077034
8	0x3c6ea3c0	0.014565408
9	0xbc136ddb	-0.00899836
10	0xbd15752c	-0.036488697
11	0xbd387656	-0.04503473
12	0xbc94a85c	-0.018146686
13	0x3d5f010a	0.05444435
14	0x3d5d251d	0.053990472
15	0xbdb0a803	-0.08625796
16	0xbced84c4	-0.028993972
17	0x3cf1123e	0.029427644
18	0xbd6189b8	-0.05506298
19	0x3d88c2b7	0.06677764
20	0x3d4b04b1	0.04956502
21	0xbd13126f	-0.03590625
22	0xbd949f8a	-0.07256992
23	0x3c9f1d42	0.01942313
24	0x3d929e67	0.07159119
25	0x3d873340	0.06601572
26	0x3db8f1c3	0.090304874
27	0x3bdb5958	0.006694
28	0x3dab0237	0.08350032
29	0xbd4d5aad	-0.050135303
30	0xbcff72fd	-0.03118276
31	0xbc0f9ec1	-0.008765877
32	0xbd6fd6cc	-0.058554456
33	0xbc889c9e	-0.016676243
34	0xbd92141b	-0.07132741
35	0x3d925170	0.07144439
36	0x3ca469de	0.020070013
37	0xbd00e71b	-0.0314704
38	0xbc13c5c4	-0.009019319
39	0xbd5506d8	-0.05200848
40	0xbda6c4f9	-0.08143038
41	0xbd1aa4b0	-0.037754714
42	0x3d46ca93	0.048533034
43	0x398e381b	0.00027126152
44	0x3bc1de1f	0.0059163715
45	0x3d4b32bc	0.04960893
46	0xbc91ca81	-0.017796757
47	0xbd29fe3f	-0.041502234
48	0x3c9d9ee4	0.019240804
49	0xbc872170	-0.016495436
50	0xbca4f84d	-0.02013793
51	0x3c959fb6	0.018264633
52	0x3b09511c	0.0020952886
53	0xbbad9c86	-0.0052982
54	0x3cd890b6	0.026436191
55	0xbc9533d6	-0.018213194
56	0x3d2475a1	0.040151242
57	0xbcd1b82b	-0.025600513
58	0x3c9005e0	0.017580926
59	0x3d9ba9d3	0.07600751
60	0xbd08fd5d	-0.03344475
61	0xbd447c04	-0.047969833
62	0x3cc4028c	0.023926996
63	0xbcb37f13	-0.02191118
64	0xbd83e6bf	-0.06440496
65	0x3d3e6cbe	0.046490423
66	0x3d774fae	0.060378723
67	0x3d1b3e0f	0.03790098
68	0xb966d81f	-0.0002201502
69	0x3b8f879a	0.0043801786
70	0xbdad9f3d	-0.08477638
71	0xbcadaee3	-0.021201557
72	0x3c4514f9	0.012028926
73	0x3d115c6d	0.035488535
74	0x3d96f7ac	0.073714584
75	0x3d2fac07	0.042888667
76	0x3d78c915	0.06073864
77	0xbdc8cfe7	-0.09805279
78	0x3d107999	0.035272215
79	0x3c9c69e4	0.019093461
80	0xbd296f4e	-0.041365914
81	0xbda9c6b1	-0.082898505
82	0x3da37efd	0.079832055
83	0xbcf5dd57	-0.03001277
84	0xbda1de8f	-0.07903778
85	0xbd8b97e4	-0.0681608
86	0x3ca96508	0.020678058
87	0x3d57cbbd	0.052684534
88	0x3c3de305	0.01158977
89	0x3c53ea58	0.01293429
90	0xbc7c3a8a	-0.015394816
91	0x3c8657b4	0.016399242
92	0xbb42c388	-0.0029718596
93	0x3d89c2f0	0.067266345
94	0x3d2c103d	0.042007674
95	0xbcf08a10	-0.029362708
96	0x3d09021a	0.03344927
97	0xbce72528	-0.02821596
98	0xbd643055	-0.055710156
99	0xbd066f91	-0.03282124
100	0x3d9e34ab	0.07724889
101	0x3d3c3b5a	0.04595504
102	0xbda6c3e3	-0.08142831
103	0x3da13ede	0.07873319
104	0xbd8235fa	-0.063579515
105	0x3d6947b8	0.056953162
106	0x3c08e3ac	0.008355062
107	0xbccb3faf	-0.02481064
108	0xbbb72995	-0.0055896738
109	0xbd310be2	-0.043224223
110	0x3da69948	0.08134705
111	0xbd0f78e9	-0.03502742
112	0xbce7bc0c	-0.02828791
113	0xbd97d7e2	-0.07414223
114	0x3d5fa675	0.054602105
115	0x3d949672	0.07255258
116	0x3ca4eb38	0.020131692
117	0xbc68b034	-0.014202166
118	0x3cd0d6d0	0.025493056
119	0xbd23b76b	-0.039969843
120	0x3db73a40	0.08946657
121	0xbcf3e92f	-0.029774277
122	0x3d013339	0.03154299
123	0x3d96f60a	0.07371147
124	0xbca41fcd	-0.020034695
125	0x3d8d63e1	0.06903816
126	0x3d5dad75	0.0541205
127	0xb875866b	-5.853774e-05
128	0xbd21b1d0	-0.039476216
129	0x3d815e2a	0.063167885
130	0x3ca6aa7e	0.020344969
131	0x3b54183d	0.003236308
132	0xbcf97024	-0.03044898
133	0xbdaf1656	-0.08549182
134	0xbd94ff91	-0.07275308
135	0x3a4ed6dc	0.0007890293
136	0xbd91ffd2	-0.07128872
137	0xbdbb554e	-0.0914713
138	0xbcbd0cb4	-0.023077346
139	0xbc18d852	-0.0093289185
140	0x3d8245e7	0.06360989
141	0xbd6d1e17	-0.057890024
142	0xbda843f0	-0.08216083
143	0xba8e8d28	-0.0010875808
144	0xbda3bd72	-0.07995118
145	0xbc362355	-0.011116822
146	0x3d7fa148	0.06240967
147	0xbd8937d4	-0.067001015
148	0x3c9fde6c	0.019515239
149	0xbcd52b45	-0.02602161
150	0x3db15754	0.08659235
151	0x38e1182c	0.000107333384
152	0xbad1d115	-0.0016007746
153	0xbca48282	-0.020081762
154	0xbd35601d	-0.044281114
155	0x3d93f30e	0.072240934
156	0xbd4d7f6a	-0.05017034
157	0x3d9e8a29	0.07741196
158	0x3d67dcdb	0.05660711
159	0xbda384e8	-0.07984334
160	0x3d8c8947	0.06862121
161	0xbba4f506	-0.005034092
162	0x3d6f0930	0.05835837
163	0xbd347c03	-0.04406358
164	0x3c934fe6	0.017982434
165	0x38b18134	8.464084e-05
166	0x3be207db	0.006897909
167	0xbc046bec	-0.008082371
168	0xbc689765	-0.0141962515
169	0xbd4f815e	-0.050660484
170	0x3d7e14c3	0.06203152
171	0x3d174378	0.036929578
172	0xbd3b8946	-0.04578521
173	0xbc407c8e	-0.011748446
174	0xbd97da54	-0.0741469
175	0xbcd750fc	-0.026283734
176	0x3c7f551c	0.0155842565
177	0x3dbac2d4	0.09119192
178	0xbdadf987	-0.08494859
179	0xbcaa8e27	-0.020819737
180	0xbd65abc4	-0.05607201
181	0x3d844a09	0.064594336
182	0xbdafefba	-0.08590646
183	0x3caccd2f	0.021093933
184	0x3ce73aa5	0.028226206
185	0x3d4af067	0.04954567
186	0x3c5cf2c3	0.013485613
187	0x3c5678d2	0.013090329
188	0x3dc09f1e	0.09405349
189	0xbca5edbd	-0.020254964
190	0x3d6b1b49	0.057399068
191	0x3d4e5efa	0.050383545
192	0xbcafa98d	-0.021443153
193	0xbcc44117	-0.023956819
194	0x3d42595d	0.047448505
195	0xbd118e0f	-0.03553587
196	0x3c1be49b	0.009514953
197	0xbd8d6cbb	-0.06905504
198	0x3d6b0977	0.057382073
199	0xbd8ac512	-0.067758694
200	0x3c9d6683	0.01921392
201	0xbda7eb51	-0.0819918
202	0x3cb30f82	0.02185798
203	0xbc8b9438	-0.01703845
204	0xbd46a491	-0.048496787
205	0xbc974b21	-0.018468441
206	0x3c8b1791	0.01697901
207	0xbc913a8a	-0.017728109
208	0x3d8364a7	0.06415682
209	0xbd9a5f84	-0.075377494
210	0x3d5aca99	0.05341587
211	0xbd85f314	-0.06540504
212	0xbcd61ae1	-0.026135864
213	0xbb17e96d	-0.0023179904
214	0xbd528f0d	-0.051405955
215	0x3d164302	0.036684997
216	0x3db3db6f	0.08782088
217	0xbce21bca	-0.027601141
218	0xbc9596af	-0.018260328
219	0x3c487a18	0.012236141
220	0x3d9d973e	0.07694863
221	0x3dbafc1d	0.09130118
222	0x3cde7022	0.027153078
223	0x3cb6d8d6	0.022320192
224	0x3da7a841	0.08186389
225	0xbd48ad18	-0.0489932
226	0x3d542270	0.051790655
227	0xbd4bf1ad	-0.049791027
228	0x3c47c9fb	0.012194152
229	0xbdb68320	-0.08911729
230	0xbc1d1dfa	-0.0095896665
231	0x3d9c1d50	0.076227784
232	0x3da63496	0.08115499
233	0xbcd2e55f	-0.025744138
234	0xbd2ea00b	-0.042633098
235	0xbbf59d7a	-0.0074955793
236	0x3d56912c	0.05238454
237	0x3ca2ca8c	0.019871973
238	0xbd15035a	-0.03638015
239	0xbd1ec15f	-0.03875863
240	0x3d74b825	0.059745926
241	0xbd7693f0	-0.060199678
242	0xbcea77a2	-0.028621498
243	0xbc9361cf	-0.017990975
244	0x3daaf733	0.08347931
245	0x3d910702	0.07081415
246	0x3d909428	0.070595086
247	0xbd76a17b	-0.060212594
248	0x3d1f2040	0.038849115
249	0xbba9f884	-0.005187096
250	0x3d3f57a4	0.04671444
251	0x3d6ea4cf	0.058262642
252	0xbd7d8aa0	-0.06189978
253	0xbd9be561	-0.0761211
254	0x3c305ad3	0.010763842
255	0xbdb09dd3	-0.086238526

actor.2.bias f4 [64]
0	0x3d305215	0.04304703
1	0xbda1e31b	-0.07904645
2	0x3d59e139	0.053193305
3	0xbd93c151	-0.072146066
4	0x3c8d5e3c	0.017256849
5	0x3c03719d	0.008022693
6	0xbbe6a82e	-0.0070390915
7	0x3d84e747	0.06489425
8	0x3d341465	0.043964762
9	0xbda24052	-0.079224244
10	0x3d5e5e58	0.054289192
11	0x3cb5ea4e	0.022206452
12	0xbc762cfc	-0.015025374
13	0xbcb75cfa	-0.022383202
14	0xbd716e02	-0.058942802
15	0xbd746924	-0.059670582
16	0x3caef5aa	0.021357376
17	0x3c5960e7	0.013267732
18	0x3c72c0f8	0.014816515
19	0xbc849840	-0.01618588
20	0xbbb597f2	-0.005541795
21	0x3d1bfc14	0.038082197
22	0x3d4d8eb1	0.05018491
23	0xbd22c21f	-0.03973591
24	0xbda2d59c	-0.07950899
25	0x3d92703c	0.07150313
26	0xbdab5827	-0.08366423
27	0xbd8bf65d	-0.068340994
28	0xbc732aef	-0.014841779
29	0x3d76da2b	0.060266655
30	0x3da4d597	0.080485515
31	0xbd6a052d	-0.057133842
32	0x3c668fce	0.014072372
33	0xbd99632b	-0.07489618
34	0x3d415432	0.047199436
35	0x3d006b3f	0.031352278
36	0xbd2032dc	-0.039111003
37	0x3d832555	0.06403605
38	0x3d21fba4	0.039546624
39	0xbd282a26	-0.04105582
40	0xbd8518af	-0.06498849
41	0x3ca442ac	0.020051323
42	0x3d282093	0.04104669
43	0xbcefd31b	-0.029275468
44	0x3b99e04e	0.0046959287
45	0xbd9c330e	-0.076269254
46	0x3d574a26	0.052560948
47	0x3cf52982	0.029927019
48	0x3ccf6694	0.025317468
49	0x3c05fb3c	0.008177575
50	0x3d02952d	0.031880546
51	0xbd5ff295	-0.054674704
52	0xbd3351f5	-0.043779332
53	0x3d840b20	0.064474344
54	0xbcf87020	-0.030326903
55	0xbd80e7f3	-0.06294241
56	0xbd63c425	-0.05560698
57	0xbd89cf5b	-0.06729003
58	0xbc86c4bc	-0.016451232
59	0x3d443c1b	0.047908884
60	0xbdac58b9	-0.0841536
61	0xbc8d8d6f	-0.017279355
62	0x3cc0085c	0.023441486
63	0xbd7d9eca	-0.06191901

actor.4.weight f4 [32, 64]
0	0x3dfe047b	0.12403198
1	0x3df06efa	0.11739917
2	0x3d949161	0.07254291
3	0x3d90c1d4	0.0706822
4	0x3d8a47f1	0.06752003
5	0xbdb9b2d8	-0.09067315
6	0x3ded5428	0.11588317
7	0xbda8e1c1	-0.08246184
8	0xbd214a7e	-0.039377682
9	0xbd57cec2	-0.052687414
10	0xbc980217	-0.018555684
11	0x3dae0de4	0.08498743
12	0x3d300365	0.042971987
13	0xbd5ad2b8	-0.053423613
14	0xbd7280fe	-0.059205048
15	0xbd33e0e7	-0.043915655
16	0x3dc088b9	0.09401078
17	0x3dbcc0ea	0.09216483
18	0x3d36d36a	0.044635214
19	0x375430b1	1.26475215e-05
20	0xbcf6be84	-0.030120142
21	0x3d12c24a	0.03582982
22	0x3dc73b39	0.09728093
23	0x3d184261	0.03717268
24	0xbbcc446e	-0.0062337434
25	0x3d809cf5	0.06279937
26	0x3d86adeb	0.06576141
27	0xbd9826ae	-0.074292526
28	0x3cd1f869	0.025631147
29	0xbd80d18f	-0.0628997
30	0x3de7ef02	0.11324884
31	0xbce66956	-0.0281264
32	0x3b0cb48b	0.0021469917
33	0xbd8a8a5b	-0.067646705
34	0xbdd1a107	-0.10235792
35	0xbd55fd87	-0.052243736
36	0x3df4dcd3	0.119561814
37	0x3dca0cb4	0.09865704
38	0x3cce45ff	0.025179861
39	0xbdf5078b	-0.11964329
40	0x3d811f3f	0.06304788
41	0x3cbe2eac	0.023215614
42	0xbde66a2e	-0.11250721
43	0x3de1c0f1	0.11023129
44	0x3da56e9d	0.080777384
45	0x3d794b11	0.060862605
46	0xbc871e2c	-0.01649388
47	0xbd06af04	-0.03288175
48	0x3c232c6e	0.009959323
49	0x3ca85cf8	0.020552143
50	0xbc779961	-0.015112252
51	0xbd032d21	-0.03202546
52	0x3c4ad67b	0.012380238
53	0xbd712ee0	-0.058882594
54	0xbdb508e0	-0.088395834
55	0x3de04874	0.10951319
56	0x3dbf60c7	0.09344631
57	0xbd164c4f	-0.036693867
58	0x3db8db23	0.09026172
59	0x3dbd0f8f	0.09231483
60	0x3deb0ac6	0.11476664
61	0xbc935612	-0.017985377
62	0xbdbf75a6	-0.093486115
63	0x3bb9ae6b	0.005666544
64	0xbd3dea0d	-0.046365786
65	0x3cb7640f	0.022386579
66	0xbda12f91	-0.07870401
67	0xbdd100fb	-0.10205265
68	0x3cb7caf2	0.022435639
69	0xbdc58c55	-0.09645907
70	0x3de27c6a	0.11058886
71	0xbde6204a	-0.112366274
72	0x3deccbf0	0.115623355
73	0xbd9f4598	-0.07776946
74	0xbc4c82d0	-0.01248236
75	0x3dc6beae	0.09704338
76	0x3da405b7	0.080089025
77	0xbd947937	-0.072496824
78	0x3dc8a575	0.097971834
79	0x3df438ed	0.1192492
80	0x3dc62f94	0.096770436
81	0xbb48318b	-0.0030547108
82	0xbdcec90a	-0.10096939
83	0x3b06d5f3	0.00205743
84	0xbd2fd460	-0.042927146
85	0x3cb8ea82	0.02257276
86	0xbd217bdb	-0.03942476
87	0xba96c454	-0.0011502602
88	0x3d91458c	0.07093343
89	0x3d2576b7	0.04039642
90	0x3d089bd5	0.033351738
91	0xbd003f22	-0.03131021
92	0xbdd77be2	-0.10521676
93	0xbdcfd381	-0.10147763
94	0x3da547ae	0.080703124
95	0xbd907daf	-0.07055222
96	0x3dda72f6	0.10666458
97	0x3dec03d5	0.115241684
98	0x3d139ac5	0.03603627
99	0x3ce3bf9f	0.027801333
100	0xbd978c95	-0.07399861
101	0xbda316f2	-0.07963361
102	0x3bdddeea	0.006770958
103	0xbbe423c2	-0.0069622705
104	0x3de28921	0.110613115
105	0xbdbd8394	-0.09253612
106	0xbd17f785	-0.037101287
107	0x3bb2437e	0.0054401746
108	0x3d2ff246	0.04295566
109	0xbd06c9b1	-0.03290719
110	0xbd99473d	-0.07484291
111	0xbd1d89b3	-0.0384614
112	0xbccf3de4	-0.025298066
113	0xbdc647c9	-0.09681661
114	0x3e002fb6	0.125182
115	0x3dd47661	0.103741415
116	0x3bca1844	0.0061674435
117	0x3c955edf	0.018233715
118	0xbd144df3	-0.03620715
119	0xbd8a58ed	-0.067552425
120	0x3d880c60	0.06642985
121	0x3d881f3a	0.06646581
122	0x3dc21152	0.0947596
123	0xbd06c6fc	-0.03290461
124	0x3d5d5ed1	0.054045502
125	0x3d33c161	0.043885592
126	0xbd466448	-0.04843548
127	0xbd75bff7	-0.059997525
128	0x3d792fcf	0.06083661
129	0x3c31b5b8	0.010846548
130	0xbdb08d7a	-0.086207345
131	0xbdb7df80	-0.08978176
132	0x3db69d9d	0.08916781
133	0xbd72be5d	-0.059263576
134	0x3de688c2	0.11256553
135	0x3d194290	0.037416995
136	0x3d97bf9e	0.07409595
137	0xbd2930b9	-0.04130623
138	0xbdda4169	-0.10657007
139	0xbdea0718	-0.11427134
140	0xbe028cea	-0.12749067
141	0x3d83b123	0.064302705
142	0x3d163d86	0.036679767
143	0xbceb06d9	-0.028689789
144	0x3ddc032e	0.10742794
145	0xbddf8d99	-0.109156795
146	0xbddf17e9	-0.108932324
147	0xbe0642f2	-0.13111475
148	0x3b8138fc	0.0039435606
149	0xbcea4672	-0.028598044
150	0x3d3846a2	0.044989236
151	0xbc41cf02	-0.01182914
152	0xbda9ad6f	-0.08285033
153	0xbd04af61	-0.032393817
154	0xbdab83f4	-0.083747774
155	0xbde1a076	-0.110169336
156	0x3db10843	0.08644154
157	0xbaeccf6a	-0.0018067185
158	0xbdda5a74	-0.10661784
159	0x3dba9b76	0.09111683
160	0x3dc9e04b	0.098572336
161	0x3dbf553d	0.0934243
162	0x3c813ef0	0.015777081
163	0x3d8c08fb	0.068376504
164	0x3dbfe50c	0.09369859
165	0xbdd8abb0	-0.10579622
166	0x3d4a36c9	0.049368653
167	0xbdd9b7ae	-0.10630737
168	0x3c21378c	0.009839904
169	0x3d53621a	0.05160723
170	0x3dbf035f	0.09326815
171	0xbd99437d	-0.074835755
172	0xbb8a9857	-0.004229586
173	0xbd60788d	-0.054802466
174	0xbc462761	-0.01209435
175	0x3ade5308	0.0016962001
176	0xbda5c5f9	-0.08094401
177	0xbd8d7a30	-0.06908071
178	0xbca797b6	-0.020458084
179	0x3df25b3b	0.11833807
180	0xbdce8fa4	-0.10085991
181	0xbdaf2537	-0.0855202
182	0x3dc484c2	0.09595634
183	0xbdc34ba8	-0.09535915
184	0xbd898bb5	-0.067161
185	0x3c5e4688	0.013566621
186	0x3d75d97b	0.06002186
187	0xbd13ed4e	-0.036114983
188	0xbc8f7897	-0.017513556
189	0xbd070eb4	-0.032973006
190	0xbd8f3582	-0.06992628
191	0x3d80970a	0.062788084
192	0xbcd84b6e	-0.026403155
193	0x3dea2b1b	0.11434003
194	0xbdea458b	-0.114390455
195	0xbd919761	-0.07108951
196	0x3da195c0	0.07889891
197	0xbdecb9a7	-0.11558848
198	0x3dbaaa91	0.09114564
199	0xbbb3c541	-0.005486161
200	0x3cc8c56e	0.024508204
201	0x3deb3841	0.11485339
202	0x3d77d37a	0.060504414
203	0xbd44f2ab	-0.04808299
204	0xbdb80cb8	-0.08986801
205	0xbc924f81	-0.017860176
206	0xbd8cfed2	-0.068845406
207	0x3d5dc568	0.05414334
208	0xbc2e30e7	-0.010631776
209	0xbba54099	-0.005043101
210	0xbdbc8c29	-0.09206421
211	0x3c04346c	0.008069139
212	0xbdbb6107	-0.09149366
213	0xbd9c981d	-0.07646201
214	0x3d141051	0.036148373
215	0xbc3f0d9e	-0.011660961
216	0xbc0be2b2	-0.008537935
217	0x3dd55f0d	0.1041852
218	0xbdf7d15e	-0.121004805
219	0x3d456610	0.048193038
220	0x3dc63035	0.096771635
221	0xbd1fd60d	-0.039022494
222	0x3d41d828	0.047325283
223	0xbd916471	-0.07099236
224	0x3d53fd41	0.051755194
225	0xbda4d059	-0.08047552
226	0xbde453bf	-0.11148786
227	0x3d90d17e	0.070712075
228	0xbcf14d58	-0.029455826
229	0xbd2dd243	-0.04243685
230	0xbcdf8548	-0.027285233
231	0x3d871e0a	0.06597526
232	0xbdbdac90	-0.09261429
233	0xbcac1b2c	-0.02100905
234	0xbda9ffc2	-0.08300735
235	0xbccd83c6	-0.025087249
236	0x3d85299d	0.06502078
237	0xbd83822f	-0.06421315
238	0xbcb63bee	-0.022245374
239	0x3d5134c0	0.051075697
240	0xbc8c71ff	-0.017144201
241	0xbd751a19	-0.05983934
242	0x3c080815	0.008302708
243	0x3d630bfc	0.05543135
244	0x3cc97458	0.02459161
245	0x3dae4d12	0.08510794
246	0x3d4235a9	0.047414456
247	0xbdced367	-0.100989155
248	0xbd9ed579	-0.077555604
249	0x3cff29a2	0.031147782
250	0xbd89ff53	-0.06738152
251	0xbc864b22	-0.016393248
252	0xbd86f6f3	-0.065900706
253	0xbdabbc02	-0.08385469
254	0xbdb4fc87	-0.08837228
255	0xbdc60625	-0.09669141

actor.4.bias f4 [32]
0	0x3dfa9880	0.12236118
1	0x3d6b2448	0.057407647
2	0xbd8a94fa	-0.06766696
3	0x3d8c4090	0.06848252
4	0xbd05bd37	-0.032651152
5	0xbca88837	-0.020572765
6	0x3d366da5	0.04453816
7	0xbc5e4b3a	-0.01356774
8	0xbd3e59e2	-0.046472438
9	0x3dd72631	0.10505331
10	0xbdce37da	-0.100692466
11	0x3bbebfe0	0.005821213
12	0xbc21d400	-0.009877205
13	0x3d58de46	0.05294635
14	0xbd8ad9b0	-0.06779802
15	0x3c7b5d37	0.015342048
16	0xbdd6bf57	-0.10485714
17	0xbdaca743	-0.0843034
18	0xbdbe51a4	-0.092929155
19	0x3d7a4027	0.061096337
20	0x3dbe0a38	0.09279293
21	0xbd1d01ba	-0.038331725
22	0xbdce6cd1	-0.10079349
23	0xbb3e01a1	-0.002899267
24	0x3d14fb52	0.03637249
25	0x3db4b95e	0.088244185
26	0xbd39cd05	-0.045361537
27	0xbc4da77e	-0.01255214
28	0x3d454207	0.04815867
29	0x3dd84a01	0.1056099
30	0xbcea01d4	-0.028565325
31	0xbdae2c2d	-0.085045196

actor.6.weight f4 [12, 32]
0	0x3e1894a0	0.14900446
1	0xbd1b00a6	-0.037842415
2	0x3e081b72	0.1329172
3	0x3ddb26ee	0.107007846
4	0x3d4c64ab	0.049900692
5	0xbd8bccfc	-0.06826207
6	0xbda3f904	-0.0800648
7	0xbe07a0c3	-0.1324492
8	0x3da3bd99	0.07995147
9	0xbd560832	-0.05225391
10	0xbd95f832	-0.0732273
11	0x3dd2ea45	0.102985896
12	0xbddd9df1	-0.108211406
13	0x3e310502	0.17287067
14	0x3d5d9389	0.05409578
15	0x3e0b0f3b	0.13580029
16	0xbc11d23d	-0.008900222
17	0x3cfb99cc	0.030712985
18	0xbe35de3b	-0.17760555
19	0xbced7220	-0.028985083
20	0x3cdaeb5f	0.026723562
21	0xbbe439d8	-0.0069649033
22	0xbe18ab47	-0.14909087
23	0x3c207233	0.009792852
24	0x3de0f202	0.10983659
25	0xbd0a5081	-0.03376818
26	0xbd8126ba	-0.06306215
27	0x3df9ce39	0.12197537
28	0x3d123edb	0.035704475
29	0xbda4705c	-0.08029243
30	0xbe1b1a64	-0.15146786
31	0xbdd01edf	-0.10162138
32	0x3da611b1	0.08108843
33	0xbe23d627	-0.15999661
34	0xbcb53c7b	-0.022123566
35	0x3d9a82cd	0.075444795
36	0xbc9f8cea	-0.019476373
37	0x3d262d64	0.04057063
38	0x3e204b03	0.15653615
39	0x3d1b44bf	0.03790736
40	0x3dcac4b2	0.09900798
41	0x3e0d80d0	0.1381867
42	0xbdc4acd5	-0.096032776
43	0x3c366d7f	0.011134504
44	0x3d3ffdbf	0.04687285
45	0x3d90476a	0.07044871
46	0xbe38bcf6	-0.18040833
47	0xbdfafa8b	-0.122548185
48	0xbcc7582d	-0.024334038
49	0xbe158e73	-0.14605121
50	0xbd0168b9	-0.031594012
51	0x3e135da1	0.14391185
52	0xbe0ef614	-0.13961059
53	0xbbac55e0	-0.0052592605
54	0x3e0511ce	0.12995073
55	0xbc4e5256	-0.012592873
56	0x3d79935b	0.060931545
57	0x3dbcc0ea	0.09216483
58	0x3b3ab12b	0.0028486948
59	0xbc3aef23	-0.011409554
60	0xbd9063d3	-0.0705029
61	0xbe31977b	-0.17342941
62	0xbd85a91f	-0.06526398
63	0xbdf8cb5d	-0.121481635
64	0x3d958319	0.073003955
65	0xbde69988	-0.112597525
66	0x3d13cc5c	0.036083564
67	0x3df9fc66	0.12206344
68	0xbd94ba21	-0.07262064
69	0xbd018153	-0.031617474
70	0x3e290084	0.16504103
71	0x3dc9f1e9	0.09860594
72	0xbdc19309	-0.09451873
73	0x3df89c73	0.12139215
74	0xbcbe2150	-0.023209244
75	0xbd3305a1	-0.04370654
76	0xbd208fc3	-0.0391996
77	0xbdcac77e	-0.09901331
78	0x3d9bcff7	0.076080255
79	0xbe10a592	-0.1412566
80	0xbd74dee7	-0.05978289
81	0xbe2e20ce	-0.17004701
82	0x3dac39ce	0.08409463
83	0xbd3bdfae	-0.045867614
84	0x3e17f12f	0.14838098
85	0xbcc66f9f	-0.024223147
86	0x3df72643	0.12067845
87	0x3de9bafb	0.11412617
88	0xbe164d83	-0.14678006
89	0x3dfafb51	0.12254966
90	0x3d99d031	0.075104125
91	0xbdc25211	-0.09488309
92	0x3d32257e	0.043492787
93	0xbe16c542	-0.14723685
94	0xbe0ea408	-0.1392976
95	0xbc650517	-0.013978264
96	0x3deccbf5	0.11562339
97	0xbd9d25b0	-0.07673204
98	0x3e30a9bc	0.17252249
99	0xbd3fe8aa	-0.046852745
100	0xbd741b00	-0.05959606
101	0x3e17bb97	0.14817654
102	0x3cce4ef4	0.025184132
103	0xbe2e7bee	-0.17039463
104	0x3dd1b24f	0.10239088
105	0x3cc14163	0.02359075
106	0xbcee0742	-0.029056195
107	0x3e1a3864	0.15060574
108	0x3d8247c3	0.06361344
109	0xbe0d15a5	-0.13777788
110	0xbd72d6b2	-0.05928678
111	0xbe10abd6	-0.1412805
112	0xbd2ad915	-0.04171093
113	0x3d6d61f9	0.057954762
114	0x3dc5a082	0.09649755
115	0xbd3844f9	-0.044987652
116	0x3e0c0cf2	0.13676813
117	0x3e008d40	0.12553883
118	0x3da3183d	0.079636075
119	0xbd68b60f	-0.05681425
120	0x3dd655b5	0.10465566
121	0x3e00b3bc	0.12568563
122	0xbe011edc	-0.12609428
123	0xbdd514ca	-0.10404356
124	0x3e0b59a1	0.1360841
125	0xbd6d6b79	-0.057963822
126	0xbe0dd905	-0.13852318
127	0xbdb4dfdf	-0.088317625
128	0xbc30bd49	-0.010787317
129	0xbd99fe71	-0.07519234
130	0xbd8fa058	-0.07013005
131	0xbe0d1eba	-0.13781253
132	0xbd476520	-0.048680425
133	0x3d73164f	0.059347447
134	0x3e1fa170	0.15588927
135	0xbdbb2556	-0.09137981
136	0xbdd10e6e	-0.1020783
137	0x3d1701e0	0.036867023
138	0x3e339ff6	0.17541489
139	0x3d9262f7	0.07147782
140	0xbe07253d	-0.13197799
141	0x3e0871a2	0.13324597
142	0x3da0a952	0.07844795
143	0x3ce347ea	0.027744252
144	0xbda13504	-0.0787144
145	0xbd33bf37	-0.04388353
146	0xbddcbff9	-0.107788034
147	0xbd6ed8dd	-0.058312286
148	0x3db3b4b9	0.087747045
149	0x3d866158	0.065615356
150	0xbd7b28af	-0.061318096
151	0x3d00db4d	0.03145914
152	0xbc9ea18d	-0.019364143
153	0x3dbe7a44	0.09300664
154	0x3e0df0fa	0.13861457
155	0x3e16f548	0.14742005
156	0xbe0888f1	-0.13333489
157	0x3dcd0eaa	0.100125626
158	0x3d3172ea	0.04332248
159	0xbce2beb8	-0.027678832
160	0x3ddfcebc	0.10928103
161	0x3cbf274e	0.023334172
162	0x3ddddba4	0.10832909
163	0x3d525f5c	0.051360473
164	0x3e1a1bb6	0.15049633
165	0x3deaf72e	0.11472927
166	0x3d5daaf9	0.05411813
167	0x3e0d9bea	0.13829008
168	0xbd4abd01	-0.049496654
169	0xbd957d58	-0.07299298
170	0xbe26d11b	-0.16290705
171	0xbd7265fe	-0.0591793
172	0xbdd626b2	-0.10456599
173	0xbd7535b4	-0.05986567
174	0xbe072a75	-0.1319979
175	0xbd8932ac	-0.06699118
176	0xbdb75f08	-0.08953673
177	0x3e23cd10	0.15996194
178	0x3db5f768	0.088850796
179	0xbde73b08	-0.11290556
180	0xbdaf7234	-0.085667044
181	0x3d2367d1	0.03989393
182	0xbd92bf05	-0.0716534
183	0x3df7eb14	0.121053845
184	0x3ccf4f57	0.025306387
185	0xbe128a98	-0.14310682
186	0xbd92abe9	-0.071616955
187	0x3e0e36f2	0.13888147
188	0xbda30554	-0.07960001
189	0xbcd6dcd3	-0.026228344
190	0xbded45a6	-0.1158555
191	0xbde680ad	-0.11255012
192	0x3e13c6ea	0.14431348
193	0x3ddf1e6d	0.10894475
194	0xbcabfdd2	-0.020995054
195	0xbe279411	-0.16365077
196	0x3d4da182	0.050202854
197	0xbdf3ce7e	-0.1190462
198	0x3d76f4b8	0.060291976
199	0xbd87b72d	-0.06626735
200	0xbd225cca	-0.03963927
201	0x3dd4835f	0.103766195
202	0xbe1d611b	-0.15369074
203	0xbd97adf2	-0.07406224
204	0x3cf3b4c2	0.029749278
205	0x3dc42c45	0.09578756
206	0xbaf05de2	-0.0018338526
207	0xbd085990	-0.03328854
208	0xbde45656	-0.1114928
209	0x3db3ec22	0.08785273
210	0xbe0410a5	-0.12896974
211	0x3e12d3aa	0.14338556
212	0x3dd9e5d0	0.106395364
213	0xbe08f251	-0.13373686
214	0x3e3474ff	0.17622755
215	0xbe0ea943	-0.13931756
216	0xbd9ad00b	-0.07559212
217	0x3dbaf4d1	0.09128726
218	0xbe1d1245	-0.15339
219	0x3e096b1e	0.13419768
220	0x3d90d5c7	0.07072025
221	0xbe1b485e	-0.15164325
222	0x3e0903e5	0.13380392
223	0xbcc0e7dd	-0.023548061
224	0x3e045813	0.12924223
225	0xbd7f25f4	-0.062292054
226	0xbdb85669	-0.090008564
227	0xbe2a9ad6	-0.16660628
228	0x3df76c93	0.12081256
229	0xbdce09f5	-0.10060493
230	0xbe0cc0b9	-0.13745393
231	0x3cca2c11	0.024679216
232	0x3e1fe8f7	0.15616213
233	0x3e0b53cc	0.13606185
234	0x3912115f	0.00013930116
235	0x3e227370	0.15864348
236	0xbca82004	-0.020523079
237	0x3dd9cf61	0.106352575
238	0xbdb09795	-0.08622662
239	0xbcd3b533	-0.025843238
240	0xbdf79ade	-0.120900854
241	0xbd5ae0fe	-0.053437226
242	0x3e0d2a20	0.137856
243	0xbdea3965	-0.114367284
244	0xbd80eaea	-0.06294806
245	0xbc5bcf50	-0.013416126
246	0xbd916f13	-0.07101264
247	0x3e299185	0.16559418
248	0x3e13bfe8	0.14428675
249	0xbe31549a	-0.17317429
250	0x3e312daa	0.17302576
251	0xbe17c063	-0.14819483
252	0xbe0b4619	-0.13600959
253	0xbd8b2cb2	-0.06795634
254	0x3bcdffa0	0.0062865764
255	0x3e32c033	0.1745613

actor.6.bias f4 [12]
0	0x3dd6392d	0.10460124
1	0x3dadd32c	0.084875435
2	0x3e256228	0.16150725
3	0x3e3580f9	0.1772498
4	0xbe303912	-0.1720927
5	0xbdc43f20	-0.09582353
6	0xbdc8b023	-0.097992204
7	0xbe139c15	-0.1441501
8	0xbe11ce02	-0.14238742
9	0xbca69b8a	-0.020337839
10	0x3e0ff6d0	0.14058995
11	0xbd3cbabc	-0.04607652

critic.0.weight f4 [128, 48]
0	0x3d0c4b14	0.034251288
1	0xbe0f9ee5	-0.14025457
2	0xbbc27e96	-0.0059355004
3	0xbe10e124	-0.14148384
4	0x3df59087	0.11990457
5	0x3dabf0b1	0.083955176
6	0xbe028d45	-0.12749203
7	0x3ca4a112	0.020096336
8	0xbd1b1393	-0.037860464
9	0xbd62a03d	-0.055328596
10	0x3c9bf1ed	0.019036258
11	0x3d0386f6	0.03211113
12	0xbe06a57b	-0.13149063
13	0xbd4b6d8c	-0.04966502
14	0xbcad5de3	-0.021162933
15	0x3caf923f	0.02143204
16	0x3d4359d6	0.047693096
17	0xbde71c17	-0.112846546
18	0x3c288257	0.010284982
19	0x3da5014a	0.080568865
20	0x3dedc5b9	0.11609978
21	0xbd2a9aaa	-0.041651405
22	0xbdd62bbf	-0.10457563
23	0xbe038ff2	-0.1284788
24	0xbd91f143	-0.07126095
25	0xbe0e8ea9	-0.13921608
26	0x3d2540cd	0.040345002
27	0xbd6e40f8	-0.058167428
28	0xbded3498	-0.11582297
29	0xbcfaf882	-0.030636076
30	0x3e0bc4de	0.13649318
31	0x3d21ccea	0.039502062
32	0xbde5d49c	-0.11222193
33	0xbdddd118	-0.10830897
34	0x3d208578	0.039189786
35	0xbc9e9c93	-0.01936177
36	0xbd9f9997	-0.07792967
37	0x3dd3192f	0.10307538
38	0x3dbab896	0.09117238
39	0xbd807f78	-0.06274313
40	0x3cf5e4bf	0.030016301
41	0xbd8b2e3e	-0.06795929
42	0xbb5115ab	-0.0031903784
43	0x3b18c563	0.002331101
44	0x3cf5a0d8	0.029983923
45	0x3da5c7af	0.08094727
46	0xbdfac108	-0.12243849
47	0xbdb7f278	-0.08981794
48	0x3e069077	0.13141046
49	0x3d28c47e	0.041203015
50	0x3db1d649	0.0868345
51	0xbe0b0415	-0.13575776
52	0x3d5344e2	0.051579364
53	0xbd965dcc	-0.07342109
54	0x3d2bc9c0	0.04194045
55	0x3d0a8d54	0.033826187
56	0xbe01dca3	-0.12681822
57	0x3daa8c02	0.083274856
58	0x3d90cc74	0.07070246
59	0xbdb1af85	-0.08676056
60	0x3d2d3c72	0.042293973
61	0xbdbeaa4f	-0.093098275
62	0x3cb09219	0.02155404
63	0x3d99d233	0.075107954
64	0xbdfcb274	-0.12338725
65	0x3dd8d33f	0.10587167
66	0xbd670d27	-0.056409027
67	0xbdd14948	-0.102190554
68	0x3daac2b5	0.08337919
69	0x3d7cfd74	0.06176515
70	0xbde3b0fb	-0.11117741
71	0x3cdf4f1b	0.0272594
72	0xbd627db5	-0.055295665
73	0x3db95560	0.09049487
74	0xbdd6befb	-0.104856454
75	0x3cec618b	0.028855106
76	0xbaf4328b	-0.0018630786
77	0xba86b1d8	-0.001027639
78	0x3d46f490	0.048573077
79	0xbd57f571	-0.052724306
80	0xbda5b30c	-0.08090791
81	0xbe19e88e	-0.15030119
82	0xbd8ba0c7	-0.06817775
83	0xbd907315	-0.070532
84	0xbe0f12b3	-0.13971977
85	0xbdf40328	-0.119146645
86	0xbd81f030	-0.0634464
87	0x3d8536f2	0.065046206
88	0xbc9b2e08	-0.018942848
89	0x3c8776f6	0.016536217
90	0x3d93013c	0.0717797
91	0xbe032793	-0.12808065
92	0xbdceda41	-0.101002224
93	0x3dec8c19	0.11550159
94	0xbe049d6c	-0.12950677
95	0xbdc5d365	-0.09659461
96	0x3d244423	0.040104043
97	0x3dca170e	0.098676786
98	0xbc8fe58d	-0.017565513
99	0xbd112145	-0.03543212
100	0x3d23c060	0.039978385
101	0x3e0c5d36	0.13707432
102	0x3d8fa714	0.070142895
103	0x3ceb04aa	0.028688747
104	0x3dc8aa62	0.09798123
105	0x3e06a719	0.1314968
106	0xbdcce3a1	-0.10004354
107	0x3e0d7d26	0.13817272
108	0xbd4484ad	-0.047978092
109	0xbdca128a	-0.09866817
110	0xbdef2db2	-0.116786376
111	0x3dacc3bf	0.08435773
112	0xbd8ee43c	-0.06977126
113	0x3de8f616	0.11375062
114	0x3e0229f8	0.12711322
115	0x3dc2c3a3	0.09509971
116	0x3dfe8288	0.124272406
117	0x3d871316	0.06595437
118	0xbcbf64ed	-0.023363555
119	0x3c8f845b	0.017519167
120	0x3d3e77c0	0.04650092
121	0xbd19857d	-0.03748082
122	0xbcb52c18	-0.022115752
123	0xbdeb7990	-0.114977956
124	0x3c77ca48	0.015123911
125	0x3c1a2154	0.00940736
126	0x3d1ec622	0.038763173
127	0x3d8ee783	0.06977751
128	0xbce2dc16	-0.027692836
129	0xbd1674d6	-0.036732517
130	0xbc9fece8	-0.019522145
131	0xbde9b78b	-0.11411961
132	0x3e06a0f3	0.13147335
133	0x3c8707d0	0.016483217
134	0x3de28591	0.11060632
135	0xbe06499b	-0.13114016
136	0xbc594d1f	-0.013263016
137	0x3d6b608a	0.057465114
138	0xbd308f3d	-0.043105353
139	0x3dddfce8	0.10839254
140	0x3dc80b0c	0.09767732
141	0xbccc2278	-0.02491878
142	0x3e0ac570	0.13551879
143	0xbdaf7579	-0.08567328
144	0xbe159980	-0.14609337
145	0xbde1f300	-0.11032677
146	0xbda275dc	-0.07932636
147	0x3df3fb46	0.11913161
148	0x3b191c73	0.0023362904
149	0xbe0c263c	-0.1368646
150	0xbe16da99	-0.14731826
151	0x3df44b09	0.11928374
152	0xbcb92ddf	-0.02260488
153	0xbe215984	-0.15756804
154	0x3dc4caf1	0.096090205
155	0xbdb004ef	-0.08594691
156	0xbc296cc1	-0.01034087
157	0x3e065578	0.13118541
158	0x3d83b198	0.06430358
159	0xbdf8981c	-0.121383876
160	0xbdb132e0	-0.08652282
161	0x3c9509b3	0.018193102
162	0xbe165c9c	-0.14683765
163	0xbdf6e222	-0.1205485
164	0x3dfe8620	0.12427926
165	0x3d35a2d9	0.044344757
166	0x3e10ba47	0.14133559
167	0x3cd61500	0.02613306
168	0xbbdbc91b	-0.0067073232
169	0xbcdcf267	-0.026971055
170	0xbd4f4eb1	-0.050612155
171	0xbd455346	-0.04817512
172	0xbdb951cf	-0.09048807
173	0xbdc132a0	-0.09433484
174	0xbcf05291	-0.029336246
175	0xbdca56c1	-0.09879828
176	0xbdb5d76c	-0.08878979
177	0xbd667ee1	-0.056273345
178	0xbab1d8d7	-0.0013568652
179	0xbcb92fb3	-0.022605753
180	0x3d8ef24c	0.06979808
181	0x3d9fa233	0.07794609
182	0x3dd9cc02	0.106346145
183	0x3dbfb8be	0.09361409
184	0x3ddcafdc	0.1077573
185	0x3d773b36	0.060359202
186	0x3c9b6ac8	0.018971816
187	0xbe02a6d7	-0.12758957
188	0xbcc8eb6b	-0.024526319
189	0xbd9a53a2	-0.07535483
190	0x3c6df386	0.014523393
191	0xbdd92b81	-0.10604001
192	0xbd357b09	-0.04430679
193	0xbe04160a	-0.12899032
194	0x3e06f7ac	0.13180417
195	0x3df1f82b	0.118149124
196	0xbdad9b47	-0.084768824
197	0x3d84fd78	0.06493658
198	0x3de687f1	0.112563975
199	0x3d23dba5	0.04000439
200	0xbdad57f0	-0.08464038
201	0x3dd3c032	0.10339393
202	0x3c9b4e39	0.018958198
203	0x3d91d489	0.07120616
204	0xbd128bcd	-0.035777856
205	0xbe049732	-0.12948301
206	0xbd840b67	-0.06447487
207	0xbdf3339f	-0.1187508
208	0x3da9b7f5	0.0828704
209	0xbcaec483	-0.021333938
210	0x3ce49066	0.027900886
211	0x3df10324	0.11768177
212	0xbd2b07d4	-0.041755512
213	0xbd451940	-0.048119783
214	0x3dede62c	0.116161674
215	0x3d05027f	0.032473084
216	0x3db4f1c5	0.088351764
217	0x3e1ae78a	0.15127388
218	0xbdb21ff0	-0.08697498
219	0x3e0b4287	0.13599597
220	0x3dc7555d	0.09733079
221	0x3db66e1b	0.0890772
222	0xbdd7a211	-0.105289586
223	0x3cd23ea4	0.025664635
224	0xbd0c4e20	-0.034254193
225	0xbdd10bc2	-0.10207321
226	0x3d9bbc3b	0.076042615
227	0x3da9f95a	0.08299513
228	0xbd2dddab	-0.042447727
229	0xbd164c13	-0.036693644
230	0x3d367e36	0.044553958
231	0xbe07feff	-0.13280867
232	0x3d7462e6	0.05966463
233	0x3d99ffac	0.07519469
234	0xbd995e4b	-0.07488688
235	0x3cc5863f	0.024111865
236	0xbcb59e4d	-0.02217021
237	0x3da4e1e9	0.080509014
238	0x3d97e41a	0.07416554
239	0x3dd3b575	0.103373446
240	0x3dd995c5	0.106242694
241	0xbe129fd4	-0.14318782
242	0xbdf71e98	-0.12066382
243	0x3deb83f6	0.11499779
244	0x3d2cc64a	0.04218129
245	0x3df27a9b	0.118397914
246	0x3db485a5	0.08814553
247	0x3d69c7cf	0.057075318
248	0xbdda025c	-0.10644981
249	0xbd2df6d0	-0.042471707
250	0x3dbc91f1	0.092075236
251	0x3d43b82c	0.04778306
252	0xbd26d40a	-0.04072956
253	0xbbc9f174	-0.0061628167
254	0x3d465d5c	0.04842888
255	0x3e153b06	0.14573297

critic.0.bias f4 [128]
0	0x3df32526	0.1187232
1	0x3dc9f22c	0.09860644
2	0xbdeeff93	-0.11669841
3	0xbe05e925	-0.13077219
4	0x3c644f49	0.013934919
5	0x3dc64142	0.09680416
6	0xbdb740f5	-0.089479364
7	0x3d575ecd	0.052580643
8	0x3e0255ed	0.1272809
9	0x3d8b7b4b	0.06810626
10	0xbdc211d0	-0.09476054
11	0x3da7faff	0.082021706
12	0x3cdc59fd	0.026898379
13	0x3e057f4d	0.13036843
14	0x3dd61180	0.104525566
15	0x3da371e5	0.07980708
16	0x3e0a180a	0.13485733
17	0xbb0daa37	-0.0021616349
18	0x3d5791cc	0.052629277
19	0xbde9a196	-0.11407773
20	0x3dcd8bf0	0.100364566
21	0xbe06de81	-0.13170816
22	0xbcf359b7	-0.029705865
23	0xbba940fe	-0.0051652184
24	0x3cc32ffd	0.023826594
25	0xbddb4e24	-0.107082635
26	0x3dacc0a6	0.08435182
27	0x3dac2785	0.08405975
28	0x3d1a30eb	0.037644308
29	0xbdabad04	-0.083826095
30	0xbdc99e83	-0.09844687
31	0xbdf3af78	-0.118987024
32	0xbdfbc95a	-0.12294264
33	0xbdd6cab7	-0.104878835
34	0xbcf3f7d2	-0.029781256
35	0x3cdb32e3	0.026757663
36	0x3e0d768a	0.1381475
37	0x3d450737	0.048102584
38	0xbde81ed3	-0.11334004
39	0xbdc4c61c	-0.09608099
40	0x3e0943f1	0.13404824
41	0xbd29e199	-0.041474912
42	0x3b10926b	0.0022059928
43	0xbd1df7cd	-0.0385664
44	0xbde9eea4	-0.1142247
45	0xbc314bbd	-0.01082128
46	0x3c84db79	0.016217934
47	0xbc2a9c4d	-0.010413242
48	0xbdf56683	-0.11982443
49	0xbde3d2ad	-0.111241676
50	0xbc7c42dd	-0.015396801
51	0xbcfbaadf	-0.030721126
52	0xbde0e7d5	-0.109817185
53	0xbca9f4f6	-0.02074669
54	0x3c80c2ea	0.015717942
55	0x3d8f65df	0.07001852
56	0xbdebfa04	-0.11522296
57	0x3dc14969	0.0943783
58	0xbdd635b6	-0.10459463
59	0x3d44bf03	0.048033725
60	0x3d86cfd1	0.065826066
61	0x3cb9156e	0.022593226
62	0xbe0bca26	-0.13651332
63	0xbd89c9bd	-0.06727932
64	0xbd7dfdc9	-0.062009607
65	0xbadb5334	-0.001673317
66	0x3db6f8ba	0.089341596
67	0x3d841385	0.064490356
68	0x3d4a3cf6	0.049374543
69	0x3dec1933	0.11528244
70	0x3db8d09e	0.090241656
71	0x3e0fb0e9	0.1403233
72	0x3d6be798	0.057593912
73	0xbd778463	-0.06042899
74	0x3c235327	0.0099685555
75	0xbdf38e16	-0.11892335
76	0xbdbf8dc3	-0.09353211
77	0xbddf9651	-0.109173425
78	0x3dca2588	0.0987044
79	0xbd43ddec	-0.047819063
80	0x3e0782fb	0.13233559
81	0xbd50bc39	-0.050960753
82	0xbdf5596d	-0.11979947
83	0xbd78fe75	-0.060789544
84	0x3e0475f8	0.12935627
85	0x3df1a137	0.117983274
86	0xbded5377	-0.11588185
87	0xbdf72fe6	-0.12069683
88	0x3df5264f	0.119701974
89	0x3d0a5377	0.033771005
90	0xba367b26	-0.00069610996
91	0xbe09485f	-0.13406514
92	0xbc46caf6	-0.012133351
93	0xbd40a428	-0.04703155
94	0x3c571f33	0.013129997
95	0x3d45706b	0.048202913
96	0xbbb6bfe9	-0.0055770767
97	0x3cea6b9c	0.028615765
98	0x3dcb87e3	0.09938028
99	0xbcd01a49	-0.025403159
100	0x3db8cde5	0.09023646
101	0xbd8892f1	-0.06668652
102	0xbd81c811	-0.06336988
103	0x3d6bc324	0.057559147
104	0x3d90fdf1	0.070796855
105	0x3e0747ce	0.13210985
106	0xbdd2fef7	-0.10302537
107	0xbda8be2f	-0.082394
108	0x3dff4643	0.12464573
109	0x3b70d710	0.003674928
110	0x3d03205c	0.032013282
111	0xbd2ce118	-0.042206854
112	0x3d8fe0b2	0.07025279
113	0x3dee9c55	0.11650912
114	0xbdf4b8c5	-0.119493045
115	0x3ddfc490	0.10926163
116	0x3e011ee2	0.12609437
117	0xbd8a539b	-0.06754228
118	0x3c52d5ba	0.012868339
119	0x3ded6add	0.11592648
120	0xbe19321f	-0.14960526
121	0xbd996c64	-0.07491377
122	0xbcfe5cfc	-0.031050198
123	0x3dacd3a3	0.08438804
124	0xbdca5918	-0.098802745
125	0xbde2944b	-0.11063441
126	0x3dc08d95	0.09402005
127	0xbe0ab577	-0.13545786
