logs/flat_anymal_c/Nov23_11-24-27_/model_100.pt (torch, 418700 bytes, 48 tensors)

std f4 [12]
000000 89 35 17 3f 47 e8 39 3f 6d 1a 2d 3f 25 2e 19 3f
       0.59066063 0.7262005 0.6761845 0.59836036
000010 0b 15 37 3f 21 75 28 3f 5e 24 19 3f 9d c7 3f 3f
       0.71516484 0.65803725 0.59821117 0.7491396
000020 9f 7e 2c 3f 8e 42 15 3f c1 0f 39 3f 33 b1 2a 3f
       0.6738071 0.5830468 0.72289664 0.66676635

actor.0.weight f4 [128, 48]
000000 35 09 d4 3d c4 f2 6e 3d 9e b3 b3 3d 48 bc 43 be
       0.103533186 0.058336988 0.08774494 -0.19114792
000010 21 ed 36 3f 85 40 2e 3f 7b 2a 31 3f 58 67 c2 3e
       0.7145558 0.680672 0.69205445 0.3796947
000020 26 1c 78 3d 2b 91 5c be 50 9e 1e bd 1b 36 bb be
       0.06057372 -0.21539752 -0.038725197 -0.36564717
000030 af 9e f6 3d fa af 2b 3d ab 3f c8 be bf c4 53 3e
       0.12041985 0.04191587 -0.39111075 0.20680521
000040 03 8a 75 3e 4b 3d 25 bf 04 84 43 3e 3b 7c 82 3e
       0.23978429 -0.6454665 0.19093329 0.25485405
000050 22 e0 a8 3e 22 33 e6 bc 15 b0 1f 3e 2b d4 54 3e
       0.329835 -0.028100554 0.15594514 0.2078406
000060 6a 0f 58 3d 2c 98 1b be 9f 52 64 be a6 3e 1f 3e
       0.052749075 -0.15194768 -0.22297142 0.15551242
000070 c6 16 58 bf 4f 99 8d be 4a 17 4a be 25 8f 49 be
       -0.8440975 -0.27656028 -0.19735447 -0.19683512
000080 ac ec 41 3e 4c ce 1d be 9d d5 00 be 7b 19 8e 3e
       0.1893794 -0.15410727 -0.12581487 0.27753815
000090 27 9c 15 bd 66 f9 a5 3d eb 6c 9b 3d a4 f1 2b be
       -0.03652587 0.081042096 0.07589134 -0.16791397
0000a0 61 95 92 3d 9a 8f 91 bd 0b f6 78 be 17 44 0b bc
       0.07157398 -0.07107468 -0.24312608 -0.008500121
0000b0 66 a5 8b bd 7c 5f 91 bd e8 cb c5 3d 4b 2e 5f bd
       -0.068186566 -0.0709829 0.09658033 -0.054487508
0000c0 9b 56 b7 be 0b 6a 8a 3c 36 ab 7d be ea 19 7e be
       -0.35808262 0.016896268 -0.24772343 -0.24814573
0000d0 25 92 c8 3f e6 49 07 3f a6 2e de 3e 3f ae ad 3e
       1.56696 0.52847135 0.43394965 0.33922002
0000e0 c1 bc 12 3e 6a 30 a4 3e 5a 45 a9 be a9 a9 42 bf
       0.14329816 0.32068187 -0.33060724 -0.7604013
0000f0 06 69 da 3e 1d 72 57 be bc b0 2a bf 87 f1 23 bf
       0.42658252 -0.21039625 -0.66675925 -0.64040416
000100 a9 9c 75 bc 04 ad c5 3d 44 a9 ca bd e7 f9 03 3f
       -0.014990964 0.09652141 -0.09895566 0.51553196
000110 f5 89 9e 3d b2 69 cf 3e 5e 14 37 bf 69 bc 16 bf
       0.07741157 0.40510327 -0.7151545 -0.5888124
000120 24 84 9e 3d 1c 66 88 bd 37 23 f2 be 97 4c 44 3e
       0.077400476 -0.06660101 -0.47292492 0.19169842
000130 91 7c 08 3e 13 65 0b 3e 73 7a 97 3e c8 5b 2e bd
       0.13328768 0.13612776 0.2958561 -0.042568
000140 0a 4c bf 3d 76 54 1f bf 15 59 3d bf ef e1 9e 3e
       0.09340675 -0.6223825 -0.73964053 0.3103175
000150 51 da 70 bc ab 53 75 3d 10 87 41 bd 4a 6d e9 3d
       -0.014700488 0.059894245 -0.047247946 0.11397798
000160 28 64 f9 3b 46 94 00 be ed 7b 4f bd 57 8e 2c be
       0.0076108165 -0.12556562 -0.050655294 -0.16851173
000170 bb 12 88 3e 2d e9 d9 bc d6 d9 67 3c 52 b1 d0 3d
       0.2657679 -0.026600445 0.014151057 0.10190071
000180 a8 93 92 bc 2d 09 03 bf 2b 21 7c be a9 f6 1f 3f
       -0.017892674 -0.51185876 -0.24622028 0.6248575
000190 24 5b 5f bf 7a 69 ee 3e 13 e7 39 3e c3 9e e3 bf
       -0.87248445 0.46564847 0.18154554 -1.7782825
0001a0 5b 2a 82 bd 12 80 c4 bd 6b fd f4 3d 11 04 6a bf
       -0.06355735 -0.0959474 0.11962398 -0.91412455
0001b0 e3 67 2c 3f 36 18 17 3f 4f d7 0f be 84 56 01 3f
       0.6734602 0.5902132 -0.14046977 0.5052264
0001c0 a2 ee 91 3e 21 6c 8f be f3 bd d2 3e 4f 24 28 bf
       0.28502375 -0.28012183 0.41160545 -0.656804
0001d0 21 e6 5f be 84 96 ae 3e 12 9f 89 3e 0b c4 0f 3e
       -0.21865131 0.3409921 0.26879174 0.14039628
0001e0 d6 a3 a3 be 83 d2 15 3f 8a c7 41 be 9f ab e5 3e
       -0.31960934 0.5852434 -0.18923774 0.448575
0001f0 25 8b 26 3e 3f 58 8b bb 32 2e ef 3e d0 ba bc be
       0.16264017 -0.004252463 0.46714932 -0.36861277
000200 d4 1a 1b be bf 3c 13 3f 7d fb ac bd 5f 38 22 be
       -0.15146953 0.57514566 -0.08446405 -0.15841816
000210 36 f8 8e be 60 3c 39 bd f7 32 33 3e 35 d8 70 bc
       -0.27923745 -0.045223594 0.1749991 -0.014699985
000220 cd 35 57 be f8 a5 06 3e 29 db 78 3d 0f 89 31 be
       -0.21016617 0.1314925 0.060755882 -0.1733744
000230 91 95 c9 bc 81 96 8a 3d 37 98 05 be 45 28 37 bd
       -0.024607452 0.067669876 -0.13046347 -0.04471614
000240 c8 2d 81 be 6a 11 95 3e 7a 17 bf be e4 15 6b be
       -0.2523024 0.29114848 -0.373226 -0.2295757
000250 49 74 05 3f 87 3f 9a bf aa cf cd be ba be 4b be
       0.5213056 -1.2050637 -0.40197498 -0.19896975
000260 51 2d 9b 3d db b4 a5 3e 26 5b eb be 1e 60 83 3f
       0.07577003 0.32364544 -0.45967978 1.0263708
000270 5d 28 49 bd 8b 80 d9 be db d6 18 be 3d 3b 9a 3e
       -0.04911076 -0.42480883 -0.14925711 0.3012332
000280 36 96 9b 3e bd 53 e9 be e4 cc 19 be c8 84 89 3e
       0.3038804 -0.455717 -0.15019566 0.26859117
000290 d8 ce 70 3e 82 9a e7 3d 5f 7b 52 be 1c ed 96 bd
       0.23516405 0.11308767 -0.20554875 -0.07369444
0002a0 99 2b a1 3c 77 15 7b be a8 3c b8 3d 6c 69 5c 3e
       0.01967411 -0.24519907 0.08995944 0.2152459
0002b0 14 3b 64 bf 26 28 f8 be 99 0f a2 3b b0 07 ac 3d
       -0.89152646 -0.4846813 0.004945707 0.08399904
0002c0 6b c7 ab be 42 38 b8 bd a0 b3 e6 be cf 8a 10 bd
       -0.3355058 -0.08995105 -0.45058918 -0.03528863
0002d0 3d c8 36 3e 20 6b c9 3d 81 e1 9c bc 20 3b 11 3e
       0.17849822 0.098348856 -0.019150497 0.1418271
0002e0 2f 64 3f bd 98 46 23 bc a3 73 cb bb 2c d3 8f 3d
       -0.046726402 -0.009965561 -0.0062088533 0.070227
0002f0 82 bc 1a be 30 98 05 bd f0 ae a5 bc a3 1e 4c be
       -0.15110973 -0.03261584 -0.020225018 -0.19933562
000300 2d 29 27 3e 68 ea 6b 3e 90 21 0c bd 69 39 2d bd
       0.16324301 0.23038638 -0.034211695 -0.04229108
000310 15 41 ff be bd cd 9e 3f c0 03 d9 3e c4 5d 55 3d
       -0.4985434 1.2406536 0.42385674 0.052091375
000320 5e e4 39 bb 43 c1 4a bd d4 73 35 3c 76 f8 2c bf
       -0.0028364877 -0.049500715 0.011074979 -0.6756662
000330 38 5e 3d be 0e 10 3d 3d 6e 16 15 3e 50 b3 01 3e
       -0.18492973 0.04615789 0.14559337 0.12666059
000340 0d d9 19 3f d8 2e 1f be 55 9b 23 bd 19 6b f6 be
       0.6009682 -0.15545213 -0.039943058 -0.48128584
000350 bd a3 44 3e a5 ff be 3d 11 8a 67 3e c3 d9 3c 3f
       0.19203086 0.09326104 0.22611262 0.7376978
000360 e6 49 8d bd e2 d4 e7 be 95 08 12 be 92 77 7c 3e
       -0.06898861 -0.45279604 -0.14261086 0.24654987
000370 2c c6 c7 3e 22 a8 6e be 2e 48 ce 3e eb 1f 2e be
       0.3901838 -0.23306325 0.40289444 -0.17004363
000380 2e 7f 4a be c1 8e 77 3e bf dc 95 bd 99 87 46 3f
       -0.19775078 0.2417555 -0.073174946 0.77550656
000390 85 04 e4 bd c3 6a 45 bd 66 9e e9 3d ba 0d 99 bd
       -0.111336745 -0.04819752 0.11407165 -0.07473321
0003a0 b9 54 53 bd 6e de ec 3d 60 87 78 be 48 31 2c 3e
       -0.05159447 0.115658626 -0.24270391 0.16815674
0003b0 e6 46 dc bd 41 08 d3 bd 59 11 c7 3d 5d f3 b3 bc
       -0.1075571 -0.10304309 0.09720106 -0.02196663
0003c0 20 8d f5 bb 89 a1 7b bd 65 a5 20 3e e0 1a 05 3e
       -0.00749363 -0.06143335 0.15688093 0.12998533
0003d0 c6 9d 91 3f 4a 8a 45 3f 67 0d 7a bb d8 55 74 3e
       1.1376274 0.7716414 -0.003815496 0.23860872
0003e0 0f 72 05 3e 0c be 19 3e 03 46 24 be b8 52 bd bf
       0.13031791 0.15013903 -0.16042332 -1.4790869
0003f0 bc bb 71 3e d4 c3 2a 3e c7 29 b8 be 3d 4a b2 be
       0.23606771 0.16676265 -0.35969374 -0.34822264

actor.0.bias f4 [128]
000000 e4 55 14 3e ea c3 06 be d9 01 75 3d 07 f0 01 be
       0.1448589 -0.13160673 0.059816215 -0.1268922
000010 c8 99 c9 bd 60 44 6d be 0a a9 5d be fa 44 90 be
       -0.098437846 -0.23170614 -0.21646515 -0.28177625
000020 3b 8c 46 be 10 74 19 be 23 bc 96 be 6e cc f1 3d
       -0.19389431 -0.1498568 -0.29440412 0.1180657
000030 d9 97 41 be 3c 67 96 3d 58 92 25 bd 95 08 26 be
       -0.18905582 0.07343909 -0.040422767 -0.16214211
000040 68 e0 2f bc d1 d3 ba bd c0 ef 72 bc 49 1a 58 3d
       -0.010734655 -0.09122432 -0.014827669 0.052759442
000050 c3 cb 5a be 9e fe 1b be 48 c8 2f bc 01 c5 0d be
       -0.21366791 -0.15233847 -0.010728903 -0.13844682
000060 52 ee 9e 3d 32 e6 e8 3d b7 d5 84 be 3a 2e 60 be
       0.077603 0.11372031 -0.259443 -0.21892634
000070 c2 43 a6 be 2a fa f5 3d c0 fd e3 3c 7d ec 11 3e
       -0.3247357 0.12010606 0.027830958 0.1425037
000080 ec 26 b7 bc 8e c3 e2 3d 4c ac 3f be 24 bc 1a bc
       -0.022357427 0.11072455 -0.1871807 -0.00944427
000090 33 6f 1f 3e 0e cb 45 3e 0e 1a 96 3d 84 1b a0 3d
       0.15569763 0.1931574 0.07329188 0.07817748
0000a0 c1 6f 32 3e 0a 54 3c 3d 6a e7 ee bb bd 73 40 3c
       0.17425443 0.045978583 -0.0072907703 0.011746344
0000b0 3f 90 97 bd ed a1 8c bd 98 90 d1 bd ee a1 3c be
       -0.0740056 -0.068668224 -0.10232657 -0.18421146
0000c0 2c f0 14 3d 9e d1 5e 3e 68 b6 34 3e f7 b9 bf 3d
       0.03636186 0.2175965 0.17647707 0.09361642
0000d0 23 77 42 be 15 26 70 bc 76 2a 09 3d 36 f9 9c 3d
       -0.1899076 -0.014657517 0.03348776 0.07664721
0000e0 bd bd 1f be 06 5a a9 bd 4d 78 06 be 77 28 38 3d
       -0.15599723 -0.08269124 -0.13131829 0.044960465
0000f0 54 3d 9b bd 3e b7 ec bb 48 19 f0 bc 00 93 d7 bd
       -0.07580057 -0.0072239926 -0.02930893 -0.10526085
000100 75 d4 3b bc 49 78 ac bd 05 0d d7 bc 6b ff 39 be
       -0.011464228 -0.0842138 -0.026251325 -0.1816384
000110 05 20 67 be 6f c9 b1 bd 51 a2 f6 3d f1 c9 a8 3d
       -0.22570808 -0.086809985 0.12042678 0.08241642
000120 8f f5 0d be fe 93 12 3e 54 7e 63 be e9 d0 29 bd
       -0.13863204 0.14314267 -0.22216159 -0.041458998
000130 ee c8 8f bb 75 ad ff bc c4 74 79 3c d9 13 d9 3d
       -0.0043879664 -0.03121064 0.015225593 0.10599489
000140 e9 74 f7 3d c8 3b 86 bd 57 41 f2 bd 45 94 b6 bd
       0.12082846 -0.06554371 -0.11828869 -0.08914999
000150 9f 63 b5 be da 90 3e be e4 59 0c be e7 dc 83 be
       -0.35427567 -0.18609944 -0.13706166 -0.25754473
000160 96 95 f7 bd 48 65 d6 bd d7 44 0b bc 7a b7 7a be
       -0.12089078 -0.104685366 -0.008500299 -0.24484053
000170 72 52 85 be 93 b1 85 be 17 24 8b bc 86 eb d6 bd
       -0.26039463 -0.2611204 -0.016984982 -0.10494141
000180 56 bd ab be ac e5 6f 3e 3e 89 58 bd 04 ea 5a be
       -0.3354289 0.23427457 -0.05286526 -0.21378332
000190 52 4b 58 3d 05 a1 0a 3e a0 72 46 be 62 50 32 be
       0.052806206 0.13537987 -0.19379663 -0.17413476
0001a0 9e 39 7d be d8 07 09 3d 35 e4 f7 bc 9e a2 85 be
       -0.2472901 0.033454746 -0.030260185 -0.2610063
0001b0 0c e5 36 be 58 8c 6d bc f6 32 1e be 9f a4 9a 3d
       -0.17860812 -0.014498793 -0.15449128 0.0755093
0001c0 e3 2e 22 bd 0b b4 00 3d 2f 71 9c 3c 56 57 b0 be
       -0.039595496 0.031421702 0.019096939 -0.34441632
0001d0 1d ed 8d be 57 2d bd 3b c7 42 4e be e4 a5 30 3e
       -0.27719966 0.005773227 -0.20142661 0.17250782
0001e0 b2 bd 95 bd 2d 67 2e 3e 74 b5 a1 3d a5 9a 1a be
       -0.07311572 0.17031546 0.078959376 -0.15098055
0001f0 f5 9b 7c be 6a f1 23 be cf 4c ad be 75 3e 58 bd
       -0.24668868 -0.16010061 -0.33847663 -0.05279394

actor.2.weight f4 [64, 128]
000000 51 e2 68 3d 21 c0 f5 bc 63 e8 96 be b8 85 af bd
       0.056856457 -0.02999884 -0.29474172 -0.08570427
000010 06 e6 29 3e bb fc 3d 3e a0 77 fe 3d ce 29 63 3c
       0.16591653 0.1855344 0.124251604 0.0138649475
000020 bc c2 4a be 55 e4 e2 be 47 09 a6 3b 94 b5 35 3d
       -0.19800848 -0.4431483 0.005067024 0.04436262
000030 b5 55 29 be 5e b3 08 bc 22 4c 6d 3e 07 a0 d4 bb
       -0.16536601 -0.008343546 0.23173574 -0.0064888033
000040 fc 68 1c 3d 8f 45 e7 bd 76 a4 c1 bd d1 3b b7 be
       0.03818606 -0.11292564 -0.094551966 -0.35787824
000050 3f fc f9 bd b4 ea 5d bc 45 a2 b4 be 68 57 aa bd
       -0.12206315 -0.013544727 -0.35280052 -0.08317453
000060 6d 79 33 3e 37 e0 79 3d f6 a2 99 3d e2 2e 03 3d
       0.17526789 0.061004844 0.075017855 0.032027133
000070 90 30 80 3d 63 fe d0 be 15 3c 63 3d 2a 29 82 bd
       0.062592626 -0.40819082 0.05547722 -0.06355508
000080 b4 eb 53 be d4 16 18 bd e3 b5 1f be d6 2b 50 3e
       -0.20695382 -0.037131146 -0.15596728 0.20329222
000090 18 07 35 be 64 6c 4d bd 99 5a 62 be 72 79 48 be
       -0.17678487 -0.050152197 -0.22104873 -0.19577578
0000a0 43 34 58 be 35 06 85 be 6e ba 9e 3d 81 f1 a0 be
       -0.21113686 -0.25981298 0.077504024 -0.31434253
0000b0 22 56 05 3e 1d fe cb 3d 11 39 a9 be 3e a0 59 3d
       0.13021138 0.09960578 -0.3305135 0.053131334
0000c0 73 8a a0 3b dd 51 b5 bc 57 89 0b be a3 6d a7 3d
       0.004899317 -0.022133762 -0.1362661 0.081752084
0000d0 47 4f da bd db 48 86 3c 92 d5 0b 3c 7e ec a5 be
       -0.10659652 0.016392162 0.008534806 -0.32406992
0000e0 1b 85 7e 3c 1b 22 8a bd 8a 11 4f 3d fd 5b 93 be
       0.0155346645 -0.06744786 0.050553836 -0.2878112
0000f0 de 38 88 bd c3 cf f5 bd da 8e 5d be 3a bb d3 bd
       -0.066514716 -0.12002518 -0.21636525 -0.10338445
000100 7c 53 90 3e 4f 10 b2 3d 5e 3f 6f bd 9b 03 2e be
       0.28188694 0.08694517 -0.05841004 -0.16993563
000110 e3 91 7e 3c 21 5f 8a bc 4e 3b 82 be d3 59 93 be
       0.015537712 -0.016891064 -0.2543587 -0.28779468
000120 95 fb 19 be 79 72 03 3c 93 0b fd 3e c4 16 9f bd
       -0.15037377 0.008022898 0.49422893 -0.07768014
000130 15 65 02 bd 79 28 b4 bd 64 5f fb be b0 dd ac be
       -0.03183468 -0.08796782 -0.49096215 -0.33762884
000140 2b 85 21 3d 44 be 92 be 1f b9 d7 bd 64 1e 2b bd
       0.03943364 -0.28660786 -0.10533356 -0.04177703
000150 0b 3e 77 be ee d9 a8 be ff d0 ab bc f2 da 5d 3d
       -0.24144761 -0.32978767 -0.02097368 0.05416388
000160 cd 5f b5 3d df da 62 be c4 b1 9e be e7 71 bb 3d
       0.08856163 -0.22153805 -0.30995 0.091525845
000170 06 fe 13 be ea ac 87 bd de 1d 31 3e 5e 66 c1 be
       -0.14452371 -0.066247776 0.1729655 -0.37773412
000180 dc 51 8c 3e 4c eb 2f be 3c de 9e be 80 a5 07 be
       0.27406204 -0.17179602 -0.31028926 -0.13246727
000190 4d 4e 2b 3e 55 84 60 3c 0d b4 6c 3e 74 45 1a 3c
       0.16729088 0.013703425 0.23115559 0.009415973
0001a0 da 6b 53 bd 51 63 26 3e 24 54 00 3e 74 a2 02 3e
       -0.051616527 0.16248824 0.12532097 0.12757283
0001b0 81 4f 8b 3d 9f ca e1 bd e7 d0 c0 3e c4 3d 4c 3e
       0.068022735 -0.11024975 0.3765938 0.19945437
0001c0 7c c8 4b bd 8c 7b b7 bd a4 2f b4 bd e5 af 95 3e
       -0.049751744 -0.089591116 -0.08798149 0.2923576
0001d0 42 c8 a6 3d b5 23 86 be d9 17 a6 3d 98 04 bc be
       0.08143665 -0.26199117 0.08110017 -0.36722255
0001e0 7a 02 ac bb 38 23 da bd 02 85 0d be 15 79 2e 3e
       -0.0052493187 -0.10651249 -0.1382027 0.17038377
0001f0 d8 7a ad 3d 15 fd ad bd cc 72 0d 3b 9e e1 13 be
       0.08470696 -0.08495537 0.0021583317 -0.14441535
000200 60 d2 b6 bd e4 eb 90 3d 20 a1 5f be f6 c5 b7 3e
       -0.089268446 0.070762426 -0.21838808 0.3589322
000210 22 ec 6a be 0c dc 80 be be 50 25 be 7f ba 26 be
       -0.2294164 -0.25167882 -0.16144082 -0.1628208
000220 28 c4 24 be d4 b6 9e be 0f 47 07 be 71 fa cb bd
       -0.16090453 -0.30998862 -0.132107 -0.09959877
000230 b7 dd 84 3e ce e2 1c be 15 97 8a 3e b5 fa e2 3d
       0.25950405 -0.15320894 0.2706839 0.11082975
000240 12 d7 b9 be eb 99 dd bd d9 c5 cc bd e4 91 74 be
       -0.36296898 -0.10820373 -0.09998674 -0.23883778
000250 01 ec 84 3e 41 4b de bd 60 34 93 3d d7 5b ac 3d
       0.25961307 -0.10854197 0.07187724 0.084159546
000260 48 cf 22 3d f4 14 d6 be 91 b0 16 be f4 92 58 be
       0.03974846 -0.4181286 -0.14715792 -0.21149808
000270 e5 c8 12 bc e6 04 e9 3d 47 bd 25 3e c8 af c2 be
       -0.00895903 0.113778874 0.16185485 -0.38024735
000280 df 09 09 3d fd a9 20 be 82 02 94 3d ca 44 6b be
       0.03345668 -0.15689845 0.07227041 -0.2297546
000290 f4 8c 7c be 4b 67 70 bd b8 51 73 3e dd f5 56 bd
       -0.24663144 -0.058692258 0.23761642 -0.052480567
0002a0 3a 83 6e bc 4c 13 fe bd b4 81 8e 3c bb 6c 4b bd
       -0.014557654 -0.12406024 0.017395832 -0.04966424
0002b0 b3 d0 85 3e 57 61 48 be 86 4e 6f be c1 45 61 be
       0.26135787 -0.19568382 -0.23369798 -0.21999265
0002c0 53 1d a3 be 02 14 c4 3c 12 3a 08 bf 4d 10 19 be
       -0.3185831 0.023935322 -0.5321361 -0.14947625
0002d0 20 b1 fa 3d a5 84 08 bb bc be 4b bd 99 d8 5d be
       0.12240815 -0.0020831015 -0.049742445 -0.21664657
0002e0 1a 6f 8b 3d 11 9a ad 3d 56 4c fc 3d 41 7c 2c be
       0.068083 0.084766515 0.123192474 -0.16844274
0002f0 1a 80 d3 3e b4 ad 10 bc 62 80 6c be 17 13 87 3d
       0.4130867 -0.008830477 -0.23095849 0.06595438
000300 7b ed 5f 3e a7 f7 15 3e bb 7d 31 3e 4e 2f 5d 3b
       0.21867935 0.14645253 0.17333119 0.003375012
000310 e3 01 b1 3e 63 fb 34 bd cb d3 f4 bd b5 01 99 3d
       0.34571752 -0.044185054 -0.11954459 0.07471029
000320 71 4d 43 3e e8 80 a8 be b6 f3 06 be 57 7d 89 3d
       0.1907251 -0.32910848 -0.13178906 0.0671336
000330 f2 46 83 be f4 3a de 3d f7 f8 d8 3e 23 77 8f be
       -0.25640064 0.10851088 0.42377445 -0.28020582
000340 15 5f b9 bc ec 78 b2 be 1e e7 4d 3e 29 48 8d bd
       -0.022628346 -0.3485788 0.20107695 -0.06898529
000350 a6 8d 07 3a b1 7f 8d be 0b a7 a6 bd 8e 33 aa bd
       0.00051709486 -0.27636483 -0.0813733 -0.083106145
000360 26 65 8d 3e fa 02 61 bd 6e bc 9f be 04 ff 7a 3e
       0.27616233 -0.05493448 -0.31198448 0.24511343
000370 ec 2c 62 3e dc c7 bc 3e ba 03 e8 3d 7f 02 bd 3d
       0.22087449 0.3687123 0.11328836 0.09228992
000380 0b e9 a1 bc c7 ec 8e bd f7 9c e5 3d b5 02 df 3d
       -0.019764444 -0.069787554 0.11211579 0.10889188
000390 ba 07 8f be ae 14 e8 be 14 d3 07 3e b4 ac 39 3e
       -0.27935582 -0.45328277 0.13264114 0.18132287
0003a0 c5 a2 9a bc 76 b6 ac bc da bb 28 be 02 22 a9 bb
       -0.018876443 -0.021083098 -0.1647791 -0.0051615248
0003b0 d1 fd be be 91 74 d1 bd 00 a5 8d bd 6b 13 a9 3d
       -0.37303022 -0.102273114 -0.06916237 0.08255657
0003c0 43 0b 8d 3e 58 d1 2b be d6 5d 71 be d0 67 92 3e
       0.27547655 -0.16779077 -0.23570952 0.28594828
0003d0 0f ea 82 3e 44 de 2f ba 64 e8 85 3e 1b d2 b9 bd
       0.25569198 -0.00067088404 0.26153862 -0.090732776
0003e0 5f a8 e0 3d fd 72 8b 3e 67 09 a5 3d 37 a7 17 bd
       0.10969614 0.27236167 0.08058434 -0.037024703
0003f0 f3 6c 68 be 0b cd f7 3d d9 d1 37 bd 4d ed 43 ba
       -0.22697811 0.12099656 -0.04487786 -0.000747402

actor.2.bias f4 [64]
000000 da fa 2f be bf ff 4c be 5d 4c 26 bd 63 d9 33 be
       -0.17185536 -0.20019434 -0.04060017 -0.17563395
000010 d6 c7 71 be 04 84 d1 bc ed 2d fe bd 58 89 dd bd
       -0.23611388 -0.025575645 -0.124111034 -0.10817212
000020 e1 61 26 be d4 e7 32 be e0 df 36 bd 8a ef 36 bd
       -0.16248275 -0.17471248 -0.044647098 -0.044662036
000030 3b d6 04 be 1d c1 0c be bd 3e 84 be 43 21 43 be
       -0.12972347 -0.13745542 -0.25829116 -0.19055657
000040 ff 4b f4 bd c2 ef c4 3d d7 11 f6 bd 0f c7 09 be
       -0.119285576 0.09616043 -0.120151214 -0.13454841
000050 fb de b5 bc 46 20 c5 3c 25 ae 3a be d5 f3 32 be
       -0.022201052 0.02406324 -0.18230493 -0.17475827
000060 3b 7f 29 be 5d 84 27 bc 38 8a 0a be 45 54 54 be
       -0.16552441 -0.010224429 -0.13529289 -0.20735271
000070 3c aa 9d be 0b 97 68 be 5b 9f 90 bc b1 03 21 be
       -0.3079394 -0.22713868 -0.017654112 -0.15724064
000080 46 49 89 be 5b bd 12 be 81 09 ba 3c 33 d0 00 be
       -0.26813716 -0.14330046 0.02270961 -0.12579422
000090 b9 5f cb be bf d7 92 bd 93 9d 9c bd f7 b8 36 be
       -0.39721468 -0.071700566 -0.076472424 -0.17843996
0000a0 9f fb ca bd 32 b8 16 be 13 fd 32 3b ce 6b 77 be
       -0.09911274 -0.14718702 0.0027311489 -0.24162218
0000b0 7f aa fc bd 3d 4b 14 be 11 47 24 be 90 5b 8c bd
       -0.12337207 -0.14481826 -0.16042735 -0.06853402
0000c0 5a 89 74 bd c8 17 cb bd 73 75 2a bd 9b 41 8b 3b
       -0.0597013 -0.09916645 -0.041615915 0.004249764
0000d0 22 d1 d1 bd 40 5f 20 be 1d cd b2 bd cd ee 99 bd
       -0.10244967 -0.15661335 -0.087305285 -0.07516251
0000e0 08 66 3f 3d 6d 5c 82 be 23 35 29 be ea 4f 20 3d
       0.046728164 -0.2546114 -0.16524176 0.039138712
0000f0 ea fd 88 be bc 69 fb bd c2 e8 82 3d a0 55 2f be
       -0.2675622 -0.122760266 0.06392051 -0.17122507

actor.4.weight f4 [32, 64]
000000 f5 17 60 3e 97 57 6b 3e 03 a4 f6 3c 8d a8 ef 3d
       0.21884139 0.22982632 0.030107504 0.117020704
000010 1e d8 ae 3c 83 46 de bd 94 49 82 3c e7 f3 cc bd
       0.021343287 -0.10853293 0.015904225 -0.10007458
000020 fd 3e 00 3d 95 0b 9c bd bb 91 59 bd 35 e7 24 3e
       0.03131007 -0.076193966 -0.053117495 0.16103823
000030 ee 1f d1 bc a3 16 af 3d f3 8a ff 3b ec 8c b2 3b
       -0.02552792 0.085492395 0.0077985465 0.005448928
000040 05 9f 0a 3e b1 f6 1a 3e 22 04 11 3d ca 0b a0 3d
       0.13537224 0.15133168 0.035404332 0.078147486
000050 b0 cd e9 bd 56 a2 31 3c aa f5 71 3d c0 3a 53 3e
       -0.11416185 0.010841927 0.059072174 0.2062788
000060 05 d4 67 3d b3 e1 ab 3d 10 00 c2 bd 3e a3 70 3c
       0.056598682 0.08392658 -0.09472668 0.0146873575
000070 45 06 84 3d 87 43 c7 3b db a5 e3 bb 77 57 d7 3d
       0.06446508 0.006081048 -0.0069472617 0.105147295
000080 f9 d9 34 3e 82 57 65 3d c8 df a0 bd 28 05 81 be
       0.17661275 0.055991657 -0.07855183 -0.25199246
000090 cc 50 bc 3e b0 92 af 3d 8b bc 99 bd 52 55 b2 3d
       0.36780393 0.085729 -0.07506665 0.0870768
0000a0 a3 b2 98 3d 1a 8d 60 3d 44 d4 1d bd ac 08 7c 3d
       0.07455947 0.054822065 -0.03853251 0.061531708
0000b0 18 74 73 3e 00 87 34 3e a7 b3 87 bd a0 f9 96 be
       0.23774755 0.17629623 -0.06626063 -0.29487324
0000c0 84 88 20 be 2b 92 c1 3d 2e 40 49 bd 35 e4 42 bd
       -0.15677077 0.094517075 -0.049133472 -0.047580916
0000d0 49 6f 89 3d d8 ce c5 3d d1 78 01 be 9a f2 54 3a
       0.06710679 0.09658593 -0.12643744 0.00081233087
0000e0 39 82 22 be b2 74 4d bd 04 8b 27 3e 38 bb 9c 3d
       -0.15869989 -0.050160117 0.16361624 0.07652897
0000f0 f8 73 1d 3e 3b 96 19 3e bf 0a 77 be 06 4d 90 bd
       0.1537627 0.14998715 -0.24125193 -0.07045941
000100 67 88 4f be 3c 03 e6 bd 40 7a 46 be c9 9d 07 be
       -0.20266877 -0.11231086 -0.19382572 -0.13243784
000110 f4 9a 8a bd 64 2a f4 bd d0 2c f9 3d 6a 4f 69 3d
       -0.06767836 -0.11922148 0.121667504 0.0569605
000120 a4 5b 96 3c c6 f1 f5 bd 2b 73 b7 bd 8c e0 28 bd
       0.018354245 -0.12009005 -0.089575134 -0.04122977
000130 b7 f6 e7 3d 3e de 59 be f6 c7 39 3e 37 62 47 3e
       0.11326354 -0.21276185 0.18142685 0.1947106
000140 cd b9 c3 3d b2 82 06 be a8 e4 00 be 0e 2e b0 bc
       0.09556923 -0.13135794 -0.12587225 -0.021506336
000150 f6 85 a0 bc 3b 2a 09 be ba 58 84 3d dc c2 39 be
       -0.019595128 -0.13395016 0.06462236 -0.18140739
000160 a5 d5 ec 3b 52 53 b5 bd 60 03 98 3d f3 54 91 bd
       0.007227617 -0.08853783 0.07422519 -0.07096281
000170 a7 86 39 be 63 a5 35 bd 7f 84 4c be 83 03 17 be
       -0.18117772 -0.04434718 -0.19972418 -0.14747433
000180 88 3f 94 bd 1d 6e 86 3d 40 6d a0 bb d8 6c 59 be
       -0.0723868 0.06563971 -0.004895836 -0.21232927
000190 82 a3 2b be d9 34 93 bd 7c 60 fc bc ab aa 93 be
       -0.16761592 -0.07187814 -0.030807726 -0.28841147
0001a0 d5 e1 41 3e 8e 67 65 be 2c a4 02 3e e5 ef aa bd
       0.18933804 -0.22402784 0.12757939 -0.083465375
0001b0 82 32 98 3e 12 26 24 3e 0d ff 2a 3e d2 a1 5a bc
       0.29726034 0.16030148 0.16698857 -0.013344245
0001c0 13 f5 8d 3d 1f 73 63 bd d8 e1 9c 3c 65 28 3d 3e
       0.0693151 -0.05552971 0.01915066 0.1847244
0001d0 b4 ed 58 bd e5 ac b4 3e 99 62 21 3d 43 64 51 bd
       -0.052961066 0.35288158 0.03940067 -0.051121008
0001e0 67 5e 9a bd be 39 0f be 3e 40 b3 3d d1 e0 a0 bd
       -0.07537537 -0.1398687 0.087524876 -0.0785538
0001f0 97 03 66 3d cf 50 c1 bd 17 10 d6 3d a5 c0 f9 3d
       0.056155767 -0.09439241 0.10452288 0.12194947
000200 36 35 6a 3e f5 2b 9e bd 56 a9 aa 3d 2a a7 02 3e
       0.22871861 -0.07723228 0.083330795 0.1275908
000210 5d 27 0a 3e 6e f7 fb bd 8a 55 a8 be ca f4 dd bd
       0.13491578 -0.12303053 -0.3287776 -0.108377054
000220 9d 16 1e 3e e0 af c7 be e6 8e a3 bd 7e 11 36 be
       0.15438314 -0.3900137 -0.0798624 -0.1778011
000230 58 e3 72 be cf 7e c6 3d 25 91 ab 3c 51 bf ef 3d
       -0.23719537 0.096921556 0.020943234 0.117064126
000240 3e 95 1f 3b 9e b7 d8 be 32 4e 43 3d 0a 0e 35 3e
       0.002435043 -0.4232759 0.047681995 0.17681137
000250 61 a9 0e 3d 5c 9a 0d bd c1 ce 61 bd 9f 1f b9 3d
       0.0348295 -0.034571037 -0.055128817 0.09039234
000260 85 0c 77 bd 8e 5e 74 be c5 e5 11 be 9f 4e e0 bd
       -0.060314674 -0.23864195 -0.14247806 -0.10952496
000270 2f 44 2e 3e e5 de 31 bb 34 20 86 be 31 39 92 bd
       0.17018197 -0.0027140912 -0.26196444 -0.07139815
000280 fa 7a 65 3e b4 75 b3 3d 0b 02 46 3e b9 ed 1b 3b
       0.22410193 0.087626845 0.19336717 0.0023792817
000290 a3 ef e0 3c 7a bf 21 be 6a 2e 64 bb d9 c0 fa 3c
       0.027458018 -0.15795699 -0.0034817704 0.030609535
0002a0 75 d2 72 3c 53 f7 bf 3d cb bb 0e 3e 2d 05 0c 3e
       0.014820685 0.09373345 0.13938825 0.1367385
0002b0 df 09 d9 bd 49 04 35 be 5a 8e c4 3d 31 2d c7 3c
       -0.10597586 -0.17677416 0.09597464 0.024313541
0002c0 ad b5 91 bd 62 f8 c2 bd 69 ba c5 be 52 6d 44 be
       -0.0711473 -0.095200315 -0.38618782 -0.19182327
0002d0 a3 af 07 be 28 3f 10 be 96 f6 52 be 7a cf b4 bc
       -0.13250594 -0.14086592 -0.20601878 -0.022071589
0002e0 88 e5 dd bd 17 77 60 bc a3 34 da bd 04 9d 8c bb
       -0.10834795 -0.013700268 -0.10654571 -0.0042911787
0002f0 09 83 e9 3d 35 50 d5 3c 62 4f a2 3d 53 36 89 3d
       0.11401946 0.026039222 0.07925297 0.06699815
000300 4e 74 02 3e 83 60 1f 3e 84 bc 9d 3d b3 bd 48 3b
       0.12739679 0.1556416 0.07701972 0.0030630648
000310 4a a0 75 3d f9 c1 41 be f5 f8 17 3e f9 ab e3 3a
       0.059967317 -0.18921651 0.14841063 0.0017369977
000320 3b 2e 59 3e 9c ac fc bc b6 67 57 3d 4b 09 80 bd
       0.21209042 -0.030844025 0.05258914 -0.062517725
000330 eb d8 14 be 56 7a dd bd 5e 4d 25 3e da 3d cb 3e
       -0.14535873 -0.10814349 0.16142794 0.39695626
000340 f1 2b ad 3d 9e cf 26 bd 25 77 3d be f5 40 84 3e
       0.08455647 -0.040725343 -0.18502481 0.25830808
000350 95 5a 6e 3e 18 f0 2c bc 32 39 b7 3e 9d e5 4a 3d
       0.23276742 -0.01055529 0.35785824 0.049535383
000360 b0 82 56 3e 01 30 0b 3e 7b 23 8b b9 65 60 07 be
       0.20948291 0.13592531 -0.0002653858 -0.13220365
000370 3f 01 c7 bd bc 2b d2 bd e6 bd 0c 3e 1f b1 ef be
       -0.097170345 -0.10262248 0.13744316 -0.4681482
000380 6f 19 a2 bd 42 a7 05 3b 5c 2a 09 be 6f 3a 1f 3e
       -0.07915007 0.0020393883 -0.13395065 0.15549634
000390 c7 2f a4 3d 7d f7 62 3b 37 6d fc bd 2b 4e 11 3e
       0.08016925 0.0034632378 -0.123255186 0.14189975
0003a0 51 d8 46 be c5 74 6c be 68 06 8c 3b 47 9a 91 3a
       -0.19418456 -0.23091419 0.0042732246 0.00111086
0003b0 d3 86 c3 3d 97 47 1c 3d e7 a2 2f 3d ca fb 0f 3e
       0.095472 0.03815421 0.042879965 0.14060894
0003c0 f8 f9 36 3c f0 f7 06 3d a2 24 6e 3e 86 a6 5c 3d
       0.011167996 0.032951295 0.23256162 0.053869747
0003d0 b8 81 53 bb 24 d8 6f bd ed f2 f6 3d 3c cd ad 3d
       -0.0032273363 -0.058555737 0.12058053 0.08486411
0003e0 12 25 92 be fc c9 8d 3a ba 9f 3e be 6e f8 fa 3d
       -0.28543907 0.0010817642 -0.18615618 0.122544155
0003f0 ef 40 34 be 91 19 8c be 7b 8f 18 ba ee 1e 26 bd
       -0.17602895 -0.27363256 -0.000581972 -0.04055684

actor.4.bias f4 [32]
000000 e7 03 e5 bc f3 85 35 3e db d3 b6 be c3 c4 12 bd
       -0.027955962 0.17726879 -0.35708508 -0.035832178
000010 6e 1a 1f bd 92 8e e9 bd b0 33 e7 bc 62 5d ab bd
       -0.038843565 -0.11404146 -0.028222889 -0.08367421
000020 e3 68 4c be 74 9a b7 3d 47 7e 6b be e7 de 6e bd
       -0.19961886 0.089650065 -0.2299739 -0.058318045
000030 f0 e6 d5 bc 61 c1 f2 3c 26 06 08 be 63 1c 04 be
       -0.026111096 0.029633226 -0.13283595 -0.12901454
000040 66 46 4a be 70 62 33 be 01 26 8c be 33 43 2a bd
       -0.19753417 -0.1751802 -0.27372745 -0.041567992
000050 f9 b4 e5 3d 07 d4 54 be b3 f0 73 be b6 b4 33 bd
       0.112161584 -0.20784007 -0.23822288 -0.04387351
000060 ad 2f 71 bb d6 1a b9 bb 4c 97 5c be e3 e1 27 bc
       -0.0036802099 -0.005648951 -0.2154209 -0.010246727
000070 74 ce 0a bd 15 69 1b 3e a2 d7 6c bd 23 ef 05 be
       -0.033888295 0.15176804 -0.05782283 -0.13079505

actor.6.weight f4 [12, 32]
000000 4e a3 b2 3b 0d 14 15 be c7 f9 f1 3d 4f d3 82 3d
       0.0054515963 -0.1455843 0.11815219 0.0638796
000010 c8 a4 f5 bd 3b 9d 56 be d0 3e 18 3c f2 f2 c0 3c
       -0.1199432 -0.20958416 0.009292319 0.023553345
000020 3a 6e f6 3d 9c 5b 7d bd 2f 6b bb bc 32 34 a4 3d
       0.12032743 -0.061854944 -0.022878258 0.08017768
000030 b7 d6 1c bd e1 7a c6 3c 49 b5 b2 3d 8b 90 8c 3d
       -0.038290706 0.024228515 0.08725984 0.06863507
000040 d3 5d fb 3c d0 8f 8f bc 62 96 73 bd 05 20 ae bd
       0.030684387 -0.01752463 -0.059469588 -0.08502201
000050 8b ca 45 bd 16 69 ef 3b 3c 41 86 bd fb 82 b9 bd
       -0.048288863 0.0073062284 -0.06555411 -0.09058186
000060 b3 e1 7d 3d ac f6 eb 3d 27 c3 9c 3c 94 08 49 3e
       0.06198282 0.11521658 0.019136025 0.19632179
000070 ac 3b 97 3c 55 11 dc bd d1 3b 5c bc da 94 9a bd
       0.018461071 -0.10745493 -0.013441996 -0.075479224
000080 63 5a e1 3c f0 f1 c5 3d 96 14 8e 3d 97 f3 d8 bc
       0.02750892 0.096652865 0.0693752 -0.02648334
000090 a6 7e 3f bd fc 26 d7 3c 79 9f c5 3d 1f 16 0f 3d
       -0.04675164 0.026263706 0.096495576 0.034933206
0000a0 da 83 5a bd 1a 4f 1c 3e 4a 48 a5 bd 43 c4 0c 3e
       -0.0533484 0.1526455 -0.08070429 0.13746743
0000b0 0a ff 08 be d7 7b 85 bd 0c 40 87 be 60 35 40 3c
       -0.1337854 -0.06517761 -0.2641605 0.011731476
0000c0 f5 fd 91 3c 5a 5d 69 3d 67 1c 9f bd a8 9c a8 3c
       0.017821291 0.056973793 -0.07769089 0.020582512
0000d0 4f 18 35 be e6 84 e6 bd 23 1e 5d bd 40 d8 6e 3d
       -0.17685054 -0.11255817 -0.05398382 0.0583117
0000e0 16 10 42 3e bd c8 45 3c 3e da 81 3d 38 3c 4e 3d
       0.18951449 0.0120717855 0.063404545 0.050350398
0000f0 8b 69 06 be 24 81 dc bc 71 47 0c bb 31 14 12 bd
       -0.13126199 -0.026917048 -0.0021404887 -0.035663787
000100 7b 03 80 bd af 01 a4 bd 77 94 89 3d ac 47 d5 3c
       -0.06250664 -0.080081336 0.067177705 0.026035152
000110 1d 36 3e bc 80 4b 8a 3d c8 3d 16 3d 92 77 f6 3c
       -0.011609581 0.06752682 0.036680013 0.030086312
000120 5c 18 02 be c0 49 61 3d f0 34 c3 bd 42 44 92 3d
       -0.12704605 0.055001974 -0.095315814 0.071419254
000130 50 82 9c bc 3c 8d 10 be 6c 00 58 3e f8 b7 cf bd
       -0.019105107 -0.14116377 0.21093911 -0.10142511
000140 e2 44 03 be 22 63 01 3c c1 93 2c 3e 2a af 05 3d
       -0.12819245 0.00789717 0.16853239 0.032637753
000150 d1 d5 16 3e 81 40 1e 3e fd b4 3a 3e 8f f5 83 3e
       0.14730002 0.15454294 0.18233104 0.25773284
000160 51 60 54 be 60 f6 37 3e b1 d3 bb 3d 36 d8 c4 bd
       -0.20739867 0.17965078 0.09171236 -0.096115515
000170 76 41 45 bd 82 cb bf bd e6 b2 d6 bc ae 11 00 3d
       -0.04815813 -0.09364988 -0.026208352 0.03126686
000180 18 41 ce 3c 51 7f d6 bd 7e aa 40 3e 3d 76 e5 bc
       0.025177523 -0.104735024 0.18815038 -0.028010482
000190 c9 b9 b1 3c a1 df 00 3e 36 46 cd 3c 78 a8 5b bd
       0.021695035 0.12585308 0.025057893 -0.05362746
0001a0 9a 5d 87 3d c7 f8 ae 3d b2 98 92 bc 21 36 0c bd
       0.0660965 0.08543544 -0.017895076 -0.03423131
0001b0 69 a0 83 bd 2b d7 32 3d 81 ce 89 bc 73 84 ae 3d
       -0.0642708 0.04366223 -0.016822102 0.085213564
0001c0 61 72 f4 3d 5b f8 2c 3d 45 e7 99 3c c9 e6 17 be
       0.119358785 0.042229038 0.018787036 -0.14834131
0001d0 fe a4 af 3d a1 c6 cc bd 2f 11 88 3c f6 a9 4e bc
       0.08576392 -0.09998823 0.016609756 -0.012613764
0001e0 4f d1 ba bd c5 ee f1 3d e4 56 50 bb 1c 4e 4a be
       -0.09121954 0.1181312 -0.0031790072 -0.19756359
0001f0 d7 96 76 bc bf 07 b6 bd b3 ad 84 bd 29 7e 28 3e
       -0.015050611 -0.08888196 -0.06478443 0.16454376
000200 94 d6 00 be ab 54 41 bd e9 b4 90 bd 00 21 ae bd
       -0.12581855 -0.047199886 -0.07065756 -0.08502388
000210 69 ae 2a be 0a 37 99 3c c9 83 f9 bc 0f 82 cf bd
       -0.16668095 0.018703002 -0.030458348 -0.101322286
000220 4c b1 be bd f1 61 b4 3d a0 19 29 3e 34 94 f4 bd
       -0.093111604 0.08807743 0.16513681 -0.1194233
000230 c8 2d 8f 3d a6 0e 67 bc 32 f5 14 bd 03 d3 60 bd
       0.06991154 -0.014102614 -0.03636665 -0.054888736
000240 a4 f0 8a bd f0 9d 3b bd ad 8a 59 be 77 22 d0 3d
       -0.0678418 -0.045804918 -0.21244307 0.10162824
000250 13 ae d6 bb 02 33 51 bd 59 46 28 be b6 2d 0f 3d
       -0.006551513 -0.051074035 -0.16433086 0.034955703
000260 27 c3 01 bd 0c 4d 8a 3d 81 db 0a 3e 2f cb 86 3e
       -0.031680252 0.06752977 0.13560297 0.26326892
000270 0c 6c 55 3d 43 09 93 bc 86 7c 1d be 66 64 16 3e
       0.052104995 -0.017948752 -0.15379533 0.14686736
000280 90 10 fe 3d 3f 79 96 bd fe 05 8b 3c 38 94 3f bd
       0.12405503 -0.073473446 0.01697063 -0.04677221
000290 4f e9 84 3d b1 d3 8b 3e d3 38 d1 3d 46 2e 12 3e
       0.064898126 0.27309945 0.102159165 0.14275464
0002a0 ea 4c 1a bd e5 3e 5a be 24 dc 0a be 9d cd 09 be
       -0.037671007 -0.21313055 -0.1356054 -0.13457341
0002b0 6b f4 e1 3d 13 0a 85 bc a8 90 61 3b 03 c5 be bc
       0.11032947 -0.016240155 0.0034418497 -0.023287302
0002c0 8b 05 38 bd 54 c8 e6 3d 83 5e 55 3c bf 66 ae bd
       -0.04492716 0.11268678 0.013023022 -0.08515691
0002d0 41 a6 02 3e bc 2a e1 3d 30 f7 8a 3d e4 64 81 3c
       0.12758733 0.10994479 0.067854285 0.015795179
0002e0 63 71 dc 3d 9d 38 af bd d0 28 49 3c c1 ee cf 3b
       0.10763814 -0.0855572 0.012277797 0.0063456004
0002f0 43 ab 00 be 83 72 65 3d 4f 6e 20 be 26 0e 16 be
       -0.12565331 0.05601741 -0.1566708 -0.14653835
000300 f7 8a 23 3e e1 d3 19 3d 43 41 a1 bd ae 1f ce bd
       0.1597098 0.03755558 -0.07873776 -0.10064636
000310 1b 15 29 bd 64 67 c6 3b 50 64 d6 3c b6 5c 15 bd
       -0.041279893 0.0060548056 0.02617088 -0.03646537
000320 77 be c5 3b 15 5e 98 3d 5c bd 44 be ac a1 45 3d
       0.006034668 0.0743982 -0.1921286 0.048249885
000330 16 ff 2a 3d d5 34 c2 3d 33 99 4f 3d 80 56 c3 bd
       0.041747175 0.09482733 0.05068321 -0.09537983
000340 a6 2f 12 be a0 e8 07 bb 79 27 80 bd b9 31 c7 3d
       -0.14275989 -0.002073802 -0.06257529 0.09726281
000350 ab 07 a5 3d 68 67 23 be df f6 db 3d 7d f3 44 bd
       0.08058103 -0.15957415 0.10740446 -0.04808377
000360 09 79 85 bd 07 e5 e5 3b f5 37 a7 bc ca c7 0e 3e
       -0.06517226 0.0070158276 -0.020412425 0.13943401
000370 97 f5 c7 3d fb ac 94 bd 4f f6 80 3d fc 60 e9 bc
       0.097636394 -0.07259556 0.0629698 -0.028488629
000380 83 43 7d 3c f1 3d ed bd 59 45 94 bd c6 35 ee bd
       0.015457991 -0.1158408 -0.072397895 -0.1163135
000390 4a 53 4f 3d 0f 67 fe bd cc 2b a5 3c 42 d8 b0 bc
       0.05061654 -0.124220006 0.020162486 -0.021587495
0003a0 9d 92 0a 3e 6a 29 b8 3d c2 9c cb 3c 30 df ad bc
       0.13532491 0.08992274 0.024855021 -0.021224588
0003b0 88 bf 82 3c 35 71 40 bd 21 2f 98 3c 43 46 8f bb
       0.01596047 -0.046982963 0.01857716 -0.0043723895
0003c0 38 45 98 be 75 82 31 bd 7a 3f b7 bd 1a 19 96 bd
       -0.2974031 -0.043337304 -0.08947654 -0.073290065
0003d0 ae fe d6 bc d6 e1 c8 3d eb 93 bd bd e4 a7 e2 3d
       -0.026244488 0.098087 -0.09256729 0.11067179
0003e0 33 9b e8 3d 68 6f 16 be 9c 45 a7 3d c0 09 0e be
       0.11357727 -0.14690936 0.08167574 -0.13870907
0003f0 49 22 04 3d d8 c8 28 be 9f ca b0 bd 15 0c 07 3e
       0.03225926 -0.16482866 -0.08632397 0.13188203

actor.6.bias f4 [12]
000000 ca 31 21 be 7b 35 0c bc 11 5f ff 3d 44 d5 dc bd
       -0.1574165 -0.008557673 0.12469304 -0.10782865
000010 83 6d 5c be 41 62 6c bd a7 d6 2b 3e d3 da 24 3b
       -0.2152615 -0.05771089 0.16781102 0.0025154843
000020 bc 26 6f bd ff 82 2c 3e 44 7e 72 bd e3 fc 26 be
       -0.05838655 0.16846846 -0.059202448 -0.16307406

critic.0.weight f4 [128, 48]
000000 d8 e1 81 3e a7 d2 37 3e 3d 24 39 3f 81 d4 90 be
       0.25367618 0.17951451 0.7232092 -0.28287128
000010 3b 2c 69 3d ac d4 fe be b8 d0 90 bf a9 70 0c 3f
       0.056926947 -0.4977163 -1.1313696 0.54859406
000020 8c e3 d5 bb 65 c6 0b be 70 29 a5 be 1c 5c 48 3f
       -0.00652737 -0.136499 -0.32258177 0.7826555
000030 24 a5 e1 3d 40 ce 8e bd dc 44 1d 3d c2 a8 25 3d
       0.11017826 -0.06972933 0.038395748 0.040444143
000040 45 74 22 be 92 b0 51 be d8 a9 ac be 37 83 4e 3c
       -0.15864666 -0.20477512 -0.3372333 0.012604526
000050 ec 8d 5b bc 93 7d a5 be 06 c2 05 3c 90 41 47 be
       -0.013400536 -0.32322368 0.008163935 -0.19458604
000060 aa d7 9c bd 28 e1 a5 bd 45 3f 3d 3c 65 41 a8 be
       -0.07658322 -0.08099586 0.011550729 -0.32862392
000070 b3 b7 67 be 4b c6 bd 3d d5 da 79 be 30 22 19 3e
       -0.2262867 0.09266337 -0.24399884 0.14954448
000080 6b 9b 5a be 90 4c fb bd d0 40 4e 3e 1d e5 b9 bc
       -0.2134835 -0.122704625 0.20141912 -0.022692258
000090 bc dc c5 3c ba 3b 91 3d 38 04 21 3d 37 79 9c bc
       0.024153106 0.0709147 0.039310664 -0.019100768
0000a0 2e 53 d3 3c ed 4b 56 bd 57 9b da bc c7 7c 61 3c
       0.0257965 -0.052318502 -0.0266854 0.013762659
0000b0 cd d4 30 bd d1 7c 98 bb ed cc 2b bc 3f 54 dd 3c
       -0.043171693 -0.004653551 -0.01048587 0.02701771
0000c0 56 8f 5d 3e f3 2f 90 bd 9a a9 69 3d b6 6d e4 bd
       0.2163671 -0.070403956 0.05704651 -0.11153738
0000d0 e1 00 5c 3e fa b9 44 3d b8 f9 8b 3f 6d 3d 24 3e
       0.2148471 0.048028924 1.0935583 0.16039057
0000e0 3f 67 ad ba 16 ce b5 bd 97 c3 36 be 87 d4 1b 3f
       -0.0013229622 -0.088771984 -0.17848049 0.60871166
0000f0 b8 59 6e 3c 1a d1 4e 3e 24 79 89 3e 48 ad e3 3d
       0.014547758 0.20196953 0.26850235 0.11117035
000100 3b 22 8c bd 47 22 34 3c 77 26 77 3e 6c 80 eb 3d
       -0.068424664 0.0109945005 0.24135767 0.11499104
000110 08 02 a4 3e e5 18 c0 bd 14 e6 84 be fc 1b 23 bc
       0.320328 -0.09379748 -0.25956786 -0.009955402
000120 5c 71 a1 3c b9 80 61 3e 63 bb 97 3d ed 9f be 3d
       0.019707374 0.2202176 0.07408788 0.09307847
000130 85 cb 21 be 03 79 2d bc eb 84 1e be 94 49 2e bd
       -0.15800293 -0.0105879335 -0.15480392 -0.04255064
000140 ab 1b 24 bd 90 2b 49 be 56 7c 2c bd 12 60 b3 bd
       -0.04006545 -0.19645524 -0.042110763 -0.08758558
000150 1b 82 6c bd f3 50 af bb 72 86 95 bd 3d c8 8c 3d
       -0.057741266 -0.005350226 -0.07301034 0.0687413
000160 ca 6c 92 bc 30 37 79 3c cf 63 db 3c d7 f6 36 3d
       -0.01787414 0.015210912 0.02678099 0.044669
000170 50 7d 90 bd 4b ee 8b 3d 96 02 d7 3c 21 93 27 bd
       -0.070551515 0.0683256 0.02624635 -0.040911797
000180 6d aa fd bd 0c 09 62 3d b7 a2 8a 3d 90 52 2f bc
       -0.12386022 0.05518441 0.06769317 -0.010700837
000190 1d 8d 74 3d b8 bd 81 3e 13 aa f9 be 58 a2 b4 3e
       0.05970489 0.25340056 -0.4876257 0.35280108
0001a0 4c 6b e1 3d 8d 41 1e 3d cd b0 51 be 65 fe 89 3f
       0.110067934 0.038636733 -0.204776 1.078076
0001b0 f9 92 d4 be de 79 bd be 3e d1 a4 be d8 3f bf bd
       -0.4151838 -0.3700704 -0.3219089 -0.09338349
0001c0 03 1a d2 3c 3c 1f a6 3d bd 1d a3 3e c3 87 cf 3d
       0.025647169 0.08111426 0.31858626 0.10133316
0001d0 cc bc f4 3d b4 52 a6 3d ca a7 35 be ef 07 58 3c
       0.11950073 0.08121243 -0.17739788 0.013185485
0001e0 ed 0b 22 bd cf 48 84 bd 90 86 df bd 64 1f 83 be
       -0.039562155 -0.064592 -0.10914338 -0.25609887
0001f0 24 16 a1 3e ce 35 1d bd 21 fd 22 3d 2a 8a b9 3d
       0.31462204 -0.03838139 0.039792184 0.09059556
000200 bd 68 cc 3d ca 06 a0 3c c7 1f 9e 3d f2 11 ce bd
       0.09980915 0.019534487 0.07720905 -0.100620165
000210 0e 12 44 3d 03 35 ce bb ff b4 fc ba b5 d0 61 bd
       0.04786878 -0.0062929406 -0.0019280015 -0.05513068
000220 24 9c f3 3c 96 c5 e9 3c 65 99 1f bd 25 c9 c4 3c
       0.02973754 0.0285366 -0.038964648 0.024021694
000230 ca 20 ab 3d 9a 92 ee 3b 68 19 f7 3c 0c c3 0b bd
       0.083558634 0.00728066 0.030163482 -0.034121558
000240 83 3f 05 bf 8d b4 c9 bd 4a 09 82 3c 1a b4 87 bd
       -0.52050036 -0.098488905 0.01587357 -0.066261485
000250 7a 03 89 be 76 94 85 be e1 e8 ec bf db 3a 14 3d
       -0.26760465 -0.2608983 -1.8508569 0.03618894
000260 01 96 9e 3d d2 be 02 bf e0 6d 46 3e 0c bc bb 3e
       0.07743455 -0.5107242 0.19377851 0.36666906
000270 df 2b d8 3e 49 0e 58 be 84 ed bc be 8b 56 22 bf
       0.4222097 -0.210992 -0.3689996 -0.63413304
000280 64 51 a6 be a8 0e b0 be d2 e3 ea be 24 27 f5 be
       -0.3248397 -0.34386182 -0.45876938 -0.47881424
000290 03 50 ab be 87 9e 20 3f e8 96 5f be 1d 17 e0 be
       -0.33459482 0.62741894 -0.2183491 -0.43767634
0002a0 b4 21 cf 3d 24 00 30 3e c7 b2 24 bd e7 ca 77 be
       0.1011385 0.17187554 -0.040209558 -0.24198495
0002b0 fe a8 cb 3d 35 6f bd bd 01 d4 6a be 47 ad b8 bc
       0.09944342 -0.09249727 -0.22932436 -0.022543563
0002c0 7e af 33 b9 15 47 e9 3d cc 98 87 3e 40 38 09 be
       -0.00017136146 0.11390511 0.26483762 -0.13400364
0002d0 fa 99 fd 3b a5 d6 08 bc af 6e 11 3d f4 9f 95 bc
       0.0077393027 -0.0083519565 0.035505947 -0.018264748
0002e0 d2 94 bb bb ee f1 c8 3b 9f d1 f1 bb f8 a2 71 bc
       -0.005724528 0.006132356 -0.007379725 -0.014748327
0002f0 c5 ed cb bc 93 6f 38 bc e4 c2 46 bb a6 5b 4f b8
       -0.02489365 -0.01125707 -0.0030328566 -4.9438e-05
000300 04 0f d6 bc 62 b7 67 3d a8 d4 69 3c 81 b9 47 3e
       -0.026130207 0.05657137 0.014271893 0.19504358
000310 f1 3a 31 3f 1d 3a 0c bd 2f 92 15 3f 1a f6 ac be
       0.6923056 -0.03423511 0.58426183 -0.3378151
000320 73 38 97 bd 20 7e 76 bd cb 93 8c 3d 2b a1 05 bf
       -0.07383814 -0.060178876 0.06864127 -0.5219905
000330 64 90 15 be 24 de 7a be cc 64 8e be e6 25 06 bc
       -0.14605862 -0.24498802 -0.27811277 -0.008187747
000340 63 cb 20 bd 17 92 c7 be 91 83 bd bd d6 a2 a2 3e
       -0.039256465 -0.38978645 -0.0925361 0.3176486
000350 32 2f 8a 3e b4 dd 21 be 44 f9 11 bd 35 dc d6 3d
       0.26989132 -0.1580723 -0.03563811 0.1049122
000360 63 6f c7 3e 0c e5 ca 3e d4 9c 76 be d8 cf 81 3e
       0.3895217 0.39627874 -0.24083263 0.25353885
000370 3d e3 6a 3e 94 be 77 3d a3 73 37 be b7 81 d3 3d
       0.22938247 0.060484484 -0.17915206 0.103274755
000380 1c 47 0b 3e 0b c6 73 3e ad b9 50 be ad c5 68 3e
       0.13601345 0.23806016 -0.2038333 0.22731657
000390 1b f2 c7 bc bb 86 db 3c 32 ae 7c bb f8 d6 b9 bd
       -0.024407437 0.026797643 -0.0038555977 -0.09074205
0003a0 c2 9c d9 3c e0 56 bb 3d b2 da a4 bd b9 ac ad bd
       0.026564006 0.091474295 -0.08049525 -0.0848021
0003b0 58 32 bf 3d 0a 01 c0 3c e3 41 b6 bd 15 35 c6 3d
       0.09335774 0.023437995 -0.08899286 0.09678093
0003c0 75 ab 6b 3e f4 d2 d7 be e8 f5 04 be 34 c1 44 3e
       0.23014624 -0.42153132 -0.12984431 0.19214326
0003d0 f5 c6 93 3e 61 a0 30 3e d0 4b 33 3f e4 92 1d bf
       0.2886273 0.1724868 0.70037556 -0.6155226
0003e0 1a 43 d6 bd a4 fe 56 be 96 48 bf 3d e5 ee c6 3e
       -0.10462017 -0.20995575 0.093400165 0.38854137
0003f0 0d ab 5e 3d bb 53 1b 3e 23 c2 07 3e a4 88 f8 3e
       0.054362345 0.1516866 0.13257651 0.4854175

critic.0.bias f4 [128]
000000 8b 36 56 3e c7 e6 7a bb 8f 77 76 be fd 44 a6 be
       0.20919244 -0.0038284527 -0.24069045 -0.3247451
000010 ea cd 7c bd 6e d0 16 3e a7 a9 1a be 52 d6 8f 3c
       -0.061719812 0.14727947 -0.1510378 0.01755825
000020 f9 b9 67 3d 19 fe 3d 3d 6a d4 4c be 74 57 9d 3d
       0.05657384 0.046384905 -0.20002905 0.07682696
000030 36 1d 51 3d f4 8e 06 3c b7 5f df 3c 5d 04 dd 3c
       0.05105325 0.008212794 0.02726732 0.02697962
000040 16 39 1f 3e f3 12 fd bd 88 0e fd 3d 02 14 3f be
       0.1554912 -0.1235713 0.12356287 -0.18659976
000050 73 a4 13 3e d4 11 40 be c4 c7 fe bc e6 74 74 bb
       0.14418201 -0.18756801 -0.031101115 -0.0037301122
000060 f1 27 30 3d d4 43 dd bd 1c 35 d6 bc b4 85 8e 3d
       0.04300684 -0.10803953 -0.026148371 0.069590956
000070 cd f6 13 3d 13 b8 45 be d9 2f da bd 59 97 47 be
       0.03612404 -0.193085 -0.106536575 -0.19491328
000080 c7 00 90 be 4f 7c 7a be 5d cd 32 bd 13 e6 de bd
       -0.28125593 -0.24461482 -0.04365288 -0.10883727
000090 b2 7e 37 3e 91 e8 3d bc 35 a7 ba bd ff 4d 35 be
       0.17919424 -0.011591093 -0.091139235 -0.17705534
0000a0 b4 1a 2f 3d 8a bd 95 bd 5f 08 75 bd f8 78 30 be
       0.042750075 -0.07311542 -0.059822436 -0.17233646
0000b0 0d 1d 51 be 4d fa 94 be 6e 0a 34 be af 15 c4 bd
       -0.20421238 -0.29097214 -0.17582104 -0.09574448
0000c0 c8 08 64 be 88 db 42 be dd 6a 62 be 7d 05 61 bd
       -0.22268975 -0.19029057 -0.22111078 -0.054936875
0000d0 c5 7d 20 be e8 15 33 be 21 95 1c bd 1f 3d b4 bc
       -0.15672977 -0.17488825 -0.038228158 -0.022001801
0000e0 88 33 3f be 8a 8c 72 3c 82 5e 7f be 75 1c 06 3e
       -0.18672001 0.014804015 -0.24938396 0.13096793
0000f0 48 a9 ef 3c 11 6f 6e be 77 ea 7f be 64 fa e3 bd
       0.029255524 -0.23284556 -0.24991785 -0.111317426
000100 fd 52 a9 bd 2f 73 84 3d ff 36 26 3e 5a 70 60 3d
       -0.08267782 0.06467282 0.16231917 0.054794647
000110 5b 40 5c bd 0f 6e 20 3e f7 7d 09 3e 10 20 40 3e
       -0.05377231 0.15666984 0.13426958 0.18762231
000120 81 d4 1c be ac d7 e2 bd a7 4c c1 bc 2f 5e dc bd
       -0.15315439 -0.110762924 -0.023596121 -0.107601516
000130 15 4e 15 be 8e 94 63 be 80 46 d2 3d a2 e9 b7 bd
       -0.14580567 -0.22224638 0.10267353 -0.08980109
000140 a8 12 de 3d 2e 47 cf bd b5 e6 72 be 87 09 8c bd
       0.10843402 -0.10120998 -0.2372082 -0.06837755
000150 85 8f 3c 3e 50 73 8f 3d 89 c3 50 be e3 4f 6c be
       0.18414123 0.07004416 -0.2038709 -0.2307735
000160 cf fa 06 be 72 d9 02 be 02 3e 55 bc c2 44 29 be
       -0.13181613 -0.12778261 -0.013015272 -0.16530135
000170 b8 27 94 3d e0 38 a6 3b bf 86 b8 bc d8 3e fd bd
       0.07234138 0.005072698 -0.02252519 -0.12365502
000180 59 3e 20 bd 22 8a 41 bc 6d 0e 5d 3d cd f3 ed 3c
       -0.03912196 -0.011812719 0.053968836 0.029046917
000190 9d 96 03 3e a8 11 61 be eb 77 f3 bc 98 a5 9d 3d
       0.12850423 -0.21979392 -0.029720267 0.076976
0001a0 cd c4 2c 3c 44 b6 14 3e ed 5e c9 be 7a 6e 19 be
       0.010544968 0.14522654 -0.39330235 -0.1498355
0001b0 1c 98 e1 3d cc 7c 8f bd 3c 3e 88 bd b5 7a 89 bd
       0.11015341 -0.07006225 -0.06652495 -0.06712858
0001c0 af ba 2c 3d b0 e8 34 bd a8 89 77 be ef 31 c5 3d
       0.042170223 -0.04416722 -0.24173605 0.09628665
0001d0 74 18 93 bd 28 0e f4 bc 43 e2 b1 ba e3 0d 20 3e
       -0.071823984 -0.029791906 -0.001357146 0.15630297
0001e0 64 4b 86 be 97 82 d3 bd 60 bb d3 bd 18 d9 5c 3d
       -0.26229393 -0.103276424 -0.10338473 0.053917974
0001f0 96 1b 84 be 32 2b 0d be cf 0c 80 3d 0d 71 9f be
       -0.25802296 -0.13786009 0.06252443 -0.31140938
