logs/flat_anymal_c/Nov23_11-24-27_/model_300.pt (torch, 418700 bytes, 48 tensors)

std f4 [12]
00000000: 3280 cf3e 0e71 023f 7df0 d83e 7074 d03e
00000010: 9489 033f dbe4 de3e c72a db3e def1 023f
00000020: 2782 e33e 316c d33e 538b fd3e 19ea de3e
0.40527493 0.5095376 0.42370978 0.40713835 0.513818 0.43533978 0.42806074 0.5115031
0.44435236 0.4129348 0.49520358 0.43537977

actor.0.weight f4 [128, 48]
00000000: 8c69 cb3d d1f7 903c 4f7d 0d3e a767 12be
00000010: 3067 313f a349 413f fe61 5b3f a8f3 223f
00000020: b9fa 1d3d 3bc2 46be 31c6 c1bb 3fc1 65be
00000030: 4d22 123e a022 913e 6d95 00bf dd41 be3e
00000040: f3c7 d43e ebf9 3ebf 9f10 9c3e d13b 1e3e
00000050: 2b5e dd3e e4de 34be ae30 063e 001f 833e
00000060: 0b66 153e 7a10 f2bd 75fe 48be 6680 edbd
00000070: da14 18bf 2c36 97be 472d 9ebe 2748 89bc
00000080: b824 883e 2048 08bf 1dff 67be 3057 3f3e
00000090: 88f3 88bd 329e 743d 7e7e 383d caf8 68be
000000a0: 60c0 343e 1661 83bd 8c68 07be cd0d a0bd
000000b0: 199c d7bd e76b a8bd e3f1 0c3e af1f bfbd
000000c0: 14a8 a7be 6bb2 733c 5773 55be 7f32 53be
000000d0: 25ab b43f 8a82 223f 932a da3e e8d2 98bc
000000e0: 8b84 293e c791 cb3e 6365 8abe b0ca 3cbf
000000f0: 4025 183f c868 b3be 7b9a 1bbf 9a17 39bf
00000100: ce34 b0bd acc0 cd3d 8197 06be 42c2 343f
00000110: 7bed d73d ed73 de3e 44fa 47bf e234 f4be
00000120: 8fde 1b3e 94f1 41be 57ef f1be 9f94 8e3e
00000130: 80c0 c03c 65b4 6e3e f59b aa3e e86e 53be
00000140: ce5e 833d 63d6 29bf d65b 24bf 53a9 833e
00000150: 8adf ef3c 545d c6bd 2b61 1dbd 56a4 8c3d
00000160: aab1 09bd a360 8abe 537a 70bb 12ef 01be
00000170: 252c 973e d90a c7bd 1f3b a1bc a5e5 323e
00000180: 3cff 87bc 67f1 e4be f818 97be 5230 093f
00000190: 3a2e 73bf a3d0 bb3e 3e00 c23e ea05 fbbf
000001a0: 9a92 a6bd 922c 0fbe 0590 293e 98c9 88bf
000001b0: 5bda 273f 4f81 0c3f 60f9 3cbe 5973 f43e
000001c0: 86cf cb3e 2761 94be 764a ce3e 69d4 29bf
000001d0: 5e5a 5cbe b026 d33e f742 6e3e 425c 7c3e
000001e0: 758e fcbe 8029 4f3f 4c65 9dbe 51f0 af3e
000001f0: d39b 0f3e 7f26 32be 00c7 163f d172 17bf
00000200: e93a 03be b281 0e3f 3ef3 2cbe 4e68 aabd
00000210: 63d9 80be 8b7e b3bd 2e4c ab3e af7d d43d
00000220: 11b8 4cbe a279 243e e90a 463d 4c0b 23be
00000230: caba 11be 4ad8 e23d a26d 1fbe 6966 b6bd
00000240: 8d03 85be a259 933e ae61 98be cdea 54be
00000250: 8d70 0a3f 0b7f 8dbf 2bcf cfbe 2ee1 c7be
00000260: 6157 b53d cc8f a63e 41a0 eebe 946a 993f
00000270: aa42 fdbd d2dd d0be dd7c 36be a207 d63e
00000280: 20d2 e43e d2e9 d1be 9195 1abe 1e66 a73e
00000290: f804 1c3e 5b7b 5a3e ae95 5bbe b5ad f7bd
000002a0: 7849 653c 5cf0 6bbe cfbc c53d 714a c63e
000002b0: 9e68 48bf 963b 95be 9ddc 03be 8463 203d
000002c0: b825 a4be 1abc 813d 5585 fdbe ee54 98bc
000002d0: 4f23 243e 8c8b d83d 83ae 0dbd 990c 823b
000002e0: d0c5 ccbd 2c5b 8f3c 2fa4 7dbc 981b 693d
000002f0: add3 febd 9ed1 edbc c342 73bd 4a78 79be
00000300: 1029 383d 587e 653e edd6 f73d 24c0 c93d
00000310: 18a7 0dbf 3145 923f ca8e e73e 560c 803e
00000320: 609a 4c3c b71d f2bd eb95 e53c 6ec6 33bf
00000330: be21 aebe 44e4 733e c495 8a3d a796 6f3d
00000340: 64b0 433f 9b7b 3cbd ab7d 933d afda 35bf
00000350: b502 983e 0cfb 7e3e 7643 9c3e fc33 363f
00000360: a70c 96be 6c38 52be 871a 34be b2d7 8d3c
00000370: 2f6f 053f 5936 57be e92d 913e 8a74 d0bd
00000380: cbb3 8fbd 03a1 01be 13a0 b1be cd70 373f
00000390: 5cf0 ebbd c337 033b f250 e53d e96e c4bc
000003a0: 557d cfbb 747e 093e eda9 64be 09c7 9e3d
000003b0: 8063 31be dc34 1dbc bc63 053e 8303 61bd
000003c0: 30a5 00bd 087d 33bd 25a5 993e c722 c43d
000003d0: 318e 8f3f 5b2c 613f 1813 823e a237 2d3e
000003e0: 2069 113e 1c88 1d3e bbb1 f6bd 33ff c3bf
000003f0: f9a0 a63e 1008 b23d 9819 a7be 12fc aabe
0.09932241 0.017696293 0.13817333 -0.14297353 0.69298077 0.75502986 0.856964 0.6365304
0.038569186 -0.1941003 -0.005913519 -0.22436999 0.14270897 0.2834673 -0.50228006 0.37159625
0.415588 -0.74600095 0.3048143 0.15452506 0.43235907 -0.17663151 0.13104507 0.2560959
0.14589708 -0.11819549 -0.19628318 -0.11596756 -0.59406817 -0.29533517 -0.3089392 -0.016758038
0.26590514 -0.53235054 -0.22655912 0.18685603 -0.06687075 0.05972118 0.045042507 -0.22751155
0.1765151 -0.06415002 -0.13223475 -0.07815132 -0.1052782 -0.08223706 0.13764147 -0.09332215
-0.3274542 0.014874081 -0.2084478 -0.20624731 1.4114729 0.63480437 0.42610607 -0.018655255
0.16554467 0.39759657 -0.27030477 -0.73746777 0.5943184 -0.3504088 -0.60782593 -0.7230164
-0.08603822 0.10046515 -0.13143732 0.70608914 0.10543343 0.4344782 -0.7811625 -0.47696596
0.15221618 -0.18939811 -0.47252914 0.27847764 0.023529291 0.23311003 0.3332211 -0.20647776
0.06414567 -0.66342753 -0.6420263 0.25715122 0.029281396 -0.0968577 -0.038422745 0.06867282
-0.0336167 -0.27026853 -0.0036694005 -0.12688854 0.29525867 -0.09718866 -0.019681511 0.17470415
-0.016601197 -0.44715425 -0.29511237 0.53589356 -0.9499241 0.36682615 0.3789081 -1.961118
-0.08133431 -0.13981846 0.16558845 -1.0686522 0.6556756 0.5488481 -0.18454504 0.47744253
0.39806765 -0.2898037 0.40291184 -0.6633974 -0.21518847 0.41240454 0.23267733 0.24644569
-0.49327436 0.809227 -0.30741346 0.34363034 0.14024286 -0.17397498 0.588974 -0.5915957
-0.12815441 0.5566665 -0.16889665 -0.08320676 -0.25165853 -0.087643705 0.33456558 0.10375535
-0.19992091 0.16062024 0.04835025 -0.15922278 -0.1423141 0.1107641 -0.15569165 -0.08906252
-0.25979272 0.28779322 -0.29762024 -0.20792694 0.5407799 -1.1054395 -0.40587744 -0.39038986
0.08854557 0.32531583 -0.4660664 1.198565 -0.12366231 -0.40794235 -0.17821069 0.41802698
0.44691563 -0.40998703 -0.15096118 0.32695097 0.1523627 0.21336119 -0.21443817 -0.12093679
0.013994567 -0.23040909 0.09655153 0.3872867 -0.78284633 -0.29147023 -0.12877126 0.039157405
-0.32060027 0.06334706 -0.49515787 -0.018595185 0.16029094 0.105734915 -0.034590255 0.003968787
-0.09998667 0.017499529 -0.015481039 0.05691108 -0.12442718 -0.029030617 -0.05938984 -0.24362293
0.044961035 0.22411478 0.12101541 0.09851101 -0.5533309 1.1427366 0.45226127 0.25009412
0.012487978 -0.11822074 0.028025588 -0.70224655 -0.34010118 0.23817545 0.06766847 0.058493283
0.76441026 -0.046016317 0.07201704 -0.7103681 0.29689565 0.24900454 0.3052022 0.7117307
-0.29306528 -0.20529336 -0.17588244 0.017314766 0.5212278 -0.21016826 0.2835534 -0.10178478
-0.07016715 -0.12659077 -0.3469244 0.71656495 -0.11520454 0.002002225 0.1119708 -0.023978667
-0.0063320794 0.13427144 -0.22330447 0.07752807 -0.17323112 -0.009595122 0.13026327 -0.05493499
-0.031407535 -0.04382041 0.30008808 0.09576946 1.1215268 0.87958306 0.25405192 0.16915753
0.14200258 0.15383953 -0.12045618 -1.5312256 0.32544687 0.08692944 -0.32636714 -0.3339544

actor.0.bias f4 [128]
00000000: 5303 1e3e 4864 25be 7f81 a73d 985c 0ebe
00000010: 9e6e eabd 9018 7cbe 4f2e 78be cee9 95be
00000020: 8cfd 60be 292c 2dbe 67e3 b6be 3b5e f73d
00000030: 806a 5cbe 0763 ea3c 51ea 62bd bcdf 3fbe
00000040: 3c78 6e3c b5a7 5fbd 1234 4cbd 7aa7 1b3d
00000050: af43 84be 5658 2cbe 8222 acbb 2ffb 14be
00000060: 1d0d de3c 119e b83d 11c3 97be 27c2 64be
00000070: ff5d c5be 0220 133e 14df 883d 30d2 073e
00000080: 35df aabc ee85 ef3d eed9 08be e3ed a5bc
00000090: 4f55 1b3e 372a 863e de74 e03c cc1a 873d
000000a0: 89f7 383e 19e6 0d3d 0231 e1bc 7081 14bc
000000b0: e48b 8fbd e286 89bd 06b4 bebd d2fd 56be
000000c0: e3c9 163d a42f 9b3e 60d0 633e 3291 c73d
000000d0: 6c55 56be 6885 64bc c43d a03c a83f 253d
000000e0: 8d31 3cbe 66a1 93bd 97a2 15be 3d01 323c
000000f0: f7dc 90bd cfba 84bc 92d8 eabb 03d3 06be
00000100: 21a3 1fbc e255 c1bd 24bf af3c 84a8 54be
00000110: 5df6 6cbe 9cde 9fbd 897e 883d edf8 783d
00000120: abbf f5bd 4a73 013e 7b5c 90be b0aa d2bd
00000130: 188e a1bc 603b 29bd 8ca2 d83c 9913 8e3d
00000140: f335 f83d 2355 b2bd 5ba4 32be d377 f9bd
00000150: ad12 b4be fb68 81be b78d 3abe 9bcb 8dbe
00000160: f33a 10be e393 0bbe edae 5bbd cacf 80be
00000170: 8d75 98be 43a2 91be 47e2 46bd 7670 ecbd
00000180: d38c bbbe d5ef 6c3e 8e1d babd a2bf 80be
00000190: d0ac ad3c 5e69 233e ab3d 89be 4d0f 26be
000001a0: e541 6cbe 7da4 103d 6d99 adbd c49a a1be
000001b0: 7781 46be e495 bebc a6c0 30be 8106 943d
000001c0: 5345 7dbd d8ff eb3c c874 893c 0b4d b6be
000001d0: b7c5 9cbe 2ea5 47bd 91c7 67be 2c79 183e
000001e0: c307 e0bd c17e 2c3e 1d50 983d ae17 13be
000001f0: 1f0c 96be f9ff 53be 9283 c4be e7a5 a1bd
0.15430956 -0.16151536 0.08178996 -0.13902509 -0.1144688 -0.24618745 -0.24236415 -0.2927994
-0.2197172 -0.16911377 -0.3572037 0.1207852 -0.21525002 0.028611673 -0.055399243 -0.18737692
0.014555033 -0.054603297 -0.049854346 0.038001515 -0.25832888 -0.16830572 -0.005253137 -0.14548944
0.027105862 0.09014524 -0.2964101 -0.22339688 -0.38548276 0.14367679 0.06683174 0.13263774
-0.020858387 0.11695467 -0.13364384 -0.020255035 0.15169261 0.26204082 0.027399477 0.06596908
0.18063177 0.034643266 -0.027489189 -0.009064063 -0.07009104 -0.0671518 -0.093116805 -0.20995262
0.036813628 0.30309784 0.22247458 0.09744491 -0.20931023 -0.013947822 0.019560702 0.04034391
-0.18378277 -0.07208519 -0.14612804 0.010864553 -0.07073396 -0.016202359 -0.0071669305 -0.13166432
-0.009743483 -0.09440209 0.021453448 -0.20767409 -0.23140855 -0.07806131 0.0666476 0.06078427
-0.119994484 0.12641636 -0.28195557 -0.10286462 -0.019721076 -0.04131639 0.026444696 0.06937332
0.12119665 -0.08707645 -0.17445509 -0.12181058 -0.35170498 -0.25275406 -0.18218122 -0.276944
-0.14084987 -0.13630633 -0.05363362 -0.2515853 -0.29777184 -0.28444108 -0.04855564 -0.11544888
-0.36630878 0.23138364 -0.09087668 -0.25146204 0.021200567 0.15958163 -0.2680486 -0.16216774
-0.23072012 0.03531312 -0.08476529 -0.3156339 -0.19385324 -0.023264833 -0.1726099 0.07227803
-0.06183369 0.02880852 0.016779318 -0.35605654 -0.30619594 -0.048741512 -0.22634722 0.14889973
-0.109389804 0.16845228 0.074371554 -0.14364502 -0.29306123 -0.20703115 -0.3838163 -0.078929715

actor.2.weight f4 [64, 128]
00000000: 6add d63b 7fa8 a8bd b267 81be 8dd9 e53c
00000010: e63e 8c3e 50b8 513e aa21 a33b 7091 843d
00000020: fb8e 5cbe 18be eabe 0065 263e 2f10 373d
00000030: 60ae 2fbe 1fed f4bd fa54 123e 0d7e 39bd
00000040: 01de 203d c935 5abe a16f f53c 2d55 b9be
00000050: 08fe 1ebe 935c a7bc b9c9 1ebe bc58 d63c
00000060: 35db 0b3e 2cde 393d 55af 063e b665 903c
00000070: a493 9e3c b004 e1be d9ff 1f3e 798c 36be
00000080: 21fb 33be eee1 56be 9a4a 3fbe 430d 833e
00000090: 3dab 00bd 9f76 f6bd 9a04 ddbd e81d 46be
000000a0: 1ef9 41be 4eec e2be 3c61 1b3e b7cb a4be
000000b0: 6885 743e 3a4d 013e 5b0a 97be c502 01be
000000c0: d79c 063e c013 00be 8d03 2fbd 3cbe a03d
000000d0: 1a3a 03be e2db 503d 796b b5bd 2ef5 8dbe
000000e0: 93f3 10bd 12e2 3cbe d222 833c f081 ddbe
000000f0: 9041 72bd 0334 95bd 4009 6abe 6ee6 c6bd
00000100: e7ce b13e 10f2 0e3e 9a7b c5bd b5e8 2cbe
00000110: 4138 893d 0055 adbd 73db a6be 429f 47be
00000120: 6dfb 9fbd cbbc 21bb 2878 0b3f 8986 b2bd
00000130: 810d cebd f06b 14be 54b0 b6be a948 b2be
00000140: b791 1f3d 1f3f a0be 77d9 91bd fd5e a73b
00000150: 1124 4bbe 6e5b 90be 536a 3a3d a387 df3d
00000160: 3a0d cc3d ad4d 41bd 512c 90be fa7b a73d
00000170: b6e0 6a3d c93e 0abc 74ac 9d3e e715 bdbe
00000180: 1863 b43e 9f2a 7fbd 5ffe 8ebe cb45 b7bc
00000190: 648b 363e 523a b5bd 3dc5 223e 1369 8a3d
000001a0: f007 853d c29b d63d b4bf abbc c423 393e
000001b0: f707 823d 37b3 99bd a462 ba3e e116 763e
000001c0: 5a2e 793b 5632 4cbe 3fd0 d6bc e6d4 6a3e
000001d0: 393d 953d 6cec 0bbe 99cc 383e 829e 78be
000001e0: 2f83 863d 6699 30be 2ab1 90be da3f f23d
000001f0: 9b29 3b3e 8647 3ebe ed9a a4bc 12df 17be
00000200: ffa5 4cbe ac91 a43d 2a05 6dbe e646 803e
00000210: d6dc 27be 934f 01be 1136 99bd b62e 01be
00000220: ed8a 84be e9c6 92be fb7a 423d 396d 42bd
00000230: a236 6c3e e370 4bbe a5d1 5e3e bdca dc3d
00000240: 67aa 90be 0695 babd 3e25 943b 96a7 75be
00000250: eb9b 6f3e d51f 35bc 8472 913c eb23 e13d
00000260: 83f3 f03c 94c9 d5be 5244 73bd 6da7 5cbe
00000270: dec9 ef3c 6f3f 983d 65b4 223e c717 f0be
00000280: 5e1b 463d 2b7f 94bd dbce 283e 2503 56be
00000290: 87b9 26be 5c30 e7bd dc9a 393e d7fa a4bd
000002a0: e0ec 51bc c671 e1bc 8223 283c 0274 d3bd
000002b0: 04bb 2c3e 6b38 8cbe e1d8 84be e053 47be
000002c0: ca0c a5be 3dac 43be bd78 1cbf 1871 fbbd
000002d0: 29bd ad3d a34b 94bd 6379 36bd cc1e 5ebe
000002e0: 7ae7 ac3c 194f 043e b241 123e 7e70 ecbd
000002f0: 208a ba3e 22c7 cc3c 850b 4cbe 5046 ed3d
00000300: cedd 7e3e 10e1 463d fd27 113e 7e77 6fba
00000310: 25a6 903e 5aba fbbb 7227 febd f5e0 143e
00000320: 63d8 403d fbc7 96be ae01 04be 7754 af3d
00000330: a558 80be d07a 823d ea98 b13e 9da1 4bbe
00000340: 6de7 c1bd 024a d4be f92a 543e aea0 44bd
00000350: 70d4 f2ba 490f 57be fc64 1abe 6242 d2bd
00000360: 736c 9f3e f6be 5e3d dede 89be 0832 793e
00000370: 1064 963e 509d 913e 21ce cb3d 0c9b 1c3e
00000380: b1aa 7dbb 9e0a 9bbd 548f 2f3e bc4a 943d
00000390: 7845 41be a41e e1be 42ab b23d 0a37 673d
000003a0: c20f 7fbc b4d7 613d e827 02be e6d1 cd3b
000003b0: 336f bbbe e264 0ebe 448d f6bd 030c de3d
000003c0: 0fc8 0a3e cf8b 0fbe 7653 e1bd c5e4 a53e
000003d0: b987 6d3e ab0b 883d 1e07 5b3e 83dd 14be
000003e0: 1f8b 003e 49b0 2c3e fcc7 0a3e 6a1f b83c
000003f0: a2f4 2abe 493a 153e ec48 7ebd 2fa8 09bd
0.0065571563 -0.08235263 -0.25274426 0.028057838 0.27391738 0.20480466 0.0049783783 0.064730525
-0.21538918 -0.45848155 0.16249466 0.04469317 -0.17156363 -0.1195929 0.14290228 -0.045286227
0.03927422 -0.2130958 0.029960455 -0.36197796 -0.15526593 -0.020429885 -0.15506639 0.026165359
0.1365784 0.045377895 0.13152821 0.017626625 0.01935751 -0.4394889 0.15624942 -0.17827024
-0.17576267 -0.20984623 -0.18680802 0.25596055 -0.031413306 -0.12034344 -0.10791893 -0.19347346
-0.18942687 -0.4432091 0.1517381 -0.32186672 0.23879015 0.12627116 -0.29500088 -0.12598713
0.13145767 -0.12507534 -0.042727996 0.07848784 -0.12815133 0.050990947 -0.088583894 -0.2772612
-0.03538854 -0.18445614 0.016007815 -0.43263197 -0.059144557 -0.07285311 -0.22855091 -0.0971192
0.34728166 0.13959527 -0.09642716 -0.16885646 0.06700183 -0.08463478 -0.325893 -0.19494346
-0.078116275 -0.002467918 0.5448022 -0.08717067 -0.100611694 -0.144943 -0.35681403 -0.3482106
0.038957324 -0.31298158 -0.07121556 0.005107759 -0.19837977 -0.28194755 0.045511555 0.109145425
0.0996346 -0.047193218 -0.2815881 0.081779435 0.057343207 -0.008437821 0.30795634 -0.36930773
0.35231853 -0.062296506 -0.27928445 -0.022372147 0.17826611 -0.08849014 0.15895553 0.067583226
0.064956546 0.10478927 -0.020965435 0.1808005 0.063491754 -0.07504886 0.36403382 0.24032165
0.0038022012 -0.19941077 -0.026222346 0.22932777 0.07287068 -0.13664407 0.18046798 -0.24279216
0.0656799 -0.17246017 -0.28260165 0.11828585 0.1827759 -0.18581972 -0.020093406 -0.14831188
-0.19985197 0.08035597 -0.23146501 0.2505409 -0.16392836 -0.12628011 -0.074810155 -0.12615475
-0.25887242 -0.2866738 0.047480565 -0.047467444 0.23067716 -0.19867282 0.2175966 0.10780857
-0.28255007 -0.09110455 0.004521041 -0.2398971 0.23399322 -0.011054953 0.0177548 0.10993179
0.02941299 -0.41755354 -0.059391327 -0.21548243 0.029271062 0.07433974 0.15889128 -0.4689314
0.048365943 -0.07250818 0.16485159 -0.20899637 -0.1628171 -0.11288521 0.1812548 -0.080556564
-0.012812823 -0.027520072 0.010262372 -0.10324861 0.16868216 -0.27386793 -0.25946715 -0.1946559
-0.3223632 -0.19108672 -0.6112173 -0.1227743 0.08483345 -0.07240989 -0.044549357 -0.21691436
0.02110647 0.12920798 0.14282873 -0.11544894 0.36433506 0.024997298 -0.1992627 0.11585677
0.248893 0.04855448 0.1417541 -0.0009134932 0.28251758 -0.007682127 -0.12409867 0.1453894
0.047081362 -0.29449448 -0.12891266 0.08561032 -0.2506763 0.06371081 0.34686977 -0.1988587
-0.09467969 -0.41462713 0.20719518 -0.0480048 -0.0018526446 -0.21001925 -0.15077585 -0.10266568
0.31137428 0.054381333 -0.26927847 0.24335492 0.29373217 0.28440332 0.09951425 0.1529352
-0.0038706476 -0.075703844 0.17144519 0.07240817 -0.18874156 -0.4396869 0.08724071 0.056448974
-0.015567722 0.05513735 -0.12710536 0.0062811254 -0.36608276 -0.13905671 -0.12038663 0.10842135
0.13552879 -0.14018176 -0.11002247 0.324011 0.23196305 0.066428505 0.21389434 -0.14537625
0.1255307 0.16864122 0.1355285 0.022475917 -0.16694883 0.14573015 -0.062081262 -0.033607658

actor.2.bias f4 [64]
00000000: 3bfd 67be 51c6 51be 8254 efbc 2671 47be
00000010: b4a4 80be f9d7 0bbd 5244 1dbe c278 debd
00000020: 95d3 39be 6602 2ebe 90f1 8bbd 1018 bebd
00000030: 0f83 35be e639 0fbe fa90 89be 5149 68be
00000040: f259 afbd 1685 f03d f0d3 cbbd f585 2cbe
00000050: b741 d8bc 07df 31bd e5d1 23be 3a96 28be
00000060: 7fe9 31be c809 543c 4d97 1dbe 97cc 93be
00000070: 45c9 b5be 0348 80be a90d 7cbd 9e82 30be
00000080: 9422 97be 1ca8 61be 6b92 20bd 3671 13be
00000090: 501f f8be c6eb 72bd 001e 0abe 16d5 12be
000000a0: 8f98 edbd ae76 42be 645a d73b b1ee 71be
000000b0: 176c 01be 5b62 f2bd 3013 24be 2a51 93bd
000000c0: 71f3 f2bd 7b43 01be 332a 69bd 5663 b43c
000000d0: e2f1 24be 23d6 24be b488 91bd 7381 e1bc
000000e0: 445d d93c 6e73 8abe 7990 15be a38d 223d
000000f0: 24bd 96be f9d6 09be 03eb 693d cf22 3abe
-0.22655194 -0.20485808 -0.029215101 -0.19476756 -0.2512566 -0.034141514 -0.15358093 -0.108628765
-0.18147118 -0.16993102 -0.06833184 -0.09281933 -0.17725776 -0.1398693 -0.2686842 -0.22684218
-0.085620776 0.11744134 -0.09952533 -0.16847976 -0.026398523 -0.043425586 -0.15998037 -0.16463557
-0.17374228 0.012941785 -0.15389748 -0.28867027 -0.3550512 -0.2505494 -0.061536465 -0.17237327
-0.2951857 -0.22036785 -0.039202135 -0.14398655 -0.4846139 -0.059306882 -0.13488007 -0.14339098
-0.11601364 -0.18990585 0.0065720547 -0.2362621 -0.12638889 -0.11835166 -0.16022944 -0.07193215
-0.11862839 -0.12623398 -0.05692501 0.022020023 -0.16107896 -0.16097312 -0.07106152 -0.027527547
0.02653373 -0.2704119 -0.14605893 0.039685857 -0.29441178 -0.13460912 0.05710889 -0.18177341

actor.4.weight f4 [32, 64]
00000000: d0ad 523e 9c19 8e3e d3d7 dc3d 8441 073e
00000010: 6fd4 f2bc 844b acbd 9c26 ec3d 9177 67bd
00000020: 85b0 c13d 603a 92bd 46f9 3bbd 9490 523e
00000030: 078a 0d3d dc51 713d c78c fc3c 54b5 f13d
00000040: 92af ee3d 5cb2 513e 9283 38bd aa13 e7bc
00000050: 3df8 0b3c b8e9 c43d 18d5 183d 12a4 5d3e
00000060: a692 63bc 9e47 ef3d 1ac1 163d 127f 363b
00000070: 9eca fe3d 28d6 8c3c d00a 63bd 2c0d 913d
00000080: ebbd 6d3e 2e7a eb3c 6dde 18be a947 a4be
00000090: 394e e43e 152e ab3c d9ae 173b 73bb a93c
000000a0: d127 ad3d 4b20 863d 3c22 2cbd 8370 cc3d
000000b0: 68c6 2a3e 9e1a 1a3e 024c 21bd 5019 a1be
000000c0: 47f0 77be 614b da3c 9d2d 533d c9e3 b6bc
000000d0: ac90 bc3d f0f8 723e 0f95 eebd 3bd6 a83d
000000e0: 87b9 34be 532b 21be 134f d53d 682f c43d
000000f0: 89bc 193e f772 fa3d 6d22 74be bd6f d2bd
00000100: eb19 6abe e44a 6cbd 56e6 d2bd 3090 47bd
00000110: a4dd b8bc f797 5bbd 35a9 473d 5737 083e
00000120: 5864 4ebc fd0f edbd e98a 323c f0b0 37bd
00000130: fea7 563e b6a6 85be 2617 273e 2388 063e
00000140: 0e02 7a3e 5df1 22be 787a 0abe cbd9 9a3d
00000150: 4b92 aa3b 6e83 03be 4810 e53c 5c94 87be
00000160: 6196 6ebd 4780 49bd f76d 193e aa34 0d3a
00000170: 8fa1 08be b4f3 8bbd b35b 80be b18b 5fbe
00000180: 2c29 15be 234b 353e 368e 693d bd29 8ebe
00000190: 2129 09be 594d d1bd 15da 54bc c37c 6fbe
000001a0: b0db 3b3e 0480 9cbe dd7f d73d 6919 11be
000001b0: e89e a13e 08e2 633e dc72 6b3e 239e a1bd
000001c0: 0c89 913d 7ca5 b53d 11b1 9ebc 32da f53d
000001d0: 2ad1 20be d402 bb3e 0e70 3bbd 30d7 e7bc
000001e0: d9a3 ffbd bcb3 a9bd 5ba2 233d f593 b7bd
000001f0: c91d ba3d 154c 9dbd 5bee 033e a06b 313e
00000200: fbb0 7b3e 1277 ebbd 69a8 34bd fb4c 623e
00000210: e443 1f3e f33d 05be 5148 0abf b2be ca3b
00000220: 1942 103e 37f3 dbbe 9458 47be eefa 4fbe
00000230: bb91 98be 4136 9b3d a8c9 b9bd a368 0c3e
00000240: e4b5 77bc 8dfd dbbe 97d0 02bd ac06 3c3e
00000250: ba60 f93c 05de 30be 2f27 cdbd 0850 b4bd
00000260: f53c 0fbc d3d3 82be 6cf9 f8bd 2a6b 0abe
00000270: ec54 f13d 1503 54bd 85a1 a3be ec3c f2bc
00000280: aff0 8c3d 8096 6f3d e950 703e 9232 93bd
00000290: 51e8 d83d 4458 0cbe 63b8 acbc e621 743d
000002a0: 45c3 95bd 9f4b 793e d6a3 093d b47f 1a3d
000002b0: 127f 47be 16d6 71be 6cfc 963d 0820 c83c
000002c0: 32a3 b6bb 29eb babc d707 eabe 6ec5 0abe
000002d0: e92f 23bd 0278 85be 2483 acbd 58e4 6cbb
000002e0: 42ad 08be 4ce7 2bbe 819c 23be fdca 9b3d
000002f0: 308e e73c 255a a83b ae01 163d 3ad2 b6bd
00000300: 6813 273e b8ae ed3b 73fc a73d 6f88 d4bd
00000310: e978 c53d 3999 18be b857 e23d 4b99 423e
00000320: 23b6 793e 7297 0cbe 1f1a 14bb 6290 b53b
00000330: 330f d0bc 4e9d 7ebe 0212 043e 0c12 c13e
00000340: d0e8 603e 3c1c 80bd 0d87 39bd fe5a 8a3e
00000350: ea83 373e 5f4b bebd 9a3c 483e ba3e bf3d
00000360: 6e61 403e 7ac0 263e 8b89 043d a1b3 23be
00000370: bc44 40be 1293 1ebe 0de6 9b3d 74f5 00bf
00000380: c675 9bbd 6817 173c d51e bfbd f203 223e
00000390: eb8e d43d a977 4cbd c5fc 23be c4d9 873e
000003a0: c7f0 34be 8850 78be c821 86bd 1647 5b3d
000003b0: e4c2 693d c89b 873d 8671 303e ed15 7a3d
000003c0: efd5 013d 410d 493e 860c fb3d bd90 eb3c
000003d0: d695 d63d afb3 a4bc 26d1 423e dc64 193d
000003e0: 14a7 86be 9229 a23d f2fc 0cbe cc7e 293e
000003f0: 337a 10be d6ea babe 7b07 4bbd c46a e73d
0.20574117 0.27753913 0.10783353 0.13208586 -0.029642312 -0.08412841 0.11530802 -0.05651051
0.094574966 -0.071400404 -0.045892023 0.20562965 0.03455546 0.058915958 0.030828847 0.11802164
0.11654581 0.20478195 -0.04504735 -0.028207619 0.008543071 0.09614891 0.037312597 0.21644619
-0.013889944 0.11683582 0.03680525 0.0027846736 0.1244099 0.017191961 -0.055430233 0.070825905
0.23216979 0.028744783 -0.14928599 -0.32085922 0.4459093 0.020895997 0.0023144989 0.020719266
0.0845486 0.06549128 -0.042024836 0.099823974 0.16677248 0.15049216 -0.039379127 -0.31464624
-0.24212752 0.026647272 0.051557172 -0.022325413 0.092072815 0.23727775 -0.116495244 0.08243986
-0.17648898 -0.15739183 0.10415473 0.095793545 0.15013327 0.12228959 -0.23841257 -0.10275219
-0.2286145 -0.05768861 -0.10297839 -0.048721492 -0.022566624 -0.05361172 0.048745353 0.1330236
-0.012597166 -0.11575315 0.010897377 -0.044846475 0.20962521 -0.26103753 0.16317424 0.1313787
0.24414846 -0.15912385 -0.1352328 0.07561072 0.0052054278 -0.12843105 0.027961865 -0.26480377
-0.05824888 -0.0491946 0.14983355 0.00053865707 -0.1334288 -0.06833592 -0.2506996 -0.21830632
-0.14566487 0.17704444 0.05702039 -0.2776622 -0.13394596 -0.10219831 -0.012991448 -0.23387437
0.18345523 -0.30566418 0.10522435 -0.1416985 0.31566548 0.22254193 0.22993034 -0.0789149
0.07106218 0.08869454 -0.019371541 0.12004508 -0.1570479 0.36525595 -0.04576116 -0.028300852
-0.12482423 -0.08286235 0.039949756 -0.089637674 0.09087712 -0.07680527 0.12883894 0.17326212
0.24579231 -0.1149732 -0.04410592 0.22099678 0.15553242 -0.13011913 -0.54016596 0.0061872834
0.14087714 -0.42958996 -0.19467384 -0.20310566 -0.29798684 0.075787075 -0.09071666 0.1371179
-0.01511905 -0.4296688 -0.031937208 0.1836192 0.03044163 -0.17272194 -0.10017239 -0.08804327
-0.008742561 -0.25552234 -0.121569484 -0.13517442 0.11783776 -0.05176075 -0.31959167 -0.029570065
0.06881844 0.058493137 0.23468365 -0.0718738 0.10591186 -0.13705546 -0.021084016 0.05960264
-0.07312635 0.24345253 0.03360351 0.037719443 -0.19482067 -0.23616824 0.073723644 0.024429336
-0.0055736536 -0.022817211 -0.45709106 -0.13551876 -0.039840613 -0.2606812 -0.084234506 -0.0036146846
-0.13347343 -0.16787452 -0.1597767 0.07607076 0.028266042 0.005137699 0.036622696 -0.08926816
0.16315997 0.007253494 0.08202448 -0.10377585 0.096422024 -0.149022 0.11051887 0.19003789
0.24385886 -0.13729647 -0.0022598577 0.0055408934 -0.025397873 -0.24864694 0.12897494 0.3770908
0.21963811 -0.06255385 -0.04529481 0.27022547 0.17921415 -0.0929172 0.19554368 0.09338136
0.18787166 0.16284361 0.032357734 -0.15986492 -0.1877622 -0.1548579 0.07612238 -0.5037453
-0.07590823 0.009221889 -0.093320526 0.15821818 0.10378822 -0.049918804 -0.16014393 0.2653333
-0.17669974 -0.2424947 -0.06549412 0.05353459 0.057070628 0.0662151 0.17230806 0.061056066
0.031698164 0.19633962 0.12258248 0.02875554 0.10477798 -0.020105211 0.19025096 0.037449703
-0.26299345 0.07918085 -0.13768366 0.16552275 -0.14109115 -0.3650729 -0.04956768 0.11299661

actor.4.bias f4 [32]
00000000: b985 9abc 46df 2c3e ea1e d8be c124 74bd
00000010: ab3e 34bd f178 eabd 1595 8dbd 9191 9fbd
00000020: 8a94 83be 0752 ce3d 59d4 69be 4aca 38bd
00000030: c1bc f6bc e7b0 723c c44c 28be b1e6 20be
00000040: 6dd5 5ebe c94a 61be 3234 87be 1bd7 d53b
00000050: 54fe 8d3d 4544 2fbe 1e21 4abe 3c04 83bd
00000060: 80e3 053d 8bb1 3bbd 0645 85be 5826 2f3d
00000070: 3339 b3bc 544d 2b3e ab84 66bd 2452 f0bd
-0.018862592 0.16882047 -0.42211086 -0.059605364 -0.044005077 -0.11448849 -0.06913201 -0.077914365
-0.25699264 0.10074239 -0.2283491 -0.045114793 -0.030119302 0.014812685 -0.16435534 -0.15713002
-0.21761103 -0.22001185 -0.2640701 0.0065258867 0.06933275 -0.17115887 -0.19739196 -0.06397292
0.032687664 -0.045823615 -0.26029223 0.042761177 -0.02187786 0.16728717 -0.056278866 -0.11734417

actor.6.weight f4 [12, 32]
00000000: acb3 9dbb 5610 1fbe 8129 0b3e ccf1 723d
00000010: f328 d6bd 2d3a 3ebe d895 a0bd 04e1 0c39
00000020: 03a4 1b3d df93 babd a1a0 e2bc 886e 263e
00000030: 4941 4fbd c5e3 873d 1cb5 b83b f35b aa3d
00000040: 8c1e a63c 0d97 adbc cc71 8ebd f766 fdbc
00000050: 6414 56bd 6193 0bba bd41 b6bc 24bc dbbc
00000060: 6f3c 17bc 10c1 123e 8aac 123d 6a8b 313e
00000070: e5fb 163c 09f9 c4bd 6e84 943c 9ca5 9cbd
00000080: b5ef 753d 2668 133e 542d c03d d7b6 32bd
00000090: dba4 7cbd 204b 11bd cc9b 393d a5f0 873d
000000a0: bb83 8dbc 6cdd 153e c734 b7bd 19b3 6b3d
000000b0: 50c5 79bd 2163 8d3d df54 9fbe 8f4c 983d
000000c0: 9537 013c 7431 b33d 925c dcbd 14c6 cfbc
000000d0: 229b 37be 7b2f 85bd 2a76 4fbd 6dc6 ea3d
000000e0: e39d 493e 9cd7 d63c 1503 883d 84c2 ef3d
000000f0: 3f9d e9bd 60fb 9fbc b5da 1bbc b6e3 03bd
00000100: 99b5 94bd ad8e 82bd 67c8 31bc 404c 18bd
00000110: f112 99bd 2b5e f23d 8c3a 8d3d fe79 153d
00000120: 74d1 53be 1e1a 6d3c 9107 c1bc 7303 043e
00000130: 2152 f9bb 5f0c c2bd 3d2b 693e a3ad 5abd
00000140: a43c c8bd 83e5 03bd 86c6 1d3e 2948 303d
00000150: a16e bb3d bcb2 0d3e cd80 2c3e 338f 9f3e
00000160: 10ea 35be 6a55 263e b18d db3d 2922 83bd
00000170: 38e9 85bd 5d48 a4bd 6967 24bd 34c5 073b
00000180: 96d1 803d 7fc1 a3bd ffa4 783e 18ca a5bc
00000190: 14d7 88bc fda7 073e ca02 d4bc 9cd7 4abd
000001a0: 771e e03c 09b7 aa3d 669c 9abc c679 80bd
000001b0: c81e 3bbd e79c 153d e77a e43c 2fc4 223c
000001c0: 5311 b73d 0b64 d63c bf87 803d 3557 12be
000001d0: 119e 663d 545f 9cbd a203 493d 37eb b93c
000001e0: 32d8 81bd 18d3 d13d a6c3 0abb cabe 33be
000001f0: 3a34 bebc 88d1 c3bd a525 78bd 4e32 4a3e
00000200: 711c 4bbc 3576 7cbd 0042 e6bc e2ad 69bd
00000210: 24b5 40be 199d 19bd 2329 26bc 0932 e5bd
00000220: f6eb 56bd 7bf2 e93d ebb8 973d 8a5d 05be
00000230: 8921 d33c 2cbb d0ba 9f69 8cbd dd9f 30bd
00000240: 35ec e8bd 4dbd acbd e2f9 3cbe 26ee ad3d
00000250: e0b0 ac3c 499c 14bd 30f4 51be d187 6a3c
00000260: c500 2ebc 0a15 75bc af33 d83d aea4 533e
00000270: 5e84 b73c 2dbc 70bd e3a2 bbbd a86b c23d
00000280: 4ca6 2e3e 88b8 0ebe ddab 643d 4088 d7bc
00000290: e8f1 a83d a3b0 a13e 275b 7f3d d9b7 b53d
000002a0: f81e 143d d014 97be 412f 0dbe 3046 21be
000002b0: 6fdf a63d 4d0c 1fbd e13a c93c 54ae 06bd
000002c0: 7557 1fbd aa5f 243e a360 b4bd 1b2c 04bd
000002d0: 9e8f 283d 5aa6 353e df12 8d3d 87a2 133d
000002e0: 5b43 053e 1c90 eabc e747 373b f579 d9bb
000002f0: d8d9 e5bd 9f02 913d 6f27 2bbe 6297 1cbe
00000300: 69af 123e 42f2 5c3d 16ee dabd 9836 b0bd
00000310: 540a 2ebd eaff 41bc 1f3e 2e3d 9ae8 a4bd
00000320: b6de e8bc 1646 183e d934 35be 65eb 503d
00000330: ff40 893d 6f1e 873d 5bc6 a53d ec19 20be
00000340: eff4 a8bd 4b8f 7cbd 8e0d a73c 51cf 1a3d
00000350: 2126 943d 2960 4bbe 1bae da3d 697b ebbc
00000360: 5f7d 8fbd cb26 53ba d74b 5bbd bb28 343e
00000370: 7949 9f3d 0e00 17bd 16e3 933d 9bd5 003d
00000380: 3b7e dc3c 2f01 c6bd 541b 0cbe 18a3 59bd
00000390: f614 ba3d 05a3 40be cf86 6e3c 4bac 55ba
000003a0: 3eda 193e 3d59 3b3d 0e97 843c e1fe 96bb
000003b0: 9466 a53c 9542 56bd 2569 dfbb 7f8f 86bc
000003c0: b745 a4be c3bd 163d f62e e6bc 68c8 35bd
000003d0: 7781 383d 7a4f fa3d 64d4 b4bd 6167 3e3e
000003e0: c093 9b3d 99e1 4dbe 3ccb 073e 74a2 dabd
000003f0: c966 7a3d 4ab0 11be 09e5 6fbd c8e9 e03d
-0.0048126783 -0.15533575 0.13590051 0.059312627 -0.10457029 -0.1857688 -0.078410804 0.00013435265
0.03799821 -0.091102354 -0.027664484 0.16253102 -0.05059937 0.066352405 0.0056368243 0.08318319
0.020278238 -0.02119019 -0.06955299 -0.030932887 -0.05226554 -0.00053243904 -0.022248143 -0.02682311
-0.009230717 0.1433146 0.035809077 0.17338338 0.00921533 -0.09617812 0.018129554 -0.07648775
0.060043056 0.14395198 0.09383646 -0.0436314 -0.061680656 -0.035472035 0.045314595 0.06637696
-0.017274728 0.14635247 -0.08945613 0.057543848 -0.060979187 0.06903673 -0.3111944 0.074364774
0.007886787 0.08749667 -0.10759844 -0.025363006 -0.17930272 -0.06503197 -0.0506498 0.11463628
0.19689135 0.026225857 0.06641213 0.11707023 -0.114069454 -0.019529045 -0.009512593 -0.032199584
-0.072611995 -0.063748695 -0.010851002 -0.037182093 -0.07474316 0.11834367 0.068959326 0.036493294
-0.20685369 0.014471559 -0.023563178 0.12891941 -0.0076086675 -0.09475016 0.227704 -0.05338825
-0.09777191 -0.0322013 0.15407762 0.043037567 0.0915196 0.13837713 0.16846009 0.3116394
-0.17765069 0.1624352 0.10720385 -0.06403 -0.065386236 -0.08021615 -0.040137682 0.0020716907
0.06289975 -0.07995891 0.24281691 -0.020237967 -0.01670412 0.13247676 -0.025880236 -0.049522027
0.027358277 0.083356924 -0.018873405 -0.062732264 -0.045683652 0.036526587 0.027890636 0.009934469
0.08938851 0.026170751 0.062758915 -0.1429108 0.056303088 -0.0763537 0.04907573 0.022695167
-0.06340064 0.10245341 -0.0021173744 -0.17553249 -0.023218263 -0.09561449 -0.060582776 0.19745752
-0.012396918 -0.06163617 -0.028107643 -0.057050593 -0.188191 -0.037503336 -0.010141644 -0.11191184
-0.052471124 0.114232026 0.07408317 -0.13023964 0.025772827 -0.0015924922 -0.06856083 -0.043121208
-0.11373178 -0.08434544 -0.18454698 0.08492689 0.021080434 -0.036281858 -0.20503306 0.014314608
-0.010620301 -0.014958629 0.10556733 0.20668289 0.022401985 -0.05877321 -0.091619276 0.0949319
0.17055625 -0.1393758 0.055827964 -0.026310086 0.08249265 0.31580076 0.06234279 0.08872957
0.036162347 -0.29508066 -0.13787557 -0.1574943 0.08148085 -0.03883009 0.024564208 -0.032881096
-0.038901765 0.16052118 -0.088074945 -0.032268625 0.04115259 0.1773924 0.06888365 0.03604367
0.13013975 -0.02863317 0.002796644 -0.006636853 -0.11223191 0.07080578 -0.16714261 -0.15292123
0.14324726 0.053941973 -0.106899425 -0.08604163 -0.04249032 -0.0118408 0.042539712 -0.08052178
-0.02842651 0.14870486 -0.17695941 0.05100574 0.0670185 0.065976016 0.08094474 -0.15634888
-0.082498424 -0.061660092 0.020392206 0.03779537 0.07233835 -0.19860901 0.10677739 -0.02874537
-0.070063345 -0.0008054792 -0.053539123 0.17593662 0.07777686 -0.036865287 0.072210476 0.03145371
0.02691566 -0.096681945 -0.136823 -0.053134054 0.09086029 -0.18812187 0.014558508 -0.0008150979
0.15024659 0.0457394 0.01618531 -0.0046080207 0.020190515 -0.05230959 -0.006817954 -0.016425846
-0.32084438 0.036802065 -0.028098565 -0.044380575 0.045045342 0.1222219 -0.08829573 0.18594123
0.075965405 -0.2010559 0.13261122 -0.10675517 0.06113318 -0.14227405 -0.058568034 0.1098209

actor.6.bias f4 [12]
00000000: 8b50 45be 220c d63a 1b2d c83d af81 30be
00000010: d854 73be d98a 8abd 0c04 343e 2975 293c
00000020: 5ba9 e3bc 537c 283e f376 acbd 863a 07be
-0.19269006 0.001633052 0.09774228 -0.1723697 -0.23762834 -0.06764764 0.17579669 0.010342875
-0.027790716 0.16453676 -0.08421125 -0.13205919

critic.0.weight f4 [128, 48]
00000000: 9a08 a93e 27b4 6e3e ae44 473f 87ee 4dbe
00000010: 2c00 113f 0f24 04bf 32da 73bf 0785 4c3f
00000020: f883 25bc cdd6 31be b0d5 c0be 8f3d 433f
00000030: 44d3 7bbc 7f45 ebbc 9e2e 273d 673d 8abd
00000040: c2c8 27be c3f1 8bbe 8b10 9fbe c270 843d
00000050: 74da 84bd 723a 99be 3b60 c23b 8f1c 27be
00000060: 96e7 753e be15 86be 1ff7 86bd 346c 95be
00000070: 8007 8abe b11d ce3d bdde 5cbe a396 043e
00000080: b29c 29be 41e8 b1bd 95df 0b3d c4b7 a33d
00000090: 7c5e 2a3d 9b19 943c 7fb9 14bd 399f 3ebd
000000a0: bd6c 8f3b 44a4 5fbd 0d48 133b 5b89 24bc
000000b0: 47d8 30bd 04fa b33c 5a44 aabd 1999 d43d
000000c0: 6977 813e 7145 333d 92c5 873d 6400 10bd
000000d0: b6c5 6f3e 1c7c 3ebd 15fe ac3f 7972 9e3e
000000e0: 3513 3d3d 75b1 9dbd 9541 83be ada0 183f
000000f0: 56b2 ff3c 53f7 dc3e 1ef4 913e b097 1b3e
00000100: fddb 273c 6ce6 43bc 5a79 963e 8793 a83e
00000110: 3baf 953e 053f 80be 19b9 6abe 4777 5dbd
00000120: 4d5e 05be a425 cf3e 0daa 693e 6b15 043e
00000130: efc6 8dbd a2c2 a6bd 61a3 1d3e 2800 c5bd
00000140: 8430 003e 45ef f8bc 5b31 73be e712 4e3c
00000150: 76b1 f5bc a698 633d ba72 dabd 22b1 6b3d
00000160: 9b13 54bb 2df7 ab3d eae8 2c3d 1a0f 183d
00000170: f9da cebc c140 8a3d af4a 373c 17e7 39bd
00000180: bc4a b0bd d995 c13d 279c 4e3e c85b b3bc
00000190: 0e90 a33d aa15 b33e 2c2f b3be d631 9f3e
000001a0: c571 ce3d 80b6 c23c 5197 26be 4302 8a3f
000001b0: e84d e5be 1e11 d6be ba73 b8be f44d 07be
000001c0: 6c9b 493d 36db d93d 2ae5 8f3e 259a 113e
000001d0: f5b0 b83d 7327 e33d 3ce6 54be 07e1 0f3d
000001e0: e0f8 1f3e 4116 76bc 9f19 8cbe 5da7 96be
000001f0: fa8b af3e 3ad3 87bd d019 373e d30f d0bc
00000200: 0335 0b3e 39bc c3bd d65b 8d3c e8fb 3939
00000210: 33bf 783d 2e64 9fbb 73d6 c9bd e34d 94bd
00000220: ab85 8439 e9cb f93b 3da9 1dbd 6825 0c3c
00000230: f046 a13d 3260 dfbc 863c 1abd 8e73 ab3c
00000240: 1860 f8be 480d 3abd 08c8 fb3d 4544 d1bd
00000250: a5fb ecbe 2e6f 6cbe 6a06 00c0 fadc c4bd
00000260: 12af 4b3d 26b1 f6be 1016 2f3e bc69 543e
00000270: f43b cc3e b079 91be 45fb 9cbe 7c91 34bf
00000280: 3b15 d1be 5cd7 a0be a2ac ccbe f17f 5bbf
00000290: 5bd1 b9be 158c 333f a48b 6bbe 5711 c1be
000002a0: 1b4d 653e 6548 8b3e 961e 1fbc 62b8 7fbe
000002b0: b8d8 3e3e 753a b1bd c738 88be e583 b6bd
000002c0: 4458 01be c62c 6a3e b88d 163e fa05 8fbd
000002d0: 6bde 6bbb fe76 e93b 70dc 073d e21c 8fbc
000002e0: 6496 8cbb f9e1 1c3c 6eff 4b3d 60e3 febb
000002f0: 047c f6bb 9de6 233c c823 e23c 977f 47bd
00000300: 0683 21be 2296 9d3d d981 5c3d 18b2 a03d
00000310: dd03 613f 7e93 0b3d c93f 073f 448a 00bf
00000320: f478 babd ad07 c1bd 0941 423e ef8f 1bbf
00000330: acf5 543d e94b 10be 27e7 d9be d0f6 2a3e
00000340: 56ea cabd 97a3 c2be 1661 65bd 1fda a03e
00000350: c9e1 8f3e 84a2 53be 3b31 9d3d e656 453e
00000360: b6fb 433f 9784 2a3f f208 1dbe 28d2 9ebd
00000370: 7087 bf3d 799d 2f3d b299 9abe 18ab 533e
00000380: 277e 773e 1c91 24bc 3a6e 8abc 6e52 103e
00000390: 3095 003d 047f 653d 3d0b 86bd bc57 aebd
000003a0: e745 a33c e955 ad3c b188 1bbd 156f 31bc
000003b0: 11e1 cd3d 2abd 1abd 5210 55bd af4a c2bc
000003c0: df46 573e f371 e0be 4af9 75be 92b1 5a3d
000003d0: d65e 043f 348d 943d be63 853f d4c4 40bf
000003e0: c2c8 02be 9a7e 96be 6bc7 e13d c677 be3e
000003f0: 9ee6 413d a934 f93e 170a 613d 1895 cb3e
0.33014375 0.2331091 0.7783917 -0.20110522 0.5664089 -0.5161752 -0.95254815 0.79890484
-0.010102265 -0.17367096 -0.3766303 0.76265806 -0.015370194 -0.028719662 0.040815942 -0.06749993
-0.16385177 -0.27332887 -0.3106731 0.06466819 -0.06486979 -0.29927403 0.0059318817 -0.16319488
0.24014124 -0.26188463 -0.06590103 -0.29184115 -0.26958847 0.10064257 -0.21569343 0.12948088
-0.16563681 -0.08686877 0.03414877 0.07994035 0.041594014 0.018078616 -0.036309715 -0.046538565
0.0043769763 -0.054600015 0.0022473366 -0.010042514 -0.04317501 0.021969803 -0.08313818 0.103807636
0.25286415 0.043767396 0.066294804 -0.035156623 0.23415264 -0.04650508 1.351504 0.3094671
0.046160895 -0.07699863 -0.25635973 0.5962017 0.031212967 0.43157443 0.2850656 0.15194583
0.01024532 -0.011956792 0.2938946 0.32925054 0.29235253 -0.2504808 -0.22922172 -0.05406883
-0.13024254 0.40458405 0.22818775 0.12898795 -0.06922709 -0.08142592 0.15394355 -0.096191704
0.12518507 -0.03038753 -0.23749296 0.012577749 -0.029991847 0.0555655 -0.106664136 0.057541974
-0.0032360319 0.083967544 0.04221431 0.037123777 -0.025250899 0.06750632 0.01118724 -0.0453864
-0.086080045 0.09452409 0.20176755 -0.02189435 0.079864606 0.34977466 -0.34996927 0.3109271
0.100802936 0.023768663 -0.1626866 1.078194 -0.44786 -0.41809934 -0.36025792 -0.1321333
0.049220487 0.10637514 0.28104526 0.14218958 0.09018127 0.11091509 -0.20790952 0.035126712
0.15622282 -0.015019954 -0.27363297 -0.29424563 0.3428648 -0.06632085 0.1788094 -0.02539817
0.13594441 -0.09557385 0.017255705 0.00017736817 0.060729217 -0.0048642373 -0.09855356 -0.07241418
0.00025276592 0.007623185 -0.038491476 0.00855384 0.078748584 -0.02726755 -0.037655376 0.020929124
-0.48510814 -0.045422822 0.12294012 -0.102180995 -0.4628574 -0.23089287 -2.0003915 -0.096124604
0.049727507 -0.4818203 0.1709826 0.2074346 0.3988949 -0.28413153 -0.30660453 -0.7053449
-0.4083651 -0.31414306 -0.39975458 -0.857421 -0.36292538 0.70135623 -0.23002487 -0.37708542
0.22392695 0.2720367 -0.009711882 -0.2497268 0.18637359 -0.08653728 -0.26605818 -0.08911876
-0.12631327 0.22868642 0.14702499 -0.06983562 -0.0035990726 0.0071247807 0.03316921 -0.017469827
-0.004290389 0.00957536 0.049804144 -0.00777857 -0.007522108 0.010003713 0.027604952 -0.048705664
-0.15772638 0.07694651 0.05383477 0.07846469 0.8789652 0.034076206 0.52831703 -0.50210977
-0.09105101 -0.09425292 0.18970121 -0.607665 0.051992103 -0.14091457 -0.42559168 0.16695714
-0.09907977 -0.38015434 -0.05600079 0.31416413 0.28101948 -0.20667464 0.076754056 0.1927143
0.76555955 0.66608566 -0.15335444 -0.07754928 0.093520045 0.042874787 -0.30195385 0.20670736
0.24169217 -0.010044362 -0.016898263 0.14093944 0.031392276 0.056029335 -0.06545112 -0.08512828
0.019930793 0.02115913 -0.037972156 -0.010829707 0.10052694 -0.037778057 -0.052017517 -0.023717253
0.21023129 -0.43836936 -0.24020877 0.053392 0.5170721 0.07253495 1.0421064 -0.75300336
-0.12771896 -0.29393464 0.11024364 0.37200755 0.047339074 0.4867299 0.054941263 0.39762187

critic.0.bias f4 [128]
00000000: c0de 9b3e 6ae6 bebc 27e8 94be a91c b0be
00000010: 09a8 d6bd 057e 573e bf44 58be 52fb c33c
00000020: 6024 ee3c a1d9 113d 5b27 7dbe 064f e73d
00000030: e786 3abb 97a7 5abd fc5a d93c 17c1 1bbc
00000040: 1f70 503e 4cfb 5ebe b755 30bc 32fd 89be
00000050: 67c0 663e 4fd5 6cbe a379 1fbe bac1 b4bd
00000060: 8a1e 72bc 07d5 46be 56dc 2ebd 2d86 6d3d
00000070: 4459 4c3d e3c7 91be cfe8 44be 88be 82be
00000080: 920f adbe 8b02 97be c80e 39bd 6481 0fbe
00000090: 6392 813e 1650 30bd daae e8bd 850b 83be
000000a0: f5d3 b3bd 91fa 42bd f9a3 1dbd becc 52be
000000b0: 678b 94be 9ce4 b7be 5c8f 65be 31f5 4cbe
000000c0: c524 9abe fb6b 9ebe 8335 98be 4ae7 e4bd
000000d0: 096f 70be a9da 77be c245 32be 5750 83bd
000000e0: 701b 89be 762d fb3b 3566 9fbe ed77 0d3e
000000f0: 22a3 aa3b e14d 94be 3029 99be cb83 30be
00000100: 0dad 23be df8c cc3b 1e6a 773e 993f 633d
00000110: 7253 c7bd 6020 613e b40b 4d3e 23b3 893e
00000120: 223d 29be d583 31be a985 993d 00c9 2fbe
00000130: 1bb0 65be 9834 93be cf01 1a3e 1f5f 0bbe
00000140: c00a 383e ac9f 25be 6c85 88be cec3 c8bd
00000150: 937d 813e 6477 503c a04b 9abe e311 98be
00000160: 8891 54be 21db 36be b268 0f3d e8c7 83be
00000170: 864f 363d 5bd8 973c 63c4 d2bd 9975 3cbe
00000180: 5b7b 09be 487c 63bd 4b38 b23b d7b0 f5bc
00000190: e127 ae3d 1ddd 82be 866c cbbd 928a 303e
000001a0: 056d 27bd 3ff5 643e b98f e8be dbc3 40be
000001b0: a0d9 283e 78ba 07be 16a1 0ebe 67b3 ebbd
000001c0: 3d1b 2c3d 20f5 2ebd 1344 8dbe 7ec0 3d3d
000001d0: 34d4 0cbe d555 e7bd ec41 00bd dd87 363e
000001e0: 290c 97be 8da9 22be 0db3 6cbd aefe e93d
000001f0: f7e0 9dbe 02de 4bbe 4267 07bd e77a b7be
0.30443382 -0.02330323 -0.29083368 -0.34396866 -0.10481269 0.21044166 -0.21119975 0.02392355
0.02907008 0.035607938 -0.24722044 0.112943694 -0.0028461756 -0.053382482 0.026532643 -0.009506485
0.20355271 -0.2177555 -0.0107626235 -0.26950985 0.22534333 -0.23128246 -0.15573744 -0.08826013
-0.014777789 -0.19417201 -0.042690597 0.057989288 0.049889818 -0.28472814 -0.19229434 -0.2553599
-0.33800942 -0.29494128 -0.045180112 -0.14014202 0.25306997 -0.043045126 -0.11361475 -0.25594726
-0.08780662 -0.04760224 -0.038486455 -0.20585915 -0.29012606 -0.35916603 -0.22417969 -0.20015408
-0.30106178 -0.30941758 -0.29728326 -0.111769274 -0.23479857 -0.24204506 -0.17409423 -0.06411808
-0.26778746 0.0076653315 -0.31132665 0.1381528 0.005207435 -0.28965667 -0.29914236 -0.17237775
-0.15983982 0.006242379 0.24161574 0.055480573 -0.09732713 0.21985006 0.20023996 0.26894483
-0.16527227 -0.17335446 0.07496197 -0.17166519 -0.2243046 -0.28751063 0.15039752 -0.13610505
0.17972851 -0.16174191 -0.26664293 -0.09802972 0.25291118 0.012723777 -0.30135822 -0.29701146
-0.20758641 -0.17857029 0.035011955 -0.25738454 0.044509433 0.018535784 -0.10291364 -0.18404235
-0.13425963 -0.055538446 0.0054388396 -0.02999155 0.085037 -0.2555932 -0.099328086 0.1724036
-0.040875454 0.22359179 -0.45422152 -0.18824713 0.16489267 -0.13254726 -0.13928637 -0.11508828
0.042018164 -0.04271424 -0.27591 0.046326153 -0.13752824 -0.11295668 -0.031312868 0.17825265
-0.29501465 -0.15884991 -0.057787944 0.114255294 -0.30835697 -0.19908908 -0.03305746 -0.35835955

critic.2.weight f4 [64, 128]
00000000: 4239 4ebe 5131 a6bd dc64 82bd aab2 adbe
00000010: e281 da3d 0152 fcbd 352b d2bd a808 b7bd
00000020: 3c85 a9bd 4da5 56be 38e3 963d 42eb a2be
00000030: 6dda a63d 1b91 1bbc 0588 8c3d 8cec 383e
00000040: c0cc 883c 5ee1 f6b9 ff74 653e dd3e 67be
00000050: a7ef 053e 77f8 113e 7dff 7b3e 6f92 edbd
00000060: f85e 873e ba08 043e 168e 57be 8909 ffbd
00000070: 4759 0bbe 687b 4fbe 92ff 85be 8680 b9be
00000080: bfda 9cbd 28e8 24bd ba23 bbbe 34fd 683d
00000090: 3708 203e 0a24 34be 1153 723d 91be bcbd
000000a0: 0c75 1b3e 9768 043d 7338 5d3d 1008 76be
000000b0: a9ed e4bd 2e35 18bd b588 e6bc 4771 903d
000000c0: f6d7 efbd d111 49be da59 55be c9ba b13c
000000d0: 0cf0 563e 28aa 28be 1830 86be 91af ce3d
000000e0: 6cd8 273d 8ef8 ce39 b91a 57be 11ef 833d
000000f0: 2b2c bb3c 4d85 aa3c 513f a0bd 2088 1bbe
00000100: cd13 f43d 4cb4 803e 3290 a53d f872 1abe
00000110: ab69 0ebe 8f97 98be 2e87 d83d d62a 9bbd
00000120: 3cfd 8bbd c343 1ebc 7a28 94be ce03 003e
00000130: b384 5bbe d284 6a3e 4212 e1bd dc0f dbbd
00000140: 8f65 503d 8f1d e2bd d251 c9bd 0327 0b3e
00000150: dfb4 cfbd b87d d23d 965d c83d 68c8 83be
00000160: d33a 363e 76b3 c5bb 743a 10be 1ca2 353d
00000170: 086a cf3d e586 1b3e a286 4c3e cafc 093d
00000180: 5d0e f73d fce2 073e 86a1 843d 97c1 f5bc
00000190: 15cb 0f3e cf1b e3be 5ac3 8a3e ce68 6f3e
000001a0: 12f2 113e 15b5 d5bd 4b7e febd a78d 333e
000001b0: 9116 13bb dbe3 c7bc 6f8f a7bd 75ce 5c3d
000001c0: a532 3ebe 0e1b 7abd 5b78 00be 656b f53d
000001d0: 0bb5 a9bd 87cb b13d 036e 793e fdd2 373d
000001e0: 5809 16bd 96b7 52be a5bb 893d e531 e6bd
000001f0: 4db1 ecbc aa2c 5c3e a7bd 2c3e 4b72 a5bd
00000200: b535 81bc 3d97 32be a7fb ce3b 859d cabd
00000210: 84cb c0bd 054f 9dbe cfeb c53d 0c0e 2f3e
00000220: 7436 ffbd 85c4 77be 3153 e63d cf07 f3bd
00000230: 2e2b 9dbd 78df 4d3b 0e05 8b3e fea3 e93c
00000240: 92c5 82bd 20a3 82bb 503c 50bd be77 583e
00000250: b83d 85bd 7aac c13d b8a1 4ebd 039b f1bd
00000260: 51d3 1cbe 3d3b 17bd 9b92 6bbd 68f7 5dbd
00000270: 7dd6 22bd ecad d23d 0072 84be 8d2c c93d
00000280: 0340 87bc 040e 903d 2a72 0abd 0b5d a7bc
00000290: f0ce 293c af2d 4c3d b5bb 293e a9f6 69bc
000002a0: 027d 18be ce1c c6bb 15f3 b2bd 272a 0bbd
000002b0: 2c37 09bd 63af 023e a6d8 1abe a12f edbd
000002c0: 26cb 043d 0463 3c3e 6e22 ce3d fed2 8d3d
000002d0: 3a8e 1dbd 6f15 b73d 16e5 2fbd 3f30 48be
000002e0: 2f63 20be 8811 843d 023b 05be f78f 0c3d
000002f0: 5d88 01be f44a c43d 73d8 da3d a8a5 6ebc
00000300: 859a e6bc cc41 59be 4917 083e da2b 38bc
00000310: 2859 f13d b8ad 78bc bce3 9dbd 3b37 d83d
00000320: 68f5 1cbd 46b3 633d 04bc f03c e40c 81be
00000330: 9abb 2cbe 7e05 3fbe 5f96 0b3d e1be 0f3e
00000340: 55bc 43be d5e5 0dbd 7973 153e 67a9 b13d
00000350: a6bb 83be 4689 283e 9ee9 b3bd 4271 22bc
00000360: 7b79 17be c29c 21be e285 a1bd 1989 bc3d
00000370: 147a 95bc aa63 9f3c 131c 74bd 64f1 833d
00000380: 96fd 2ebc d640 2f3e af03 fabd 1502 abbd
00000390: da7c fa3d 7d34 9cbb 49e2 153d 6a49 91be
000003a0: f4c8 7cbd 93d7 f1bd c352 7dbe 8c39 883d
000003b0: bc1d 92bd f4ee 843d 326b 53bd ceb0 3f3e
000003c0: 5fb2 17bd 2dc7 2b3d 2648 31bc 3607 54be
000003d0: 44d8 53be 1be5 b6bd 80a4 1dbe 5667 26be
000003e0: 274c 5fbe 4ea6 473c 8527 dfbc 1a6f 433c
000003f0: 6d8b 44bd 9045 a5bd 7e12 73bd a24e 033d
-0.2013903 -0.08114875 -0.06366894 -0.33925372 0.106693044 -0.123203285 -0.10262147 -0.08937198
-0.082773656 -0.20961495 0.07367557 -0.31820112 0.0814713 -0.009495045 0.06861881 0.18058985
0.016699195 -0.00047088688 0.22407912 -0.22582574 0.13079701 0.14254938 0.2460918 -0.116001956
0.26439643 0.12893954 -0.21050295 -0.124529906 -0.13608275 -0.2026192 -0.26171547 -0.36230868
-0.0765891 -0.040260464 -0.36550695 0.0568821 0.15628134 -0.17591873 0.05916125 -0.09216035
0.15181369 0.032326307 0.054008912 -0.24026513 -0.111781426 -0.03716009 -0.028141359 0.07052856
-0.11711113 -0.19635703 -0.20835057 0.021695511 0.20990008 -0.1647116 -0.26208568 0.100920804
0.04097788 0.0003947657 -0.21006288 0.06442083 0.02284821 0.020815516 -0.07824577 -0.15188646
0.11917839 0.25137556 0.08084144 -0.1508292 -0.13907497 -0.2980313 0.105726585 -0.0757653
-0.0683541 -0.00965971 -0.2893713 0.12501451 -0.2143734 0.2290223 -0.109898105 -0.10696384
0.050878104 -0.11040794 -0.09830059 0.135891 -0.1014192 0.10277885 0.09783475 -0.25738835
0.17795877 -0.0060333563 -0.14084798 0.044344053 0.10127646 0.15188177 0.19973233 0.033688344
0.120632865 0.13270181 0.06476121 -0.029999537 0.14042313 -0.44357154 0.27102166 0.23379824
0.14252499 -0.10434929 -0.12426432 0.17534505 -0.002244387 -0.024400642 -0.08181655 0.05390783
-0.18574007 -0.061060958 -0.12545912 0.119833745 -0.08286484 0.08681398 0.24358372 0.04487895
-0.036630005 -0.20577845 0.067252435 -0.112399854 -0.028893137 0.21501413 0.16869222 -0.0807844
-0.01577268 -0.17440505 0.0063166204 -0.09893326 -0.094138175 -0.3072435 0.096641175 0.17095202
-0.12461558 -0.2419606 0.11246336 -0.11866724 -0.076742515 0.0031413715 0.27152294 0.02852058
-0.0638534 -0.003986731 -0.05083877 0.21139428 -0.065059125 0.094567254 -0.050447196 -0.11797144
-0.15314986 -0.03692173 -0.05751286 -0.054191023 -0.039755333 0.10287079 -0.25868225 0.098229505
-0.016510015 0.07033923 -0.03380028 -0.020430109 0.010364279 0.049848255 0.16575511 -0.01428
-0.14891437 -0.0060459143 -0.087377705 -0.033975746 -0.03349988 0.12762217 -0.15121707 -0.1158135
0.0324203 0.18397146 0.10065161 0.06925009 -0.038465716 0.08939635 -0.042943083 -0.19549654
-0.15662836 0.06448656 -0.13010791 0.034316983 -0.12649675 0.09584609 0.10685816 -0.014565863
-0.028149853 -0.21216506 0.13290133 -0.011240924 0.11784583 -0.0151781365 -0.077094525 0.105574094
-0.038319975 0.05559089 0.029386528 -0.25205147 -0.1686844 -0.18654439 0.034078952 0.14037658
-0.19114812 -0.034643013 0.1459483 0.08674889 -0.25729102 0.16458616 -0.08784793 -0.009914698
-0.14792435 -0.15782455 -0.07886864 0.09205837 -0.018246688 0.019456703 -0.059597086 0.06442526
-0.010680577 0.17114577 -0.12207734 -0.083500065 0.12230845 -0.0047669993 0.036592755 -0.28376323
-0.06171508 -0.11808696 -0.24738602 0.06651601 -0.07134578 0.06490889 -0.0516159 0.1871979
-0.037035342 0.041937996 -0.010820424 -0.20705876 -0.20687968 -0.08930417 -0.15394783 -0.16250357
-0.21806394 0.012185646 -0.027240524 0.011928344 -0.04798453 -0.080699086 -0.059343807 0.032057412

critic.2.bias f4 [64]
00000000: 61a2 8fbd 5ba7 823d 61a6 38bd 9a0e 163e
00000010: 09a1 aebe 676a d23b 82a6 b93c 96cc 38be
00000020: d4c7 113e 0636 2cbe 63ba 65bd 2ee6 4ebe
00000030: 0dcd d2be b5bd a5bd e67d 8e3e d9d8 0fbe
00000040: 78a3 69be baa6 10be 8b08 8d3c 6bea 89be
00000050: f95b 973b 25a4 273d ec22 53be 8dbb a2be
00000060: e49d 473e 8ff3 803c 0343 92be 6d2c 933d
00000070: e910 63be c2f3 e4bd 9f1d 533e 47b1 963d
00000080: d038 dabe 75af e3bd 0e91 84be 216a b6be
00000090: 0a34 2b3d c1a6 32be b676 3e3e 334a 11be
000000a0: 0f52 503d 973c 38bd ae55 a5bd cbe0 67be
000000b0: 2cfe cdbe 9658 323e acd5 ce3d 7238 d63c
000000c0: c974 dd3d ce56 303d 21d7 afbb 50b5 133e
000000d0: 40b5 11bc 8da4 04bd c808 94bd 49f6 c93c
000000e0: 6bcb 2dbe 7097 3dbe 7b57 32be e871 8cbc
000000f0: de78 61bc e28a b3bd 3344 5bbc a95e cabe
-0.07013393 0.06379577 -0.045080546 0.14654008 -0.34107235 0.0064213756 0.022662405 -0.18046793
0.14236385 -0.16817483 -0.056085955 -0.20204994 -0.41172066 -0.08092824 0.27830428 -0.14047565
-0.22816265 -0.14126101 0.017215988 -0.2693666 0.0046191183 0.040928025 -0.2061879 -0.31783715
0.19493824 0.015741138 -0.2856675 0.07186208 -0.2217442 -0.111793056 0.20616768 0.07358032
-0.4262147 -0.1111745 -0.25891918 -0.35627845 0.041797675 -0.17446424 0.18599972 -0.14188461
0.050859507 -0.044979658 -0.08072983 -0.22644345 -0.4023298 0.17416605 0.100993484 0.026149962
0.108132906 0.043051533 -0.0053662215 0.14424634 -0.008893311 -0.03238349 -0.072282374 0.02465357
-0.16972129 -0.185148 -0.17416184 -0.017144158 -0.013761727 -0.08766724 -0.013382959 -0.39525345
