logs/flat_anymal_c/Nov23_11-24-27_/model_50.pt (torch, 418700 bytes, 48 tensors)

std f4 [12]
000000 d5 48 38 3f 3f 78 63 3f 32 79 56 3f 23 51 40 3f
       0.7198613 0.88855356 0.8377868 0.75123805
000010 3b 8d 5e 3f 16 74 48 3f 74 97 3b 3f ea 78 68 3f
       0.8693425 0.78302133 0.73277974 0.908095
000020 e9 a8 52 3f 7e bf 3d 3f 38 c8 56 3f 5b 5b 53 3f
       0.82288986 0.7412032 0.8389926 0.8256127

actor.0.weight f4 [128, 48]
000000 43 a6 ab 3b 3f 1f 88 3d e8 9d b6 bd d0 61 9b bd
       0.005238326 0.06646585 -0.08916837 -0.07587016
000010 a5 31 2b 3f 50 ca 2e 3f 2c 01 df 3e 05 3c de 3e
       0.66872627 0.68277454 0.43555582 0.43405166
000020 04 94 ea 3d 66 4d 6d be b1 9b 01 bb da 71 6e be
       0.11454013 -0.23174056 -0.0019776637 -0.23285618
000030 9d ad 46 bd e2 51 54 be a1 ab 6d be f6 08 16 3e
       -0.048505414 -0.20734361 -0.23210002 0.14651856
000040 1d e1 43 3e b3 01 f2 be a3 b0 a4 3e 5e 13 b4 3d
       0.19128843 -0.4726692 0.32166013 0.087927565
000050 db 89 ad 3e 7b c9 7e 3d 47 68 ed 3d 23 66 db 3d
       0.33894238 0.062203865 0.11592155 0.107128404
000060 2f c9 ac 3d 84 9a bd be e3 a3 3c be be 1d b3 3d
       0.0843681 -0.3703195 -0.18421893 0.08745907
000070 3c e6 7f bf aa 2d 4e bd 1c 7b 96 be 8b a8 79 be
       -0.99960685 -0.050336517 -0.293908 -0.243807
000080 c8 76 8a 3e 44 8a ec bd 9b 32 51 be 34 27 b9 3e
       0.27043748 -0.115498096 -0.2042946 0.36162722
000090 04 b5 cc 3d bf 8c 4d bd 9c 3a 0e 3e a2 f4 ae bd
       0.099954635 -0.050183054 0.13889545 -0.08542754
0000a0 5b c6 31 3e 3c 7b 8f 3d 95 36 6f be bf 57 20 3d
       0.17360823 0.07005927 -0.23360665 0.03914618
0000b0 e9 c7 90 bc 21 22 c1 3c 8e 3a 91 bd 6b bc 53 bd
       -0.01767345 0.023575844 -0.070912465 -0.05169336
0000c0 c5 0b cf be f8 4a 43 bd 92 15 fa bd 5f b4 d3 bd
       -0.40438667 -0.047678918 -0.122111455 -0.103371374
0000d0 fe 7b d2 3f cb 0d ff 3e 5a 74 38 3e 27 c6 a0 3e
       1.644409 0.4981521 0.18013135 0.31401178
0000e0 6e cd ed 3d 3d 5d 9e 3e 29 4a 9c be c5 7b 38 bf
       0.11611448 0.3093051 -0.3052533 -0.7206386
0000f0 ee ea 40 3e 6a 38 ee bd bc 82 16 bf d2 f2 05 bf
       0.18839619 -0.11631854 -0.58793235 -0.5232364
000100 ed c6 fa 3c 82 20 dc 3d 4b 64 cc 3b ca 36 e6 3e
       0.030612433 0.10748388 0.006237542 0.44963676
000110 e3 47 5b 3e 0f d1 2c 3e bb f9 2b bf 5b 35 1b bf
       0.21414141 0.16876625 -0.67177933 -0.6062829
000120 a1 89 29 bd 51 d0 1b bb 5c bb 85 be 64 54 4f 3e
       -0.04139102 -0.002377529 -0.26119506 0.20247036
000130 2f 4b 33 3d 49 f6 86 3e 7b 47 34 3e d9 16 af 3d
       0.043772873 0.26359776 0.17605393 0.0854928
000140 16 d6 b4 3d ff 99 06 be 06 b2 78 bf 2a c2 5d 3e
       0.08829896 -0.13144682 -0.9714664 0.21656099
000150 2f ca e8 bb 25 6c 0f 3e e3 0d c9 bc b1 87 fd 3d
       -0.0071041803 0.14006098 -0.024542755 0.12379397
000160 0c 2a 4f 3d c2 1c 9b bd bc 8d ee bc ee 63 c8 bd
       0.05057721 -0.075738445 -0.029120319 -0.09784685
000170 f7 fc 0f 3e 24 a7 d9 bc 09 31 06 bd b0 59 83 bc
       0.14061342 -0.026568957 -0.032761607 -0.016033977
000180 02 c5 67 bd 24 d6 ef be f2 f2 2a be 0d 0d f9 3e
       -0.056584366 -0.46843064 -0.16694239 0.4864277
000190 4b c3 61 bf 1c 4e 16 3f 69 0b b1 3e f6 1b a9 bf
       -0.8818862 0.58712935 0.34579018 -1.3211658
0001a0 88 dd 49 bd f6 c5 ea bd a4 85 2e 3d cf 7e 3a bf
       -0.049283534 -0.11463539 0.04260792 -0.72849745
0001b0 54 5a 36 3f be 9d 0e 3f d2 e8 9e 39 36 ab 18 3f
       0.7123158 0.55709445 0.00030309573 0.5963625
0001c0 94 eb 82 3d 2a 67 80 be a1 7b a2 3e 65 5c 14 bf
       0.06392589 -0.25078708 0.31734946 -0.5795348
0001d0 d3 b8 96 be 55 d1 51 3e b0 72 88 3e 79 60 f6 3d
       -0.29437885 0.2049001 0.2665 0.120301194
0001e0 7b 69 48 bd b7 62 f2 3e 5f 3e 2c be 58 47 f2 3e
       -0.04892872 0.47340938 -0.16820668 0.47320056
0001f0 2b c5 7c bc b9 d7 49 bd 33 52 af 3e 25 1c 51 be
       -0.015427868 -0.049277995 0.342424 -0.20420893
000200 9e 85 86 be 1a f2 d2 3e cf b4 e2 3d 68 06 6e be
       -0.26273817 0.41200334 0.11069643 -0.23244631
000210 6f 27 84 be 6e ee 4f bd a0 3c 05 3e 8a fe 57 3c
       -0.25811335 -0.050764494 0.13011408 0.013183245
000220 7a ce 2c be 08 73 29 3d 71 ba 9c 3d d3 3f b1 bc
       -0.1687564 0.041369468 0.076527484 -0.02163688
000230 be 96 78 bc aa 44 a2 bc da 5d 00 be 34 c6 f6 3c
       -0.0151726585 -0.019808132 -0.12535802 0.030123807
000240 66 31 9f be 55 7c 38 3e 3e 1a d5 be 00 92 ec bd
       -0.31092376 0.18016179 -0.41621584 -0.11551285
000250 d1 fa b5 3e a0 2a 99 bf 12 53 a2 be f7 bc d0 3d
       0.3554292 -1.1966133 -0.31704003 0.10192292
000260 cc 8f 81 3d f8 0b 85 3e ed bc 04 bf 91 b1 57 3f
       0.06326255 0.25985694 -0.5185078 0.8425532
000270 40 6a 5d bd 69 9c f6 be d1 44 58 bd 29 b0 06 3e
       -0.054056406 -0.48166206 -0.052800003 0.13153137
000280 d9 f9 93 3e 97 54 da be 4c 81 21 be 6d ed 0c 3e
       0.28901556 -0.42642662 -0.15771979 0.13762446
000290 7c e5 5f 3e 92 33 b1 3d 33 54 0a be ad da ac bc
       0.21864885 0.086524144 -0.13508682 -0.021100366
0002a0 59 fe c1 bd 47 52 f4 be bc 99 3a 3d b2 c1 70 3e
       -0.09472341 -0.47719023 0.04555677 0.23511389
0002b0 54 f7 3d bf 71 21 f6 be 8a fb 43 3d f6 43 34 be
       -0.7420552 -0.4807239 0.04784731 -0.1760405
0002c0 65 0b 9d be 88 24 81 be d1 6d d7 be 39 cb 8b bd
       -0.30672756 -0.25223184 -0.4207597 -0.06825871
0002d0 f9 b0 0f 3e 90 a3 98 3d 89 81 71 3b 7a 6f 2d 3e
       0.14032353 0.07453072 0.003685089 0.16937056
0002e0 d9 5b c3 3d 96 73 98 bd 23 41 3b 3d 6c 71 0a bd
       0.09539003 -0.07443921 0.045716416 -0.033799574
0002f0 58 77 f1 bd 85 66 59 bd 58 9f 4c bd 89 fd 95 bd
       -0.11790341 -0.053076286 -0.04995665 -0.073237486
000300 75 f3 fb 3d 6f 05 26 3e d5 5c 1e 3d 59 2a ef bd
       0.12302295 0.1621301 0.03866275 -0.11677999
000310 01 77 e9 be bc 2d 7f 3f eb d8 41 3b dd db 66 3e
       -0.45598605 0.9967916 0.0029578756 0.22544809
000320 a0 29 a2 bb f2 eb 89 bd a2 9b bf bb 3b fc 3b bf
       -0.0049488097 -0.06734456 -0.0058474103 -0.7343175
000330 c8 6c c6 bb ae a4 df 3c 20 df 8d 3c f6 1a 68 3e
       -0.006055448 0.027300205 0.017318308 0.22666535
000340 89 07 1a 3f 9a 7f 4e be d8 6a 96 3d ec 46 9c be
       0.6016775 -0.20165864 0.073445976 -0.3052286
000350 50 57 3e 3d 53 f9 52 3e a1 1f 80 3e ed 00 11 3f
       0.046469986 0.20602922 0.2502413 0.5664204
000360 7f 41 43 be f4 4b d5 be 18 b5 0f 3e fa a4 1a 3e
       -0.19067954 -0.4165951 0.14033926 0.15101996
000370 de 4e ad 3d d9 d0 08 be 62 96 ff 3e 9f c0 5c be
       0.08462308 -0.13360919 0.4991942 -0.21557854
000380 59 bc 51 be 06 2a 34 3d ce 4a ac be 37 b6 1e 3f
       -0.20482005 0.04398539 -0.3365082 0.6199679
000390 29 30 bd bd db 55 b4 3b a6 55 f6 3d 3e c3 83 3c
       -0.092377014 0.005503399 0.12028055 0.01608431
0003a0 c2 71 d9 bc 0a 92 34 3e de ce 51 be 90 49 59 bb
       -0.026543502 0.17633834 -0.2048907 -0.003315542
0003b0 40 14 4c bd f3 49 3f 3b 0f ae 26 3d f4 63 40 bd
       -0.049824 0.0029188364 0.04069334 -0.046970323
0003c0 0f 2a 14 3d 12 38 fb bd 43 99 76 3e 88 db cc bd
       0.036172923 -0.12266554 0.24081902 -0.1000281
0003d0 aa d1 90 3f 60 3d 33 3f 1e 42 13 be 1d 42 07 3e
       1.1313984 0.70015526 -0.1438069 0.13208814
0003e0 a7 47 ad 3d 77 bf 32 3e 5c b5 58 be 9c e1 a2 bf
       0.08460932 0.1745585 -0.21162933 -1.27251
0003f0 a9 c4 4a 3e 09 89 3d 3e 91 1a aa be e9 2c 4c be
       0.19801582 0.18509306 -0.33223394 -0.19939007

actor.0.bias f4 [128]
000000 19 d4 c8 3d de 03 c0 bd d6 80 71 3d 68 06 eb bd
       0.098060794 -0.093757376 0.05896076 -0.11475831
000010 4f 1e c2 bd c5 85 46 be c7 7f 63 be 8e 4b 79 be
       -0.09478437 -0.19386967 -0.22216712 -0.24345228
000020 9a 4f 30 be e0 a5 00 be 5b 3d 83 be 6d 8b f0 3d
       -0.17217866 -0.12563276 -0.25632748 0.11745343
000030 8b 1e f8 bd a8 31 6b 3d f5 2e 57 bc 3c 2b ef bd
       -0.121152006 0.057420403 -0.013133754 -0.11678168
000040 95 02 9d bc 91 c3 dd bd 8b d9 0b 3b ed 2f a5 3d
       -0.01916627 -0.10828317 0.0021339383 0.08065782
000050 6a 44 4c be 7b 1e d2 bd a1 56 2d bc 4e 0b 91 bd
       -0.19947973 -0.1025972 -0.010579736 -0.07082234
000060 c4 2e d8 3d 4b 08 b8 3d 91 39 72 be 8e 31 57 be
       0.10555795 0.08985957 -0.23654772 -0.21014997
000070 98 ff 80 be bd 76 00 3e 55 7a 32 3d 44 bb 00 3e
       -0.25195003 0.12545295 0.043573696 0.12571436
000080 2d 15 25 3d e9 2f ba 3d a3 8a 4a be 3f 9b 5b 3c
       0.040303398 0.090911694 -0.19779448 0.013403713
000090 2f ba 1a 3e 4c 67 30 3e 80 9a e6 3d 52 60 b3 3d
       0.15110086 0.17226905 0.11259937 0.08758606
0000a0 4b 5c 15 3e e7 de 87 3d 26 58 f5 3b f6 22 e9 bb
       0.14585988 0.06634312 0.0074873148 -0.0071147634
0000b0 e2 f4 35 bd 23 be 6b bd fe 97 a6 bd 2c dc 26 be
       -0.04442299 -0.057554375 -0.08134459 -0.16294926
0000c0 66 5b 7f 3d 11 2b 3b 3e 3c da 0a 3e d7 cc f2 3d
       0.062343024 0.18278147 0.13559812 0.11855476
0000d0 a5 b7 06 be 2a 5b a1 bc 10 f4 25 3d eb e0 a4 3d
       -0.13155992 -0.01969679 0.04051596 0.08050712
0000e0 4e 7e 16 be 73 11 8f bd b2 28 bb bd 41 45 9e 3d
       -0.14696619 -0.0698575 -0.091386214 0.07728053
0000f0 34 14 9c bd 86 d7 0c 3c fc 51 00 bc 9e 5e da bd
       -0.07621041 0.008596307 -0.007832047 -0.10662578
000100 93 09 db bc 73 95 56 bd c3 73 c7 bc eb 11 16 be
       -0.026737964 -0.05238862 -0.024347192 -0.14655273
000110 70 fb 37 be a3 ed 7b bd 24 9b 0f 3e 08 4f c1 3d
       -0.1796701 -0.061505925 0.14024025 0.09438902
000120 bb bf 00 be 9e 01 02 3e 56 51 2e be 98 db 87 bb
       -0.1257314 0.1269593 -0.17023215 -0.0041460507
000130 87 b4 49 3c 47 85 d5 bc ba 24 49 bb af c1 a9 3d
       0.0123111075 -0.026064528 -0.0030692057 0.08288895
000140 96 dd e2 3d 22 47 a4 bd d8 86 06 bd bc a2 80 bd
       0.110774204 -0.0802138 -0.03284344 -0.06281039
000150 58 ab 96 be 9e 5f f5 bd ba af e0 bd 0f 0a 85 be
       -0.294276 -0.11981128 -0.10971017 -0.25984237
000160 ce a8 18 be e1 34 c2 bd 92 09 54 bc 0d e7 4b be
       -0.14908144 -0.09482742 -0.012941735 -0.19912358
000170 7d 24 80 be ac 61 80 be f8 37 85 3c cd 0d 27 bd
       -0.25027838 -0.25074518 0.01626204 -0.040784646
000180 cd 07 8e be 19 b8 6f 3e 70 73 a6 bc 45 47 4d be
       -0.27740327 0.23410071 -0.020318717 -0.20046718
000190 03 96 80 3d 7a 19 d7 3d d6 63 08 be 29 ab 3a be
       0.062786125 0.10502906 -0.13319334 -0.18229355
0001a0 54 0c 43 be 2c 40 4c 3d e4 2a ad bc b7 dd 63 be
       -0.19047672 0.049865887 -0.021138616 -0.22252546
0001b0 e7 5e fc bd 26 1e 2b 3c e5 e9 24 be 4c 32 ad 3d
       -0.12322789 0.0104442 -0.16104849 0.08456859
0001c0 96 ff 62 bd 65 ee 21 3d d3 d7 bd 3b 04 d8 ba be
       -0.055419527 0.03953399 0.0057935505 -0.36492932
0001d0 b9 67 7a be 97 eb 96 3d e0 16 2d be ec 4c 16 3e
       -0.2445363 0.07369154 -0.16903257 0.14677781
0001e0 ac b0 65 bd d2 22 1f 3e 06 ed 98 3d 29 49 12 be
       -0.05607669 0.15540627 0.07467084 -0.14285721
0001f0 95 6e 84 be 75 0a 21 be 27 32 9f be a5 01 93 bd
       -0.25865617 -0.15726645 -0.3109295 -0.07178048

actor.2.weight f4 [64, 128]
000000 97 8d 4a 3d ae d6 b8 3d 19 d5 a4 be 2a 11 2a bc
       0.049451437 0.09025322 -0.3219383 -0.010380069
000010 8b f0 8e 3e d9 ba a6 3c 52 bb 2f 3e a5 c2 13 3c
       0.27917895 0.020352768 0.17161301 0.009018575
000020 25 b5 1c be c2 4f a8 be e2 c2 a7 3b 07 bb 9d bd
       -0.15303476 -0.3287335 0.0051196674 -0.07701688
000030 b5 3d ab bd 6f 14 97 bd 9b 56 19 3e 8c 78 0a 3e
       -0.08361379 -0.07376944 0.14974444 0.13522547
000040 a9 7b f6 bc eb e4 48 bd a3 65 72 be 73 9e d5 be
       -0.030088263 -0.04904644 -0.23671584 -0.4172245
000050 68 44 76 bd 33 6f 81 bd ca 24 88 be cf 73 e8 bd
       -0.06012383 -0.06320038 -0.26590568 -0.11350214
000060 84 51 69 3d 70 31 85 3d 2a 79 1c 3e 67 9b 0b bd
       0.056962505 0.0650357 0.15280595 -0.03408375
000070 b2 fe 36 3e 95 5c b0 be b6 93 8f bd f8 d5 40 3d
       0.17870596 -0.34445634 -0.070105955 0.047079057
000080 a0 bf 4f be ed 19 31 3d 6b 60 11 be 32 54 18 3e
       -0.20287943 0.043237615 -0.14196937 0.14875868
000090 83 49 e4 bd 7b a8 28 bc b5 6f 3b be ce 91 ac bd
       -0.11146834 -0.010294075 -0.18304332 -0.084262475
0000a0 9f 65 7e be 39 ba f0 bd 20 6a 6c bc 29 63 6b be
       -0.24843453 -0.11754269 -0.014429599 -0.22987045
0000b0 5b bf 2a 3d 14 8c cf 3d 3d b5 9c be 19 35 c3 bb
       0.041686397 0.1013414 -0.30607024 -0.0059572575
0000c0 38 a1 27 be 18 8d 0c 3e 04 6b 59 be 23 31 05 3e
       -0.16370094 0.13725698 -0.2123223 0.13007025
0000d0 01 b1 13 be 6c 88 8b bc 5e 70 07 3e 7d e3 7e be
       -0.1442299 -0.017032824 0.13226458 -0.24891467
0000e0 7b af 0f 3d 44 b1 4b bd 18 a6 c7 3d c0 8f 20 be
       0.03507946 -0.0497296 0.09748477 -0.15679836
0000f0 d4 27 d0 bd 20 fd 52 bd 49 23 fc bd 64 af 38 be
       -0.101638466 -0.05151093 -0.123114176 -0.18035656
000100 f5 42 16 3e fe 67 84 3d c2 86 18 be 19 0e 04 be
       0.1467398 0.064651474 -0.14895156 -0.12896003
000110 17 8d 89 bc 69 44 d0 3d 29 53 41 be 5b 5e 48 be
       -0.01679091 0.10169298 -0.1887938 -0.19567244
000120 e9 9e 8f bd e9 16 99 3d 38 29 e0 3e 70 02 dc bd
       -0.070127316 0.07475073 0.43781447 -0.107426524
000130 05 02 dd bb 07 4d a7 bd 5a 17 b3 be 9a 10 6e be
       -0.0067446255 -0.08168989 -0.34978753 -0.2324852
000140 71 0a 54 3d cd e0 91 be b4 8a fb 3b 71 bb 41 be
       0.05176777 -0.28491822 0.007676447 -0.1891916
000150 76 c7 42 be 95 63 df bd fc 4f 08 bd e4 cd 66 3d
       -0.19021401 -0.10907666 -0.033279404 0.056348696
000160 ad a1 b5 bd d5 a0 24 be 17 34 a1 be 9f f4 a7 3d
       -0.08868728 -0.16076978 -0.31485054 0.08200955
000170 00 9d 58 be d5 7d 38 bd 38 01 80 3d bc 1c a7 be
       -0.21153641 -0.045041878 0.062502325 -0.3263911
000180 df 8c f4 3d eb 50 16 be ff 49 70 be 17 f8 d7 bd
       0.119409315 -0.14679305 -0.23465727 -0.10545366
000190 16 40 55 3e d9 fe 8a 3d d1 57 02 3e bb 19 ea 3d
       0.20825228 0.067868896 0.12728812 0.11430689
0001a0 f2 b3 87 3a 35 34 0a 3e ae 83 05 3e db 1b 66 3e
       0.001035331 0.13496478 0.13038513 0.22471564
0001b0 19 18 08 3e bb af 3f bd 7b a6 b6 3e 32 fb 05 3c
       0.13290443 -0.04679845 0.3567389 0.008177565
0001c0 27 a4 0e be e4 64 8a bd 29 b6 e8 3b 3f c3 9d 3e
       -0.13929807 -0.067575246 0.0071017933 0.30813023
0001d0 03 94 c9 3d 32 58 8b be 66 ea ff bd 73 27 92 be
       0.09842684 -0.27215725 -0.1249588 -0.28545722
0001e0 05 7c 44 bd 5b ec 26 be a9 f0 3d be 32 d6 4d 3e
       -0.047969837 -0.163011 -0.18548836 0.2010124
0001f0 1d 2c 03 bc 2a 99 6b bd 67 20 0a 3c 39 ed 36 bd
       -0.008006123 -0.057519116 0.008430577 -0.044659827
000200 14 8b 91 bc 48 6e 9a 3d d6 eb 82 be d9 40 c0 3e
       -0.017766513 0.07540566 -0.25570554 0.37549475
000210 86 ad 14 be 93 af 91 be f4 2b 84 be 0a 4b 1b be
       -0.14519319 -0.28454265 -0.25814784 -0.15165344
000220 ae 40 38 be 7b 48 ab be db 64 d6 bd ec 6a 7a bd
       -0.17993423 -0.33453736 -0.104684554 -0.061137125
000230 1d 5a b4 3e 0b 15 01 be 88 9e a0 3e 85 73 e1 3d
       0.35225 -0.12605684 0.3137095 0.11008362
000240 06 76 a7 be 29 4a 87 bc cb 40 c6 bd ed 1e 43 be
       -0.32707232 -0.016514855 -0.09680327 -0.19054766
000250 49 d4 7a 3e e8 9a 04 be b4 0a ca 3d 10 be 4e bd
       0.24495043 -0.12949717 0.09865323 -0.050474226
000260 57 2f 99 3d d2 a2 a2 be f9 94 1b be 34 f0 2e be
       0.074797325 -0.31764847 -0.15193547 -0.17083818
000270 5c 97 59 bd 03 a5 f1 3c 23 09 23 3e 43 e1 9a be
       -0.053122863 0.029497629 0.15921454 -0.30249986
000280 38 56 ea 3d 83 7e e4 bd ad f9 aa bd 2e fd 03 be
       0.11442226 -0.11156943 -0.08348403 -0.12889549
000290 3e 2f 3d be 4c 37 02 bd 51 4a 50 3e b7 96 08 bd
       -0.18475053 -0.031791016 0.2034085 -0.033346858
0002a0 1a ee 81 bd 8c 79 0c be eb 71 55 3d f6 fd 61 3d
       -0.063442424 -0.13718241 0.052110594 0.055173837
0002b0 bb 33 53 3e 18 98 09 bd ef 4d 9a be dc 90 21 be
       0.20625202 -0.033592314 -0.30137584 -0.15777916
0002c0 05 81 75 be 64 a5 eb bb e8 94 d6 be 11 6d b5 bd
       -0.23974998 -0.007191347 -0.4191048 -0.088586934
0002d0 a1 f0 92 3c 6a 66 aa 3d 06 6d 3b bd 70 86 a5 be
       0.017937006 0.08320315 -0.04575827 -0.3232913
0002e0 66 a7 7f 3d b4 62 57 3d b9 69 9f 3c d8 83 15 be
       0.062415503 0.052584365 0.019459592 -0.14601076
0002f0 d2 20 e8 3e c8 13 38 bd b5 2f 4f be ed 53 ba 3d
       0.4533754 -0.04494074 -0.20233043 0.09098039
000300 0d 15 a6 3e d8 9e 46 3e e7 41 be 3d 96 40 81 bd
       0.32437935 0.19396532 0.092899136 -0.06311147
000310 b8 d0 97 3e 95 2a d0 bd 98 19 ac bd ae a8 13 3e
       0.29651427 -0.10164372 -0.08403319 0.14419815
000320 3f 71 2c 3e cf eb 90 be 58 55 dc bd 04 1a ba bd
       0.16840075 -0.28304908 -0.107584655 -0.09086993
000330 ab af 25 be 27 cf 20 3e a3 41 e6 3e 02 cf a6 be
       -0.16180293 0.15704022 0.44971952 -0.3257981
000340 d6 02 a2 3c d8 90 c3 be ba 00 1b 3e 7c a6 56 bd
       0.019776743 -0.38196445 0.15136996 -0.052404866
000350 ef 61 31 bd eb 60 43 be cd 76 ff bd 35 6c 5e bd
       -0.043306287 -0.1907994 -0.12473831 -0.054302413
000360 c8 21 8e 3e 40 b7 4e bd f2 38 af be 35 ba 5f 3e
       0.27760148 -0.05046773 -0.34223133 0.21848376
000370 32 b4 28 3e c4 a8 e1 3e 64 0f 9f 3d d3 b4 0e 3e
       0.16474989 0.4407407 0.077666074 0.13936166
000380 ad 11 e8 3d 6e 91 8b bd ad 74 4b 3d 87 16 2f bc
       0.113314964 -0.06814848 0.049671818 -0.010686523
000390 c3 3f 62 be 66 be c8 be 0e c2 7f 3e 7d 1b 27 3e
       -0.22094636 -0.39207762 0.2497637 0.1631908
0003a0 d6 28 10 bd ca 93 ac 3c 0d 7f 2e be be 40 7e bd
       -0.035195194 0.021066565 -0.17040654 -0.06207346
0003b0 08 50 93 be 3f 8b d9 bc 0a b9 45 bc d2 2f 0b 3e
       -0.28771996 -0.026555656 -0.0120680425 0.13592461
0003c0 25 91 48 3e 69 ce 14 be c5 74 60 be 76 39 8d 3e
       0.19586618 -0.14531864 -0.21919544 0.27582902
0003d0 c3 5f 48 3e 7e 6a c6 bc e9 15 8a 3e 2f 55 16 bd
       0.1956778 -0.024220701 0.2696984 -0.03670233
0003e0 d8 45 93 bd 22 a6 92 3e 83 5f 07 bd 6f 8a eb bc
       -0.07191056 0.28642374 -0.03305007 -0.028752534
0003f0 21 f8 37 be c5 01 1f 3e b0 64 e5 bb 81 8f 16 bd
       -0.17965747 0.15528019 -0.0070005283 -0.03675795

actor.2.bias f4 [64]
000000 35 75 1e be 75 36 40 be 4a 51 ff 3a 75 36 4c be
       -0.15474398 -0.18770774 0.0019479182 -0.19942649
000010 a8 95 27 be 97 29 c3 bc bc 68 db bd 38 20 ca bd
       -0.16365683 -0.023823543 -0.10713336 -0.098694265
000020 95 9c bb bd 13 82 f6 bd ce e5 db bc 29 2a 11 bd
       -0.09160725 -0.120365284 -0.026842978 -0.035440598
000030 26 4f a9 bd de 4c cc bd 33 ab 55 be 21 a2 1e be
       -0.082670495 -0.09975599 -0.20866089 -0.15491535
000040 73 48 c9 bd 63 96 91 3d a6 a5 a9 bd 2f b9 8e bd
       -0.09828272 0.07108762 -0.08283548 -0.06968915
000050 21 c2 dc 3b 97 93 d1 3c 7c 72 48 be bf 69 03 be
       0.006737009 0.025583072 -0.19574922 -0.12833308
000060 a8 3f 2b be 2b c6 39 bd 65 c0 21 be a0 04 38 be
       -0.16723502 -0.045355003 -0.15796049 -0.17970514
000070 23 b9 92 be 81 c2 31 be 2f c9 49 3c 4f 46 fa bd
       -0.28656873 -0.17359354 0.012316032 -0.122204416
000080 d0 70 77 be b9 d2 f7 bd 0a 5d 91 3c 8c 60 ab bd
       -0.24164128 -0.12100739 0.01774456 -0.08368024
000090 a5 be b6 be a7 81 1c bd db 4a 49 bd 29 22 f7 bd
       -0.35692325 -0.038209584 -0.049143653 -0.120670624
0000a0 de 1a 81 bd d4 19 00 be 4e 01 e0 bb 96 5a 28 be
       -0.06303953 -0.12509853 -0.006836093 -0.16440806
0000b0 3f 77 cf bd ba ca 0f be eb 5c 01 be 1b 5e 82 bd
       -0.10130166 -0.14042178 -0.12633102 -0.063656054
0000c0 76 4c db bc 20 f8 ca bd 2e 8c 5e bd c5 16 00 bd
       -0.026769858 -0.09910607 -0.054332905 -0.031271715
0000d0 2e 28 ad bd 05 d7 0a be 97 b4 af bd cf 67 b2 bd
       -0.08454929 -0.13558586 -0.08579367 -0.08711206
0000e0 7a 8c 81 3c a6 6e 24 be ac 3e f5 bd 56 b4 ed 3c
       0.015814055 -0.16057834 -0.11974844 0.029016655
0000f0 83 95 7e be 8c 94 8a bd 01 7f 02 3d 79 d3 04 be
       -0.24861722 -0.06766614 0.0318594 -0.12971295

actor.4.weight f4 [32, 64]
000000 7b a7 49 3e 3f 19 59 3e 84 fa 7f 3c c0 2f 11 3d
       0.19692795 0.21201037 0.015623692 0.03544593
000010 5f c6 c5 3b c8 10 f0 bd 3b d1 35 3d 38 08 0f be
       0.0060356106 -0.11721951 0.04438899 -0.13967979
000020 ea 42 84 bc 2f 19 f6 bc bf a9 ea bd a8 c8 2c 3e
       -0.016145188 -0.030041305 -0.11458158 0.1687342
000030 ed f1 cb bc a1 62 19 bc 26 3e 9a bd 96 04 5e 3d
       -0.024895633 -0.009361894 -0.07531385 0.054203592
000040 a0 16 91 3d f8 72 d3 3d ba 1f ac 3c b1 45 a8 3c
       0.070843935 0.10324663 0.021011222 0.020541044
000050 c8 ab 5c be b6 61 bd bb ee 2f fe bc 12 08 e7 3d
       -0.21549904 -0.0057794703 -0.031028714 0.11280836
000060 84 74 b0 3d 0f 9e a7 3d f1 64 5f bc 8b a8 92 3c
       0.086159736 0.08184444 -0.013634906 0.017902633
000070 41 e8 b0 3c 5a b4 02 3d 28 af 3f bc e7 c7 f4 3d
       0.021595122 0.031910278 -0.011699475 0.11952191
000080 5f 67 10 3d d4 11 90 3d bf f0 56 be 60 d2 cf bd
       0.035254832 0.070346504 -0.20990275 -0.10147548
000090 32 c5 a8 3e cd 40 a8 3d 1f 74 6b bc b1 a0 64 3d
       0.32962948 0.08215485 -0.014370947 0.05581731
0000a0 51 2e a1 3d 24 d3 7d 3c 88 3e 25 bd d2 fb d4 3d
       0.07870162 0.015492234 -0.040342838 0.103995934
0000b0 c0 6d 3f 3e a0 92 1f 3e f6 b5 a0 bd 36 2b 6b be
       0.1869421 0.15583277 -0.07847206 -0.22965702
0000c0 1d 41 db bd 7d cc 84 3d 59 b6 06 bd 76 40 d7 bd
       -0.10705779 0.064843155 -0.032888744 -0.10510342
0000d0 fe 65 89 bc 3d 77 1f bd 24 36 87 bd d6 98 a4 3c
       -0.016772266 -0.038932074 -0.066021234 0.02009241
0000e0 e0 35 14 be 4f 77 ef 3d ff f0 4c 3e 1c 1a 31 ba
       -0.14473677 0.11692678 0.20013808 -0.0006755905
0000f0 f4 af f4 3d 9e b3 16 3e b6 b6 81 be be e0 fb bc
       0.11947623 0.14716956 -0.2533471 -0.030746814
000100 13 89 ff bd 47 57 df bd b7 d7 0a be 15 0c 28 be
       -0.12477317 -0.10905319 -0.13558851 -0.16410859
000110 ab 39 1c be 0e c2 70 be 2b 5a 03 3e 9a 9a bf bd
       -0.15256374 -0.23511526 0.12827365 -0.0935566
000120 3d cb 7e 3d a1 47 64 bd a9 c6 ee bd b3 5d 84 bd
       0.062205542 -0.055732373 -0.11658985 -0.06463184
000130 60 db 85 3d 13 7b fe bd b7 f5 1d 3e d4 28 32 3e
       0.06535983 -0.12425818 0.15425764 0.17398387
000140 0b 2c 64 3d f5 f7 18 be 41 2e 26 be 61 ee 42 bd
       0.055706065 -0.14938338 -0.16228582 -0.047590617
000150 97 54 39 bd 30 ce ff bd ca e0 94 bc 21 ad 65 3c
       -0.045246687 -0.12490499 -0.018173594 0.014018328
000160 59 19 98 3d de 4e cd bd b0 36 55 3d 6a ed 2e be
       0.0742671 -0.10024808 0.052054107 -0.17082754
000170 2e e8 6a be a6 50 71 3c fa d7 ff bd ca 18 df bd
       -0.22940132 0.014728701 -0.12492366 -0.108934
000180 e9 48 77 3c 8a 25 d6 3d 68 25 89 bc 6b 0a e9 bd
       0.015093067 0.10456379 -0.01674147 -0.1137894
000190 0b 5b 61 be 1f f1 12 be 11 77 55 3c 6a 61 51 be
       -0.22007386 -0.14349793 0.013028876 -0.20447317
0001a0 06 6e 2a 3e a7 6e 3c be 4f 23 9e 3d 55 46 87 bd
       0.16643533 -0.18401586 0.07721578 -0.06605212
0001b0 af 03 82 3e 92 99 8a 3d 8c 44 55 bd d3 03 56 bd
       0.25393435 0.067675725 -0.052067325 -0.05224974
0001c0 f9 67 ae 3d d1 79 08 be 14 64 50 bc ab 67 20 3e
       0.08515925 -0.1332772 -0.012719173 0.15664546
0001d0 49 62 a7 bd 8b 2c 8c 3e 3e ed bf 3c 72 c9 56 3d
       -0.08173043 0.27377734 0.023428556 0.052438207
0001e0 5c 30 27 bd 43 1c bb bd 39 f6 a6 3d 3e b8 2f bc
       -0.040817603 -0.0913625 0.08152432 -0.010725079
0001f0 c4 32 08 3e 02 f8 e8 bd b7 35 bd 3d f5 0f aa 3b
       0.13300616 -0.11375429 0.09238761 0.0051898905
000200 59 62 4f 3e ad e1 bf bd db a3 03 3c 63 ec a4 3d
       0.2025236 -0.09369216 0.008034672 0.080529
000210 24 9a f0 3c 17 3a 94 bd d8 cd 44 be 89 a0 c5 bd
       0.029370375 -0.07237642 -0.19219148 -0.0964976
000220 92 3c 3d 3e 97 26 bb be ab b4 25 bd 16 c2 29 be
       0.18480137 -0.3655288 -0.0404555 -0.16577944
000230 d6 f9 5f be fd 84 17 3e cf cd fd ba 97 44 6e 3e
       -0.21872649 0.14796825 -0.0019363704 0.23268352
000240 6d 86 f4 3b fd ca c5 be bc cc 7c bb 73 a4 82 3d
       0.007462314 -0.3863143 -0.003857418 0.063790224
000250 a5 01 88 3c bb b5 9e bd 7f bf 04 3d f9 92 7e 3c
       0.016602347 -0.07749506 0.032409187 0.015537971
000260 87 d6 8b bd df cd 30 be e3 44 4e be 10 b4 7d bd
       -0.06828027 -0.17266034 -0.20143466 -0.0619393
000270 d4 7a 50 3e 1c 6b c7 3c cf 45 af be 33 52 1e bd
       0.20359355 0.024343066 -0.34232947 -0.03865261
000280 8a e8 44 3e 96 e2 d3 3c 6a 80 0c 3e f7 0c 83 3c
       0.19229332 0.02586488 0.13720861 0.015997393
000290 81 df 7a 3d 84 52 f0 bd 0d c6 a5 3c 82 a2 e6 bd
       0.061248306 -0.117344886 0.02023604 -0.11261465
0002a0 a2 55 46 3d ad f8 bd 3d 94 60 45 3e 6c 55 31 3e
       0.04842151 0.09275947 0.19275123 0.17317742
0002b0 c1 cf 03 be c9 37 43 be 03 3f 13 3e ad 62 83 3d
       -0.1287222 -0.19064249 0.14379506 0.06415305
0002c0 06 8e bf bd c6 f8 a3 bd 89 6a 8c be 1e 6a ea bd
       -0.09353261 -0.08006434 -0.2742503 -0.114460215
0002d0 ba cd ea bd 8c 76 30 be 05 3a 4c be 89 6e e7 3c
       -0.114650205 -0.17232722 -0.19944008 0.02825095
0002e0 e6 43 40 be bc cc 1a bd 31 32 3a 3a b6 22 cd 3c
       -0.18775901 -0.037792906 0.0007102816 0.025040966
0002f0 46 d1 da 3d e8 e6 5c 3d 02 8e 8b 3c b9 0f 02 3e
       0.10684447 0.053931147 0.017035488 0.1270131
000300 ea 46 14 3d 70 63 25 3e 03 00 5a 3c 36 0f b1 3d
       0.03620044 0.16151214 0.013305667 0.086454794
000310 a5 2a e7 3d f7 c1 42 be 79 0a 5d 3e 74 a1 b8 bd
       0.11287431 -0.19019304 0.21586026 -0.0901517
000320 5e be 18 3e 21 65 df 3c ff da ee bc ec 74 b2 bd
       0.1491637 0.027269902 -0.02915716 -0.08713707
000330 86 51 cd bd 7e 20 19 be 5c c5 c9 3d d7 1f a1 3e
       -0.10025315 -0.14953801 0.098520964 0.31469604
000340 19 bf a1 3d 94 f3 7e bd d4 bb 8a be d7 e6 21 3e
       0.07897777 -0.062244013 -0.27096426 0.15810715
000350 2c fd 0f 3d 46 3a 1d bd 6b 05 8e 3e 40 54 e6 3c
       0.035153553 -0.038385652 0.2773851 0.028116345
000360 23 13 4b 3e ad 8b 30 3e 97 b2 52 3d 36 66 b7 3c
       0.19831519 0.17240782 0.051439848 0.022387605
000370 23 99 1c bd 0f 3a ce bd 57 25 44 3d 75 ae cb be
       -0.03823198 -0.100696675 0.047887173 -0.39781538
000380 fb 8d 2c bd db bd dc bc d9 2b 4a bd 1c 3b 1b 3e
       -0.04212759 -0.026945999 -0.049358223 0.15159267
000390 3a a4 31 3d 54 0b 3d bc cd 53 19 be ce 81 0a 3e
       0.04336951 -0.011538345 -0.14973374 0.13526079
0003a0 78 d5 88 3c e1 43 eb bd 06 9f 2e bc c4 77 e5 3c
       0.016703352 -0.11487556 -0.010658031 0.02801121
0003b0 a2 f2 0d 3e d0 c5 1d 3d 07 a4 93 bd 99 0f eb 3d
       0.13862088 0.038518727 -0.0720902 0.114775844
0003c0 72 30 5d bd df ab 46 3c 34 50 83 3e fe 87 8f 3d
       -0.05400128 0.012125938 0.25647128 0.0700836
0003d0 ed f2 ff bc 51 76 95 3c cc f5 9e 3d 86 66 3c 3e
       -0.031243766 0.018244894 0.07761726 0.18398485
0003e0 c1 8c 7b be 3f c4 91 3d e7 a4 25 be 8f 82 ad 3d
       -0.24565412 0.07117509 -0.16176187 0.08472168
0003f0 16 00 45 be 80 69 41 be 54 44 bf bd 2e b0 c2 bd
       -0.19238314 -0.18887901 -0.093392044 -0.0950626

actor.4.bias f4 [32]
000000 21 86 c5 bc 1e af 2c 3e cc ee 98 be ef fa 1e bd
       -0.02411181 0.16863677 -0.29869688 -0.038813528
000010 f2 85 25 bd 8f ad 7e bd 2a 90 3d 3c 72 c8 88 bd
       -0.040410943 -0.062177237 0.011570016 -0.06678857
000020 a8 67 3c be db b5 9d 3d 95 c1 48 be db 01 c0 bd
       -0.18398917 0.07700702 -0.19605096 -0.09375354
000030 fa 9b ac bc 14 08 f3 bb bb 8a 0e be 30 81 0a be
       -0.02107047 -0.0074167345 -0.13920109 -0.13525844
000040 0d a0 21 be 3a c1 31 be 85 7c 68 be 6e f5 2a bd
       -0.15783711 -0.17358866 -0.2270375 -0.041737966
000050 d3 9c ce 3d 52 71 2b be 32 3f 7d be 0f d1 f6 bc
       0.100885056 -0.16742447 -0.24731138 -0.030128984
000060 05 70 b9 bc 91 c3 34 3c 7b 10 38 be 52 7c 16 bd
       -0.022636423 0.011032955 -0.17975037 -0.036739655
000070 f6 4a d4 bc 00 9d 13 3e b6 5d 90 bd 8d b1 12 be
       -0.02591465 0.1441536 -0.07049124 -0.14325543

actor.6.weight f4 [12, 32]
000000 cc 36 09 3d 08 26 17 be 61 31 d5 3d fc 27 54 3d
       0.033499524 -0.14760602 0.10409809 0.051795945
000010 f4 a6 17 be 3c 69 bb bd b5 55 cb 3c 4e 99 9d 3b
       -0.14809781 -0.09150931 0.024821142 0.004809535
000020 46 5c fc 3d 8a 00 ea bc 4f 2a 1e bd 1c 53 68 3d
       0.12322287 -0.02856471 -0.038614567 0.056719884
000030 17 f5 22 bd dc c1 45 3d fe 47 20 3d 55 6e 4e 3d
       -0.039784517 0.04828058 0.039131157 0.05039819
000040 32 ec 92 3d b5 8a 1c bb bc 49 a6 bd a5 72 13 39
       0.07173957 -0.0023886387 -0.081195325 0.00014061721
000050 49 df fb bc 6d b5 ef bb d5 b7 9b 3a 71 9a bd bd
       -0.03074612 -0.007315329 0.0011880348 -0.09257973
000060 72 c4 3f 3d 4c 01 0f 3d bf c4 5b ba af e2 4b 3e
       0.046818204 0.034913346 -0.00083835045 0.19910692
000070 17 12 92 3c 69 49 08 be ed 24 89 bd 5b a7 81 bd
       0.017830892 -0.13309254 -0.06696496 -0.06330749
000080 50 a8 ba bc 8a e6 4b 3d 35 ed 3f 3d 47 27 a1 bb
       -0.022785336 0.049780406 0.046857078 -0.0049180123
000090 67 ab 9f bd a4 78 3f 3d ff 39 02 3e 52 d5 09 bb
       -0.07796364 0.04674591 0.12717436 -0.002103169
0000a0 04 a2 94 3c 1b 91 9e 3d 2b 46 96 bd 0d ae 92 3d
       0.018143661 0.077425204 -0.07337602 0.07162104
0000b0 94 78 36 bd b0 57 9e bd b6 b2 55 be 4d a5 3b 3d
       -0.044548586 -0.07731569 -0.20868954 0.04581194
0000c0 3f 9f 46 bd 6e 43 8f 3c d1 df 68 bc c9 2e bd bc
       -0.048491713 0.017488208 -0.014213518 -0.023093598
0000d0 26 c7 15 be c0 ea 88 bd 40 0f 1c bd e3 8a 21 3d
       -0.1462675 -0.066854 -0.03810048 0.039439093
0000e0 38 b5 63 3e 81 9f 20 bc b2 49 b7 3d 88 36 2b 3d
       0.22237098 -0.009803654 0.08949603 0.041800052
0000f0 11 86 eb bd be 9b 0d bd 6f f9 76 3c d8 03 b9 bc
       -0.115001805 -0.034572355 0.015074118 -0.02258484
000100 b7 81 24 bd 5d 06 d0 bd d5 65 ec 3c 96 42 92 bc
       -0.04016277 -0.10157464 0.028857151 -0.017854016
000110 91 90 0a bd 32 22 27 3d 1e 9b e3 3c bf 47 97 3d
       -0.033829276 0.040804096 0.027783927 0.07386731
000120 f4 65 ec bd cb 9f 34 3d 73 79 6b bd 3b 38 ac bc
       -0.115428835 0.044097703 -0.05748887 -0.021022907
000130 7e 30 12 3c bf e9 ce bd b4 0b 2b 3e f1 90 ad bd
       0.008922694 -0.10103177 0.16703683 -0.08474911
000140 be ec 0a be 01 93 43 bd 97 cb aa 3d f9 8d b3 3b
       -0.13566872 -0.047747616 0.08339613 0.005479571
000150 71 78 2a 3e 48 58 e7 3c d1 2d df 3d 7e b8 1e 3e
       0.16647507 0.028240338 0.10897411 0.15500066
000160 9e 4d 3b be 16 c4 ad 3d c1 37 9b 3d 92 e1 b1 bd
       -0.18291327 0.08484666 0.075789936 -0.08685602
000170 de 8d ea bb 43 77 00 be 13 2f 0d 3c 33 b6 6a 3c
       -0.007158025 -0.12545495 0.00861718 0.014325666
000180 0a 58 42 3d 15 08 e0 bd d3 18 5a 3e b4 2c 3e bd
       0.04744724 -0.109390415 0.21298532 -0.04642935
000190 92 7b 94 3c b3 e7 86 3d 91 f3 33 bd aa 4c 57 bd
       0.01812533 0.06587162 -0.043933455 -0.052563347
0001a0 a2 0c e4 3c 53 da c3 3c b3 3d e4 3c 69 ac 17 bd
       0.027838055 0.023907816 0.027861452 -0.037029658
0001b0 2f a3 4f bd eb 15 49 3d bf 3f a3 bd dd b5 f0 3b
       -0.050692733 0.04909317 -0.07971143 0.0073458985
0001c0 9e 82 cf 3d 48 ab d0 3c 20 3c 70 3b 42 41 de bd
       0.10132335 0.025472298 0.003665693 -0.10852291
0001d0 26 f0 31 3d 8c bf 4a bd 75 24 8f 3d ee a5 0f bd
       0.043441914 -0.04949908 0.069893755 -0.035070352
0001e0 82 16 3d bd 23 98 76 3d 6e 58 c1 bc 1c 33 59 be
       -0.046164043 0.060203683 -0.023601737 -0.21210903
0001f0 44 e9 35 bb 6d 71 24 bd 7f 68 2c bd dd 32 f0 3d
       -0.0027757445 -0.040147234 -0.042091843 0.117284514
000200 e0 8b e1 bd 72 13 db 3c 7c 2d 2e bd 37 27 4c bd
       -0.11013007 0.02674267 -0.042523846 -0.049842086
000210 9d 6b 47 be 0f 6e 6e 3d 2a d7 7f bd 1e dc da bd
       -0.19474645 0.05821043 -0.062461056 -0.10686515
000220 fe 98 58 bd 6c 71 8a 3d c9 05 28 3e a0 39 97 bd
       -0.05288028 0.06759915 0.16408457 -0.07384038
000230 6c 95 3d 3c 01 71 16 bd 2b 65 a2 bc e6 75 5d bd
       0.0115712695 -0.036728863 -0.019823631 -0.054067515
000240 03 f9 ab bd 93 70 f4 bc 92 21 0c be de 48 de 3c
       -0.083971046 -0.029838836 -0.13684681 0.027134355
000250 f6 f5 bf bc c9 5b 97 bd ca 89 91 bd 76 1b 01 3d
       -0.023432713 -0.073905535 -0.07106359 0.03152033
000260 d7 49 17 3d e5 10 8b 3d 57 74 06 3e c3 08 83 3e
       0.036935654 0.06790332 0.13130318 0.25592622
000270 2a 85 32 bc c0 c6 9c 3c 9a fe da bd fe d1 7a 3d
       -0.010896007 0.01913774 -0.10693093 0.06123542
000280 b7 72 93 3d e9 99 d7 bd f0 53 92 3d 7d 28 a5 bb
       0.071996145 -0.10527403 0.07144916 -0.005040227
000290 43 25 af 3c 4a ea e7 3d ca d4 f8 3d 73 9e bb 3d
       0.021380072 0.11323984 0.12149961 0.09161081
0002a0 ee b4 c4 bd 1a 78 ff bd 29 76 d0 bd bc 22 a1 bd
       -0.09604822 -0.124740794 -0.10178787 -0.07867953
0002b0 0b 36 bd 3d c8 e3 d0 bc d8 e9 8d bd fc c9 31 3b
       0.092388235 -0.02549924 -0.06929368 0.0027128449
0002c0 92 5d 50 3d 22 2c ce 3d 72 1a 89 3c 76 9a 88 bd
       0.050870486 0.100670114 0.016736243 -0.06670086
0002d0 3d 09 bb 3d ae 9f 60 3d 48 fe ec 3c 45 98 7b 3b
       0.091326214 0.054839782 0.028929844 0.003839032
0002e0 75 22 d4 3d 67 c9 3a bd de 2c 04 bd 74 2c 75 3d
       0.10358135 -0.04560223 -0.03226935 0.059856847
0002f0 e2 96 cd bd ad cd 06 3d b3 01 b6 bd f3 61 12 be
       -0.10038544 0.03291099 -0.08887043 -0.14295177
000300 74 e1 bb 3d 47 fe 0d 3d 92 6e a7 bd 5a 46 94 bd
       0.09173861 0.034666326 -0.081753865 -0.07239981
000310 38 8e 35 bd 89 71 ef 3c 35 a8 83 3d 1a 28 31 bd
       -0.044325083 0.029228942 0.06428567 -0.043251134
000320 c4 19 78 bc 91 1c c1 3d 97 18 42 be 2b ad 10 3d
       -0.015142862 0.09429277 -0.18954693 0.035321396
000330 0c f7 17 bc c0 36 ac 3d c2 1a fa 3b 73 14 ac bd
       -0.009275209 0.0840888 0.0076325843 -0.08402338
000340 fa 0b 0e be ef df 5e bc 34 2d 81 bd 53 08 80 3c
       -0.13871756 -0.013603195 -0.0630745 0.01562897
000350 eb 2d a4 3d 04 76 d2 bd e4 b9 b1 3d a1 dd c9 bd
       0.08016571 -0.10276416 0.08678034 -0.098567255
000360 46 84 ca bc 03 c8 f5 3b 1f 92 d0 bd 0d 84 14 3e
       -0.024721276 0.00750065 -0.101841204 0.14503498
000370 01 a4 7f 3d bf 51 8c bd 0e 94 47 3d a8 a8 1f bd
       0.062412266 -0.06851529 0.04872518 -0.038979203
000380 78 ba 02 bb ff 29 43 bd bb 8d 51 bd bf 93 cb bd
       -0.001994757 -0.047647472 -0.051160555 -0.0994029
000390 f6 a3 ac 3d b9 66 c4 bd a2 cc db 3b 2d 41 37 bd
       0.084297106 -0.09589905 0.0067077437 -0.04473989
0003a0 5a 99 0c 3e 4e b1 30 3d c7 c1 51 bd 34 10 2a bd
       0.13730374 0.04313784 -0.05121019 -0.04151936
0003b0 dc 24 8d 3d e5 dd 4e bd f7 ce 45 bd 82 87 47 bd
       0.06891796 -0.050504584 -0.04829308 -0.048713215
0003c0 09 18 49 be c5 37 7e bd c1 00 dd bd 16 8e 39 bd
       -0.19638075 -0.062064905 -0.107911594 -0.04530152
0003d0 fa d3 44 bd 09 fc 76 3d 9a 06 ea bd f8 17 d8 3d
       -0.04805372 0.060298953 -0.114270404 0.10551447
0003e0 60 6f 0f 3e 34 5b b0 bd a0 db d9 3d e7 02 af bd
       0.1400733 -0.086111456 0.10637593 -0.085454755
0003f0 45 a1 1b 3d 70 5d fd bd e2 69 71 bd 27 ec 22 3e
       0.037995595 -0.123713374 -0.05893887 0.15910397

actor.6.bias f4 [12]
000000 cb e9 21 be 58 b7 18 3d 0b e6 32 3e 2c 23 74 bd
       -0.15811841 0.037284225 0.17470567 -0.059603855
000010 ae 5f 6b be b3 7b 7c bd 9b 40 18 3e 87 1b 29 bd
       -0.22985718 -0.061641406 0.14868395 -0.041286018
000020 e9 05 c7 bc c4 40 1f 3e cd 06 98 bd 5b f0 07 be
       -0.02429481 0.1555205 -0.07423172 -0.13275282

critic.0.weight f4 [128, 48]
000000 01 37 5d 3e 73 ae 2c 3e d9 22 01 3f fe a7 de be
       0.21603014 0.16863422 0.504438 -0.43487543
000010 ff 3e 07 be e3 59 07 bf 54 37 84 bf b5 eb b7 3e
       -0.13207625 -0.5287153 -1.0329385 0.35922018
000020 ca 4b f2 bc 6f 4e 21 be 5b 6e 8c be 88 a4 3e 3f
       -0.029577155 -0.15752576 -0.27427945 0.74469805
000030 d2 0e 0b 3e aa ee ae bd b5 d5 1e bb 80 b3 b6 3d
       0.13579872 -0.08541615 -0.0024236266 0.08920956
000040 5e 30 bf bb e4 cb 55 be 26 34 c0 be 43 5a b8 3c
       -0.0058346232 -0.2087856 -0.37539786 0.022503978
000050 99 db b0 3d 17 d2 13 be cf d0 f0 3b a6 e0 6b be
       0.08635635 -0.14435612 0.0073491107 -0.23034915
000060 d5 bb 91 be 9f cd 8a bd 3c 27 c8 bc cd 83 5e be
       -0.28463617 -0.067775 -0.02443277 -0.21729966
000070 d9 2e 0a 3d ce e7 51 be 7b 32 7e be 85 9b 50 3e
       0.033736084 -0.20498583 -0.24823944 0.20371826
000080 fb e0 69 be 18 9e 98 be 4d bc 68 3e 4f f0 db 3d
       -0.2283973 -0.29808116 0.22728081 0.107391946
000090 91 27 ce 3c 14 89 f5 3d 9c da 8c 3d 32 b0 a7 bc
       0.025165351 0.11989036 0.06877634 -0.020469759
0000a0 0d 5c b2 3d 94 b6 52 bd c9 b5 44 bd 30 8b 0e bd
       0.087089635 -0.05144365 -0.048024926 -0.03480071
0000b0 8c 50 bf bd 95 6e fd bc 4e 08 13 bd 38 78 d7 3c
       -0.09341535 -0.030936519 -0.03589659 0.026302442
0000c0 9a b7 3c 3e 16 e9 88 bd 58 2a 06 3e 6c d4 e2 bd
       0.18429413 -0.066850826 0.1310209 -0.110756725
0000d0 6d 3e 53 3d 1b aa 3a 3c 3f e0 16 3f 95 0d 32 bd
       0.051573206 0.011393095 0.5893592 -0.043469984
0000e0 b9 94 07 bd 17 4b 5f bc 1c be 12 be 66 f9 0d 3f
       -0.033100817 -0.013628743 -0.14330333 0.55458677
0000f0 bf f3 80 bc 47 6a 06 3e 19 f9 6f 3e 2f 7d c5 3d
       -0.015741227 0.13126479 0.23434867 0.096430175
000100 94 89 86 3d 1f 13 90 bc 7f a6 02 3e 5b 15 3a 3d
       0.0656921 -0.017587243 0.12758826 0.045430522
000110 d0 a0 51 3e 74 a5 85 3c 2f ae 73 be 04 4a ad bd
       0.20471501 0.016314246 -0.23796915 -0.08461383
000120 b2 f1 0e bd 67 10 19 3e 5e 07 44 bd d4 6d e0 3c
       -0.034898467 0.14947663 -0.04785859 0.02739612
000130 d0 ca 86 bd 2f c2 af 3b 55 d6 03 3c bd 56 ab bd
       -0.06581652 0.0053637247 0.008046706 -0.083661534
000140 b2 d0 57 bd 34 dc de bd ca f2 fa bc 50 a7 9b bd
       -0.05268926 -0.10881844 -0.030633349 -0.07600272
000150 7a b1 ee bd 79 30 78 bd bb 07 a6 bd 11 82 21 3d
       -0.11654945 -0.060593102 -0.08106943 0.03943068
000160 9a 5d 6c 3d 54 d0 2c 3b 07 21 02 3d 85 1e f2 bc
       0.057706453 0.002636929 0.03176978 -0.029555568
000170 25 42 b4 bd da 7f af 3d 38 1a 4a bb ff d4 73 bd
       -0.088016786 0.085693076 -0.0030838381 -0.0595293
000180 58 4f c7 bd ba ca 89 3d 1a 28 3e 3d 24 1a 06 3d
       -0.097319305 0.0672812 0.046424963 0.032739773
000190 d8 51 7c bd cf 54 83 3e 62 37 9a be 1d 16 45 3e
       -0.06160149 0.2565064 -0.3012038 0.19246717
0001a0 18 3b b4 3d bd 8e 47 3d 50 17 5e be 00 16 81 3f
       0.08800334 0.04872011 -0.2168858 1.0084839
0001b0 1e 70 c9 be 5e e6 8c be 6b 74 8d be cc 89 82 bd
       -0.3934335 -0.27519506 -0.27627882 -0.06373939
0001c0 92 d4 9c bd a6 69 eb 3d c5 d8 63 3e 03 d8 00 3e
       -0.07657732 0.1149476 0.2225066 0.12582402
0001d0 1a 14 20 3e ed e9 02 3e 42 b8 31 be 0a bf 86 3d
       0.15632668 0.12784548 -0.17355445 0.065794066
0001e0 78 bf 15 3b 76 83 12 be c2 62 c4 bc e5 41 49 be
       0.002284972 -0.14307961 -0.023972873 -0.19654043
0001f0 3e eb 1b 3e 9e bf 89 bc d5 ee 20 3c 48 94 0c 3e
       0.15226457 -0.016815003 0.009822567 0.1372844
000200 31 d9 68 bd 7d 8f a6 bc 7d e5 f2 3d 0c 61 fa bd
       -0.056847755 -0.020332092 0.11860178 -0.122255415
000210 c0 4e 2d 3d 94 bd d3 bc 27 ec a1 3d e8 b0 c5 bd
       0.04231143 -0.025847234 0.079063706 -0.09652883
000220 cc d8 1b bd 01 0e 24 3c 26 ed 18 bd 35 91 43 3d
       -0.03804855 0.010013104 -0.037335537 0.047745902
000230 1f 45 88 3d de 89 b0 3c bd 97 a8 3c 87 a5 5d bd
       0.06653809 0.021550115 0.020580167 -0.054112937
000240 3f 52 09 bf a9 d6 16 be 1b 0d 88 bd c3 2b d6 bb
       -0.5364112 -0.14730324 -0.06643125 -0.0065359785
000250 33 89 5a be e3 19 db be cb e3 d6 bf ec 43 21 3e
       -0.213414 -0.42793187 -1.6788267 0.15748566
000260 68 bd a5 3d 94 51 fe be e3 f2 57 3e f8 33 ca 3e
       0.08092767 -0.49671614 0.21088748 0.39492774
000270 0f ea d1 3e 32 e3 c1 bd b9 ba ae be f7 e1 1e bf
       0.40998885 -0.09467162 -0.34126833 -0.62063545
000280 1f 6c 9c be 2b cd a2 be 11 42 dd be 11 13 d6 be
       -0.3055124 -0.31797156 -0.43214467 -0.41811422
000290 17 3b 42 be 0e 2b f3 3e fc 6b fb bd 66 1e d3 be
       -0.18967853 0.47493786 -0.12276456 -0.4123413
0002a0 9d 29 02 3e 0e 52 20 3e 58 1d f7 bb 09 82 7e be
       0.12711187 0.15656301 -0.00754134 -0.24854292
0002b0 95 4b a5 3d 02 8c 07 be e1 12 c7 bd e3 5c 71 3d
       0.08071057 -0.13237002 -0.09720398 0.058926474
0002c0 8c f4 2c b8 fd 92 df 3d 40 ec 37 3e 25 98 71 bc
       -4.1235748e-05 0.10916708 0.17961216 -0.014745747
0002d0 47 25 a2 3c 09 24 c7 bc f6 e1 fe 3c e6 3a 09 bc
       0.019793166 -0.024309175 0.031113606 -0.008375859
0002e0 f3 c3 4c 3b 41 59 15 3c 22 3f d8 bc 0c 19 b6 bc
       0.0031244725 0.009115518 -0.026397292 -0.02222874
0002f0 b4 2d d2 ba 90 c3 1c bd f5 70 c6 bc 06 06 e1 bc
       -0.0016035349 -0.03827244 -0.024223784 -0.027468693
000300 38 74 e3 bc 15 f4 88 bc ad 22 05 3e 7a 1c fd 3d
       -0.027765378 -0.01671795 0.13001509 0.12358947
000310 b7 51 d7 3d 17 6a bf bc 06 ed fe 3d fe 8a 25 be
       0.10513633 -0.023366017 0.124475524 -0.16166303
000320 b1 51 9f bd 1d bd a7 bb e9 36 26 3d 0c d7 df be
       -0.07779253 -0.0051189796 0.04057971 -0.43718755
000330 72 8b e6 bd 69 85 6b be d3 bd 9c bd 79 83 25 be
       -0.11257066 -0.2300011 -0.076533936 -0.16163434
000340 37 7f c0 bd 88 2c 7f be b5 92 0f bc 5a 1d 25 3e
       -0.09399264 -0.24919331 -0.008763005 0.16124478
000350 c6 a0 8f 3d a0 1c 3a be 07 4d 9b 3d b7 9b 06 bd
       0.07013087 -0.18174982 0.07583051 -0.032863345
000360 d3 23 9c 3d 0d a3 8a 3e d1 f0 2f be 3e 35 16 3e
       0.076240204 0.27077523 -0.17181708 0.14668748
000370 bf 4b f9 3d a1 3b d5 3d af 2c 31 be c2 4c f6 3d
       0.121726505 0.10411764 -0.17302202 0.12026359
000380 98 d5 dc 3d 82 06 2a be a3 17 93 3d 6d d5 2e 3d
       0.10782927 -0.16604045 0.07182243 0.042684007
000390 d9 90 e3 bd 15 ab 1d bd 44 40 1c 3b 2f de f5 bd
       -0.11111612 -0.038493235 0.0023842016 -0.12005269
0003a0 22 81 81 3d b6 31 a6 3d 63 a1 b7 bd 45 26 94 bd
       0.06323458 0.0811495 -0.08966329 -0.07233862
0003b0 3b 14 a3 3b cf 04 7a 3d 46 75 4c 3c e8 88 cb 3d
       0.004976777 0.061039742 0.012479132 0.09938222
0003c0 e6 e7 32 3e 51 de b6 be bb 22 05 be 52 21 5b 3e
       0.17471275 -0.3571649 -0.1300153 0.2139943
0003d0 24 d0 21 bc c3 de 55 3e 7f 6b 35 3e 2b 66 e5 bd
       -0.009876285 0.20885758 0.17716788 -0.112011276
0003e0 03 76 93 bd 54 ae f6 bd c8 25 99 3d 3b 07 99 3e
       -0.07200243 -0.12044969 0.07477909 0.2988833
0003f0 36 11 ad 3b 49 ef 9f 3d 7f d1 4e 3e 45 2e e0 3e
       0.0052815927 0.07809312 0.20197104 0.437853

critic.0.bias f4 [128]
000000 13 a4 31 3e 7d eb 92 3c 21 96 2e be 70 a7 8f be
       0.17347746 0.017934555 -0.17049457 -0.28057432
000010 25 ab c8 bc 50 74 b4 3d 39 d2 d5 bd bb 1c 11 3d
       -0.02449567 0.08811247 -0.104404874 0.03542779
000020 8e 56 8f 3d 89 25 a5 3d ef 9c 24 be f0 8c 4d 3d
       0.06998931 0.080638 -0.1607549 0.050183237
000030 fc f4 79 3d b7 71 a6 3c 92 0a 53 3d 78 20 f0 3c
       0.06102465 0.020317895 0.051523753 0.029312357
000040 fb 13 cb 3d 92 0a aa bd a3 4c fd 3d e9 84 1e be
       0.0991592 -0.083027974 0.12368133 -0.15480389
000050 cf df 07 3e 6a 2e d0 bd ce 4b 19 3c 28 f2 16 3b
       0.1326897 -0.10165103 0.009356452 0.002303252
000060 76 53 0c 3d 5e e0 84 bd 3f 87 47 3c c8 05 1b 3d
       0.034259282 -0.06488107 0.012178241 0.03784731
000070 64 68 b9 3c 79 8b 3e be 6c be ca bd 2d 60 1c be
       0.022632785 -0.18607892 -0.09899601 -0.15271063
000080 1d fa 8d be bb 48 43 be 9b 8d fe bc 7f 82 c5 bc
       -0.27729884 -0.19070713 -0.031073382 -0.024110077
000090 d2 b2 21 3e 46 54 8b 3c cd 8c c2 bd 21 e1 0a be
       0.15790871 0.017007958 -0.09499512 -0.13562442
0000a0 88 32 b5 3d 87 96 83 bd 59 e3 a1 bc 62 72 0a be
       0.08847529 -0.06425195 -0.019761728 -0.13520196
0000b0 28 7f 15 be e9 92 59 be ef 4c d1 bd 0f de 82 bd
       -0.14599288 -0.21247448 -0.10219752 -0.063900106
0000c0 e4 d2 2b be 57 af f5 bd 8b 43 29 be a3 43 c7 bc
       -0.16779667 -0.11996334 -0.16529672 -0.024324244
0000d0 9c 9d 00 be 07 6a e1 bd 92 7f b7 3c 0c 3f 2f bc
       -0.12560123 -0.11006551 0.022399697 -0.010696184
0000e0 dd f7 05 be 84 de ad 3c 7b 17 4a be d3 76 e0 3d
       -0.13082834 0.021224268 -0.1973552 0.10960164
0000f0 d0 f3 d2 3b 4b 90 28 be 58 68 53 be 4f ff 82 bd
       0.006437756 -0.16461293 -0.20645273 -0.063963525
000100 07 d2 97 bc 16 0a b3 3d cc 78 ff 3d f6 8b f8 3c
       -0.018532766 0.08742158 0.12474212 0.030340176
000110 c2 00 bd bc 99 3b b4 3d 76 6e 92 3d db 76 16 3e
       -0.02307165 0.0880043 0.07149975 0.14693777
000120 3c f2 15 be 4c 23 e3 bd c4 b4 6e bd a7 7e ad bd
       -0.14643186 -0.11090717 -0.05827786 -0.08471423
000130 e4 bd f5 bd 95 03 21 be 51 41 73 3d 41 ed cb bd
       -0.119991094 -0.15724023 0.059388462 -0.09957362
000140 b4 aa d5 3d e7 c0 b3 bd 11 98 2a be 04 56 9c bd
       0.1043295 -0.087770276 -0.16659571 -0.07633594
000150 b5 35 1f 3e e0 d0 bb 3d cb cd 1c be 45 ff 37 be
       0.15547831 0.09170699 -0.15312879 -0.17968471
000160 a5 3b 4f bd 1a cd 8f bd bf 46 0e bd ac fc ff bd
       -0.05059399 -0.07021542 -0.034735437 -0.12499365
000170 66 7c 64 3d 44 f6 80 bb 8c ed b4 bc ef dc b2 bd
       0.055782698 -0.003935607 -0.022085927 -0.08733546
000180 28 ca 84 39 b3 0a 65 bc 2f 9b 30 3c ab e5 0f 3c
       0.0002532762 -0.013979602 0.010779186 0.008782784
000190 a8 f9 f0 3d f9 bf 46 be c2 fa 20 bc a0 2f 38 3d
       0.11766368 -0.1940917 -0.00982541 0.044967294
0001a0 a6 7b 7a 3d b0 3c d8 3d 6a 04 a4 be 5b bf 03 be
       0.061153077 0.1055845 -0.32034618 -0.12865965
0001b0 83 4f da 3d 28 15 6f bd 17 a2 90 bd 8f eb 40 bd
       0.10659697 -0.058369786 -0.07062166 -0.047099646
0001c0 37 5e 61 3d 6f 16 a0 bc 3f 66 43 be 41 3a ca 3d
       0.05502149 -0.019541947 -0.19081973 0.09874392
0001d0 11 be e6 bc 50 16 cd bb 9f ad be bb b1 99 17 3e
       -0.028166803 -0.0062587634 -0.005819037 0.14804722
0001e0 21 6b 76 be df 8d eb bd fe f3 d4 bd af cb 02 3c
       -0.24064304 -0.11501669 -0.103981 0.007983132
0001f0 94 9a 3a be b2 7e e4 bd 28 f6 08 3d d2 61 81 be
       -0.1822303 -0.11156978 0.033437878 -0.25269943
