logs/flat_anymal_c/Nov23_11-24-27_/model_150.pt (torch, 418700 bytes, 48 tensors)

std f4 [12]
0	0x3efcc650	0.4937005
1	0x3f178429	0.59186035
2	0x3f05de96	0.52292764
3	0x3efa026b	0.4882997
4	0x3f1a13c9	0.6018644
5	0x3f0531ff	0.52029413
6	0x3ef915ee	0.48649544
7	0x3f1baeab	0.608134
8	0x3f070a6b	0.5275027
9	0x3ef61e9b	0.48070225
10	0x3f179511	0.5921183
11	0x3f055b43	0.5209238

actor.0.weight f4 [128, 48]
0	0x3dbabb45	0.0911775
1	0x3c9c6d20	0.019095004
2	0x3deb51db	0.11490222
3	0xbe1604f6	-0.1465033
4	0x3f23960c	0.6390083
5	0x3f36f348	0.7146497
6	0x3f6850d3	0.9074833
7	0x3eac13b0	0.3360877
8	0x3d2f281d	0.042762864
9	0xbe752395	-0.23939355
10	0xbd12aae8	-0.03580752
11	0xbebb2904	-0.3655473
12	0x3db306ae	0.087415084
13	0x3e194dd6	0.14971098
14	0xbef1c68f	-0.472218
15	0x3e8a4500	0.27005768
16	0x3ec15c7c	0.37765872
17	0xbf296ddb	-0.6618325
18	0x3e67c945	0.22635372
19	0x3e838216	0.25685185
20	0x3ec84043	0.39111528
21	0xbe04f805	-0.12985237
22	0x3e2175b0	0.1576755
23	0x3e73d490	0.23811555
24	0x3dec0910	0.11525166
25	0xbe07dc6e	-0.13267681
26	0xbe08d55a	-0.13362637
27	0x3e7ca962	0.2467399
28	0xbf2b3e19	-0.6689163
29	0xbe94d3a0	-0.29067707
30	0xbde5d176	-0.11221592
31	0xbe765f56	-0.24059805
32	0x3e6dd6b7	0.23226438
33	0xbea7b07e	-0.3275184
34	0xbe09f0eb	-0.13470809
35	0x3eba29d4	0.36360037
36	0xbd6dfafe	-0.058100693
37	0x3dc618f2	0.09672727
38	0x3dfce835	0.123489775
39	0xbe583037	-0.21112143
40	0x3dd4ce96	0.10390966
41	0xbd725501	-0.059163097
42	0xbe5effd1	-0.21777274
43	0xbc81929d	-0.015816981
44	0xbd869748	-0.06571823
45	0xbd831352	-0.064001694
46	0x3dfc1054	0.12307802
47	0xbda358f0	-0.07975948
48	0xbeab2940	-0.3342991
49	0xbb9e16a1	-0.004824475
50	0xbe3087aa	-0.17239252
51	0xbe134d22	-0.14384893
52	0x3fbf71f1	1.4956647
53	0x3f203ce1	0.62592894
54	0x3f20643c	0.62652946
55	0x3e6513de	0.2237086
56	0x3e28e68b	0.16494195
57	0x3ebab689	0.36467388
58	0xbead9829	-0.3390515
59	0xbf3af580	-0.73030853
60	0x3f140221	0.5781575
61	0xbe98b837	-0.29828045
62	0xbf1df53f	-0.6170234
63	0xbf38434b	-0.7197768
64	0xbd57f51f	-0.052724
65	0x3daa7a88	0.08324152
66	0xbdd89729	-0.105757065
67	0x3f24b223	0.64334315
68	0x3daeb1ec	0.0853003
69	0x3ed1ddb2	0.40989453
70	0xbf3ec1b4	-0.7451432
71	0xbf127982	-0.57216656
72	0x3dc5bda2	0.0965531
73	0xbd416221	-0.047212724
74	0xbf19b46f	-0.60040945
75	0x3e13bfdb	0.14428656
76	0x3d9040bf	0.07043599
77	0x3e37818f	0.17920516
78	0x3e87cc88	0.26523232
79	0x3d3961ef	0.045259412
80	0x3db8408a	0.08996685
81	0xbf358d23	-0.7091848
82	0xbf3044a1	-0.6885472
83	0x3e94fad4	0.29097617
84	0xbd09bf60	-0.033629775
85	0x3cb495ac	0.022044025
86	0xbd36d3eb	-0.044635694
87	0x3e05809c	0.13037342
88	0x3bb2b818	0.0054540746
89	0xbe5abbce	-0.21360704
90	0xbd1462a7	-0.036226895
91	0xbe263fa2	-0.16235211
92	0x3e76e51c	0.24110836
93	0xbd6abd28	-0.0573093
94	0xbc2a1415	-0.0103807645
95	0x3e2d7dd8	0.16942537
96	0xbc8c032f	-0.017091362
97	0xbf05b086	-0.5222248
98	0xbe87faeb	-0.26558623
99	0x3f1f6ab8	0.62272215
100	0xbf7496ba	-0.9554249
101	0x3eddf0e4	0.43347847
102	0x3e44ad0c	0.19206637
103	0xbfe5c186	-1.7949684
104	0xbd896f5f	-0.067106955
105	0xbdf2c1cd	-0.11853371
106	0x3decb599	0.115580745
107	0xbf7903d7	-0.97271484
108	0x3f32f6b2	0.6990768
109	0x3f117c59	0.56830364
110	0xbe171d4f	-0.14757274
111	0x3efd3e3b	0.4946154
112	0x3ebf395f	0.37348458
113	0xbe9e6589	-0.3093684
114	0x3ec75a07	0.38935873
115	0xbf22d1eb	-0.6360156
116	0xbe508a81	-0.20365335
117	0x3ebaca78	0.36482596
118	0x3e74bfed	0.23901339
119	0x3e868f5b	0.26281247
120	0xbee6b37f	-0.4505882
121	0x3f46ebe0	0.77703667
122	0xbe40cf71	-0.18829133
123	0x3f0500c7	0.5195431
124	0x3e7fcfc8	0.24981606
125	0x3a130342	0.00056080904
126	0x3f0807c2	0.5313684
127	0xbef5aedb	-0.47984967
128	0xbe4c252a	-0.19936052
129	0x3f0992e0	0.5373974
130	0xbe05f3a0	-0.13081217
131	0xbd5a7d4c	-0.05334215
132	0xbe8e2e00	-0.2776947
133	0xbc270a52	-0.010195332
134	0x3e87d457	0.2652919
135	0x3cf40744	0.02978862
136	0xbe1edcc4	-0.15513903
137	0x3e0db46a	0.13838354
138	0x3d7927f4	0.060829118
139	0xbe25244e	-0.1612713
140	0xbd8c5bbf	-0.06853437
141	0x3dc0008f	0.093751065
142	0xbe3f85c2	-0.18703368
143	0xbc3b0aff	-0.011416196
144	0xbe7dc56f	-0.24782346
145	0x3e8b42d5	0.27199426
146	0xbeb0fc2a	-0.34567386
147	0xbe2d8518	-0.16945302
148	0x3f04305c	0.5163629
149	0xbf8c1a01	-1.0945436
150	0xbed329f3	-0.41242942
151	0xbe8bfb44	-0.27340138
152	0x3d9cca25	0.076557435
153	0x3ead4daf	0.3384833
154	0xbef63aa1	-0.48091605
155	0x3f90b738	1.1305914
156	0xbde66d63	-0.112513326
157	0xbedaea5e	-0.42756933
158	0xbe445e6f	-0.19176649
159	0x3ea545af	0.32279727
160	0x3ece23ae	0.40261596
161	0xbedf6284	-0.4362985
162	0xbe1d4c92	-0.1536124
163	0x3ea2528b	0.317036
164	0x3e2c4bff	0.16825865
165	0x3e2e290f	0.1700785
166	0xbe44143f	-0.19148348
167	0xbd9c213b	-0.07623526
168	0xbd21dc91	-0.03951699
169	0xbe540c13	-0.20707731
170	0x3d80d3a5	0.06290368
171	0x3e967086	0.29382724
172	0xbf5faf74	-0.87377095
173	0xbedf010f	-0.43555495
174	0x3c0913d5	0.008366545
175	0x3d2091d0	0.039201558
176	0xbea22423	-0.31668195
177	0xbd02e7de	-0.031959407
178	0xbecaf6cb	-0.39641413
179	0xbd894942	-0.06703426
180	0x3e0ca2ae	0.13733932
181	0x3dcb419d	0.09924624
182	0xbd31d1f9	-0.043413136
183	0x3de3b647	0.11118751
184	0xbdd07c49	-0.101799555
185	0x3c538316	0.012909671
186	0xbd306f0f	-0.043074664
187	0x3d569c48	0.052395135
188	0xbe06216a	-0.13098684
189	0xbd03a181	-0.032136444
190	0xbd2fd754	-0.042929962
191	0xbe70a0ff	-0.23498915
192	0x3df38651	0.11890853
193	0x3e6d1002	0.23150638
194	0x3b892227	0.0041849795
195	0x3d3dd586	0.04634621
196	0xbf02b644	-0.51059365
197	0x3f9404e8	1.1563997
198	0x3ec0b7e0	0.37640285
199	0x3df950e6	0.12173633
200	0x3c8edf96	0.017440598
201	0xbdb5e367	-0.08881264
202	0x3ca2214e	0.019791272
203	0xbf2ccf60	-0.6750393
204	0xbe81dd08	-0.25363946
205	0x3dd9f3d0	0.10642207
206	0x3deb1594	0.11478725
207	0x3dd60be1	0.104514845
208	0x3f33e171	0.7026587
209	0xbdbf580a	-0.09342964
210	0xbc413ff5	-0.011795034
211	0xbf208013	-0.62695426
212	0x3eb06c07	0.34457418
213	0x3dcc7d3b	0.09984823
214	0x3e77b6a8	0.24190772
215	0x3f40a280	0.75247955
216	0xbe3880eb	-0.18017928
217	0xbea36d4a	-0.31919318
218	0xbe8c2706	-0.27373523
219	0x3e05b2cf	0.13056491
220	0x3ef25638	0.47331405
221	0xbe32369f	-0.17403649
222	0x3f0edc63	0.55805033
223	0xbdd4d40b	-0.103920065
224	0xbe1eb2ca	-0.1549789
225	0x3dd21a80	0.10258961
226	0xbdeaac7a	-0.114586785
227	0x3f31682f	0.69299597
228	0xbdce5d00	-0.10076332
229	0xbbcea693	-0.0063064783
230	0x3dd20915	0.102556385
231	0xbd2c9d0d	-0.042141963
232	0xbd51077a	-0.05103252
233	0x3e002197	0.12512814
234	0xbe447b7c	-0.1918773
235	0x3e24bd9a	0.16087952
236	0xbdf46226	-0.11932783
237	0xbd90a753	-0.070631646
238	0x3de63530	0.112406135
239	0xbda8ecc7	-0.08248287
240	0xb9eda61f	-0.00045327932
241	0xbda3dc4e	-0.08001004
242	0x3e68eb17	0.2274593
243	0x3dc5b6cb	0.096540056
244	0x3f8b0517	1.0860928
245	0x3f556b54	0.83366895
246	0x3df8c4f4	0.12146941
247	0x3e4cea2c	0.20011204
248	0x3e124c1e	0.14286849
249	0x3e2929fa	0.16519919
250	0xbe2d1fd3	-0.16906671
251	0xbfbee4a2	-1.4913523
252	0x3e918484	0.28421414
253	0x3e055dac	0.13024014
254	0xbead3a2f	-0.33833453
255	0xbec012d7	-0.37514374

actor.0.bias f4 [128]
0	0x3e22f47a	0.15913573
1	0xbe22da07	-0.15903483
2	0x3d86cb01	0.06581689
3	0xbe064ce8	-0.13115275
4	0xbdee5830	-0.11637914
5	0xbe78b612	-0.24288204
6	0xbe5e499f	-0.21707772
7	0xbe8f8820	-0.28033543
8	0xbe555d72	-0.20836428
9	0xbe1af40e	-0.15132162
10	0xbe9d9acc	-0.30782163
11	0x3dfacc1c	0.12245962
12	0xbe4efe50	-0.202142
13	0x3dac73b4	0.08420506
14	0xbd6de840	-0.05808282
15	0xbe1e42f6	-0.15455231
16	0xbc1c9ba1	-0.009558589
17	0xbd9679d4	-0.073474556
18	0xbd1ad6f3	-0.037802648
19	0x3d3d39ba	0.04619763
20	0xbe6c00d0	-0.23047185
21	0xbe210d3b	-0.15727703
22	0xbba51f90	-0.005039163
23	0xbe07736a	-0.1322762
24	0x3d954cde	0.07290052
25	0x3ddf3211	0.10898221
26	0xbe8a818d	-0.27051964
27	0xbe63cb0b	-0.22245423
28	0xbeb06d08	-0.34458184
29	0x3de5a25d	0.11212609
30	0x3d177752	0.036979027
31	0x3e01d702	0.12679675
32	0xbd2b5cc0	-0.0418365
33	0x3de06193	0.10956111
34	0xbe13b76b	-0.14425437
35	0xbccb68c4	-0.02483023
36	0x3e2673b3	0.16255073
37	0x3e597f79	0.21240033
38	0x3d299483	0.041401397
39	0x3d8ecaa0	0.069722414
40	0x3e2ee564	0.17079693
41	0x3d7718af	0.060326274
42	0x396c5a5e	0.00022540378
43	0x3c753ec4	0.014968578
44	0xbd8eb975	-0.06968967
45	0xbd67019e	-0.056398027
46	0xbdb0579b	-0.086104594
47	0xbe3e003c	-0.18554777
48	0x3d1c168a	0.038107432
49	0x3e7d5eb7	0.24743162
50	0x3e4c255d	0.19936128
51	0x3d9d4ae6	0.07680301
52	0xbe520a77	-0.20511805
53	0x3ac9d6db	0.0015399115
54	0x3cebbe71	0.028777333
55	0x3d6d95d9	0.058004234
56	0xbe31b0c0	-0.17352581
57	0xbd8c1457	-0.06839817
58	0xbe0dcf60	-0.13848639
59	0x3c84d5b2	0.01621518
60	0xbd9792db	-0.07401057
61	0xbcb76736	-0.022388082
62	0xbce00092	-0.027344022
63	0xbde8f628	-0.113750756
64	0x3ae36ff6	0.0017352093
65	0xbda092b2	-0.0784048
66	0xbc62a66d	-0.013833624
67	0xbe491d42	-0.19640067
68	0xbe5fc67c	-0.2185306
69	0xbdbcb59f	-0.09214329
70	0x3daac3b3	0.08338108
71	0x3db53da3	0.08849647
72	0xbe050be4	-0.12992817
73	0x3e1e8f0f	0.1548426
74	0xbe7a2e48	-0.24431717
75	0xbda850eb	-0.08218559
76	0xbcdbdbf0	-0.026838273
77	0xbd1c8de3	-0.03822125
78	0x3c26f413	0.010190028
79	0x3dd0d027	0.10195952
80	0x3df0313a	0.11728139
81	0xbd943e73	-0.07238474
82	0xbe1a711f	-0.15082215
83	0xbdc8832e	-0.097906455
84	0xbeacfd64	-0.33787072
85	0xbe58f5e6	-0.21187553
86	0xbe25239b	-0.16126864
87	0xbe8149c0	-0.2525158
88	0xbe0ba1ed	-0.13635989
89	0xbded5ab9	-0.115895696
90	0xbccc7077	-0.024955971
91	0xbe797636	-0.243615
92	0xbe976253	-0.29567203
93	0xbe90fa89	-0.28316143
94	0xbd551f3f	-0.05203175
95	0xbdfa6e54	-0.12228075
96	0xbeacae7a	-0.33726865
97	0x3e7513e3	0.23933367
98	0xbd6289a5	-0.05530705
99	0xbe65ff85	-0.22460754
100	0x3d3057f0	0.043052614
101	0x3e126c72	0.14299181
102	0xbe620f92	-0.22076252
103	0xbe340e9b	-0.17583697
104	0xbe6b26fc	-0.2296409
105	0x3d2f7d0b	0.04284386
106	0xbd417385	-0.04722931
107	0xbe9f3826	-0.31097525
108	0xbe5067e1	-0.20352127
109	0xbcd3f40e	-0.02587321
110	0xbe27136f	-0.16316007
111	0x3d6fb804	0.0585251
112	0xbd303151	-0.04301578
113	0x3d3b24fe	0.045689575
114	0x3d2abef5	0.041686017
115	0xbeab0de1	-0.33409026
116	0xbe9d5f81	-0.30736926
117	0xbd0dd54e	-0.03462725
118	0xbe556fdc	-0.20843452
119	0x3e2828bf	0.16421793
120	0xbdc155e5	-0.09440211
121	0x3e312f50	0.17303205
122	0x3dbd9858	0.09257573
123	0xbe1ac5ac	-0.15114468
124	0xbe86a03d	-0.26294127
125	0xbe40a5b4	-0.1881321
126	0xbeb81eec	-0.35961092
127	0xbd88d8dd	-0.066819884

actor.2.weight f4 [64, 128]
0	0x3d40bb84	0.04705383
1	0xbd0141ea	-0.031557
2	0xbe8cfcd6	-0.2753665
3	0xbd324903	-0.04352666
4	0x3e3a16ab	0.1817271
5	0x3e6d3376	0.23164162
6	0x3c575772	0.013143407
7	0x3d465676	0.0484223
8	0xbe53ebdb	-0.2069544
9	0xbed1988e	-0.40936702
10	0x3dc184cb	0.094491564
11	0x3c3b62c8	0.0114371255
12	0xbe23dd44	-0.16002375
13	0xbd0a3a6e	-0.03374713
14	0x3e3aa95a	0.18228665
15	0x3bc6eb64	0.006070541
16	0xbaaae0a9	-0.0013036925
17	0xbe309d6f	-0.17247556
18	0xbc5c4032	-0.01344304
19	0xbec4448f	-0.38333556
20	0xbe0ad157	-0.1355642
21	0xbca8d9cd	-0.020611668
22	0xbe93bc76	-0.28854722
23	0xbd80efb8	-0.06295723
24	0x3e3d1a71	0.18467118
25	0x3d4e33c6	0.050342344
26	0x3d9c8e74	0.07644358
27	0x3d60662e	0.054784946
28	0x3d14c376	0.03631922
29	0xbedc804a	-0.43066627
30	0x3d8375b8	0.064189374
31	0xbe0af227	-0.13568936
32	0xbe43c0d1	-0.19116522
33	0xbd859b09	-0.06523711
34	0xbe5348c8	-0.20633233
35	0x3e3ff01b	0.18743937
36	0xbd5c6f38	-0.053817004
37	0xbdfcb6f9	-0.12339587
38	0xbe113af6	-0.14182648
39	0xbe2f2b4e	-0.17106363
40	0xbe8dba2c	-0.276811
41	0xbe9f4876	-0.3110997
42	0x3dcff64f	0.101544015
43	0xbea54287	-0.3227732
44	0x3e282be8	0.16422999
45	0x3e2e3133	0.17010956
46	0xbeb649d3	-0.35603198
47	0xbd06164c	-0.032736108
48	0x3d1bd2cf	0.03804284
49	0xbda7069f	-0.0815556
50	0xbd6ad39a	-0.057330705
51	0x3ddbe61d	0.1073725
52	0xbdd1167b	-0.10209366
53	0x3dae7a39	0.08519406
54	0xbce0a69e	-0.0274232
55	0xbe90e22b	-0.28297552
56	0x3cf93b25	0.03042371
57	0xbdba39a4	-0.09093025
58	0x3c95ca69	0.018284993
59	0xbe9a3b0a	-0.30123168
60	0xbd82d916	-0.06389062
61	0xbdcde605	-0.10053638
62	0xbe813660	-0.25236797
63	0xbe0e778d	-0.13912793
64	0x3e8d4e03	0.2759858
65	0x3df99cf6	0.12188141
66	0xbd677029	-0.05650345
67	0xbe1672b0	-0.14692187
68	0x3cc8f97b	0.024533024
69	0xbd98b4ff	-0.07456397
70	0xbe81a455	-0.25320688
71	0xbe693faf	-0.227782
72	0xbe20cada	-0.15702382
73	0x3d0970d4	0.033554867
74	0x3f082dfb	0.5319516
75	0xbdc4615a	-0.09588881
76	0xbd78cf04	-0.0607443
77	0xbdcbf7c8	-0.0995937
78	0xbeceb5d6	-0.40373105
79	0xbeab7071	-0.33484223
80	0x3d8c08ad	0.06837592
81	0xbe87f105	-0.2655107
82	0xbbfcc16a	-0.0077134864
83	0xbc137c62	-0.009001823
84	0xbe58f29b	-0.21186297
85	0xbe94ebf3	-0.29086265
86	0xbc5bfd61	-0.013427109
87	0x3d96b236	0.0735821
88	0x3da87343	0.082251094
89	0xbe0bc9ca	-0.13651195
90	0xbe9785e7	-0.29594347
91	0x3d7a8dce	0.06117039
92	0xbda8bc79	-0.08239073
93	0xbcc73fc9	-0.024322407
94	0x3e6b2eba	0.22967044
95	0xbec00a6a	-0.37507945
96	0x3e9b56cf	0.30339667
97	0xbdfb325f	-0.12265467
98	0xbe7d1002	-0.24713138
99	0xbda2ed11	-0.07955373
100	0x3e2da263	0.16956477
101	0xbd4fe9e1	-0.050760154
102	0x3e5215fb	0.20516197
103	0x3c9f912a	0.0194784
104	0x3c76f6c2	0.01507348
105	0x3df9f228	0.12204391
106	0x3be5560c	0.006998783
107	0x3dd555e0	0.1041677
108	0x3d674fe5	0.056472678
109	0xbdee0265	-0.116215505
110	0x3eb2489d	0.34821025
111	0x3e6634c6	0.22481069
112	0x3d27c3dc	0.04095827
113	0xbdefb6f5	-0.11704818
114	0xbd10410d	-0.035218287
115	0x3e8d4a22	0.2759562
116	0x3d6d4822	0.05793012
117	0xbe651d14	-0.22374374
118	0x3dddbe5d	0.108273245
119	0xbec0d839	-0.37664965
120	0xbd1b66a0	-0.037939668
121	0xbe11ec87	-0.14250384
122	0xbe51a79d	-0.20474096
123	0x3dfe9f10	0.124326825
124	0x3e1729b9	0.1476201
125	0xbdf42f1e	-0.119230494
126	0xbd271d42	-0.040799387
127	0xbe12ab28	-0.14323103
128	0xbe077847	-0.13229476
129	0x3d751afa	0.05984018
130	0xbe661787	-0.22469912
131	0x3ea2680d	0.3172001
132	0xbe297856	-0.16549811
133	0xbe4a7d11	-0.19774272
134	0xbde8965a	-0.11356802
135	0xbe08c266	-0.13355407
136	0xbe6f8bca	-0.23393169
137	0xbe99dac4	-0.30049717
138	0xbd8b46ee	-0.06800638
139	0xbd86dc7a	-0.06585021
140	0x3e88e740	0.2673893
141	0xbe33d7f0	-0.17562842
142	0x3e557867	0.20846711
143	0x3dec4fb5	0.115386404
144	0xbea2b189	-0.31776074
145	0xbd2bddbd	-0.041959513
146	0xbcd791c9	-0.026314633
147	0xbe6c28d1	-0.23062445
148	0x3e810c66	0.25204772
149	0xbda83555	-0.08213297
150	0x3d68396d	0.05669539
151	0x3ddb967f	0.10722064
152	0xbcc9f517	-0.024653
153	0xbedeeeea	-0.43541652
154	0xbdc2202b	-0.09478792
155	0xbe5a11fb	-0.21295922
156	0x3c9af91c	0.018917613
157	0x3dd3fcfb	0.103509866
158	0x3e21eacf	0.15812229
159	0xbed49ca6	-0.41525763
160	0x3d652dfb	0.055952054
161	0xbdd5d107	-0.104402594
162	0x3e0a9d64	0.13536602
163	0xbe6cd6b5	-0.23128779
164	0xbe5e8cdb	-0.2173342
165	0xbdbc9493	-0.09208026
166	0x3e44e6a2	0.19228604
167	0xbda1ec48	-0.07906395
168	0xbcc7db1e	-0.024396475
169	0xbdbf0762	-0.0932758
170	0x3ca08d72	0.019598696
171	0xbdc1cb9d	-0.09462664
172	0x3e72ed9a	0.2372345
173	0xbe8787ec	-0.26470888
174	0xbe6a5f5c	-0.22887939
175	0xbe674419	-0.22584571
176	0xbebd189c	-0.36932838
177	0xbd8395c8	-0.06425053
178	0xbf0c38a8	-0.5477395
179	0xbe3a670a	-0.18203369
180	0x3dc3ebb5	0.09566442
181	0x3b71ee55	0.0036915739
182	0xbd4842cd	-0.04889183
183	0xbe76ed6b	-0.24114005
184	0x3d259905	0.040429134
185	0x3dc8272c	0.097730964
186	0x3e0208bd	0.12698646
187	0xbe1fb630	-0.15596843
188	0x3ec2a7e0	0.38018703
189	0xbc869feb	-0.016433677
190	0xbe6aed5c	-0.22942108
191	0x3da446bd	0.08021305
192	0x3e806e3b	0.250841
193	0x3d826bbe	0.063682064
194	0x3e1aa496	0.15101847
195	0x3b2d667f	0.0026458798
196	0x3ea35c28	0.31906247
197	0xbc7822a2	-0.015144976
198	0xbdfb1a3d	-0.12260864
199	0x3dfc3bd8	0.12316102
200	0x3e1d3eb3	0.15355949
201	0xbeaa5805	-0.3327028
202	0xbe08aa38	-0.13346183
203	0x3d883f6a	0.0665272
204	0xbe70b28f	-0.23505615
205	0x3df44724	0.119276315
206	0x3ec17428	0.37783933
207	0xbe61f553	-0.2206624
208	0xbd979100	-0.074007034
209	0xbec2ee58	-0.38072467
210	0x3e2b2e79	0.16716947
211	0xbd5f608d	-0.054535437
212	0x3c06274f	0.008188083
213	0xbe75bed0	-0.2399857
214	0xbded7178	-0.11593908
215	0xbdb7c91d	-0.08973906
216	0x3e91843d	0.28421202
217	0xbdbbf834	-0.091782
218	0xbe8c8779	-0.27447107
219	0x3e7b0946	0.24515256
220	0x3e7eea53	0.24894075
221	0x3ea87ff9	0.32910135
222	0x3e18976d	0.14901514
223	0x3e0d86d9	0.13820972
224	0xb88ef9d5	-6.8176225e-05
225	0xbd95b9f2	-0.07310857
226	0x3e227c16	0.15867648
227	0x3dd781b9	0.105227895
228	0xbe6a76b8	-0.2289685
229	0xbee242be	-0.44191545
230	0x3d9048b5	0.07045118
231	0x3dbdd5a8	0.09269267
232	0xbac6bf82	-0.0015163275
233	0xbd12e1e2	-0.03585995
234	0xbe228c06	-0.15873727
235	0xbc4dca00	-0.012560368
236	0xbeca721f	-0.39540192
237	0xbd80c1db	-0.06286975
238	0xbd9d1746	-0.07670455
239	0x3dbace12	0.09121336
240	0x3e686005	0.22692879
241	0xbe2dc452	-0.16969422
242	0xbe2c28e3	-0.16812472
243	0x3e8ad869	0.27118233
244	0x3e6ea185	0.23303802
245	0x3cacbc94	0.021086015
246	0x3e4b6c50	0.19865537
247	0xbde4bf19	-0.111692615
248	0x3dcc7d75	0.099848665
249	0x3e5acacc	0.21366423
250	0x3df03dbc	0.11730525
251	0xbcee7099	-0.029106425
252	0xbe67119d	-0.22565313
253	0x3dea6a2d	0.11446033
254	0xbd4ea02b	-0.050445717
255	0xbd894791	-0.06703103

actor.2.bias f4 [64]
0	0xbe4800c3	-0.1953154
1	0xbe531fc8	-0.20617592
2	0xbccd5265	-0.025063703
3	0xbe3b803f	-0.18310641
4	0xbe62e23e	-0.22156617
5	0xbcced6aa	-0.025248844
6	0xbe0c5c82	-0.13707164
7	0xbdcfdf12	-0.10149969
8	0xbe28f5da	-0.16500035
9	0xbe315858	-0.17318857
10	0xbd9e0908	-0.07716566
11	0xbda3778a	-0.07981785
12	0xbe226c82	-0.15861705
13	0xbe140bb4	-0.1445759
14	0xbe876ee6	-0.26451796
15	0xbe4081d1	-0.18799521
16	0xbddc5c26	-0.107597634
17	0x3dda403e	0.106567845
18	0xbddcb717	-0.10777109
19	0xbe13bc8a	-0.1442739
20	0xbc470b54	-0.012148697
21	0x3b634bb9	0.0034682585
22	0xbe3b1826	-0.1827093
23	0xbe22d9be	-0.15903375
24	0xbe3a79cc	-0.18210524
25	0x3cceec8d	0.02525928
26	0xbe15becc	-0.14623564
27	0xbe83718a	-0.2567256
28	0xbea09678	-0.313648
29	0xbe7987ed	-0.24368258
30	0xbd61d5c2	-0.055135496
31	0xbe340d60	-0.17583227
32	0xbe921bbd	-0.28536788
33	0xbe231c1b	-0.1592869
34	0xbcc81e66	-0.024428558
35	0xbe09d1bc	-0.13458914
36	0xbed50cc4	-0.41611302
37	0xbd8e9230	-0.06961477
38	0xbdcbc162	-0.09948994
39	0xbe1bc48b	-0.15211694
40	0xbdc59b12	-0.09648718
41	0xbe2057de	-0.15658519
42	0x3b24f613	0.0025171086
43	0xbe82a45f	-0.2551603
44	0xbe01d3eb	-0.12678497
45	0xbdecf6e7	-0.115705304
46	0xbe291811	-0.16513087
47	0xbd890a34	-0.06691399
48	0xbdab8da9	-0.08376629
49	0xbe06fb14	-0.13181716
50	0xbd15ba68	-0.036554724
51	0x3c8f74eb	0.017511806
52	0xbdfb0283	-0.122563384
53	0xbe27ade7	-0.16374932
54	0xbda6e834	-0.08149758
55	0xbd76f79c	-0.060294732
56	0x3d3f23c6	0.046664976
57	0xbe873876	-0.26410264
58	0xbe277c4e	-0.16356012
59	0x3d1e7826	0.0386888
60	0xbe8f8bea	-0.28036433
61	0xbe02e21e	-0.1278157
62	0x3d847a10	0.06468594
63	0xbe3f4184	-0.18677336

actor.4.weight f4 [32, 64]
0	0x3e3f38ac	0.18673962
1	0x3e6bc58b	0.23024575
2	0x3d5314c8	0.05153349
3	0x3dd8d69b	0.10587808
4	0x3d04178c	0.03224902
5	0xbd93d1a4	-0.0721772
6	0x3d963d8d	0.07335959
7	0xbdc53dcb	-0.09630927
8	0x3c2c4757	0.010515056
9	0xbd9674df	-0.0734651
10	0xbd9f720a	-0.07785423
11	0x3e42f821	0.19039966
12	0x3b853628	0.004065294
13	0x3dcaa296	0.09894292
14	0x3d73c153	0.05951054
15	0x3d8f661a	0.07001896
16	0x3e11d367	0.142408
17	0x3e165a8e	0.14682981
18	0x3cb632ed	0.02224108
19	0xbc624dd9	-0.013812506
20	0xbd1dac90	-0.038494647
21	0x3d12dfc1	0.03585792
22	0x3dc4c937	0.09608691
23	0x3e809e45	0.2512075
24	0x3dcaced4	0.099027306
25	0x3d8abeed	0.067746975
26	0xbd814e60	-0.06313777
27	0xbb31a8b0	-0.0027108602
28	0x3dc26495	0.09491841
29	0x3c76dab1	0.0150667885
30	0xbd736117	-0.059418764
31	0x3d3c9f1b	0.046050172
32	0x3e31112b	0.17291705
33	0x3c713b93	0.014723676
34	0xbdd196d5	-0.10233847
35	0xbe89f17c	-0.2694205
36	0x3ebaf022	0.36511332
37	0x3d2ce060	0.04220617
38	0xbd489a3b	-0.04897521
39	0x3cdfc150	0.027313858
40	0x3da020dc	0.078187674
41	0x3dd087fa	0.101821855
42	0xbd5c9c88	-0.053860217
43	0x3ce6670b	0.028125307
44	0x3e7d84fb	0.2475776
45	0x3e454bbd	0.19267173
46	0xbd8dc0dd	-0.069215514
47	0xbea351c0	-0.31898308
48	0xbe5c3daa	-0.21507898
49	0x3daf931a	0.08572979
50	0x3d11b489	0.035572562
51	0xbd03e8ee	-0.03220456
52	0x3dd91be0	0.1060102
53	0x3e583f46	0.21117887
54	0xbe4b4ec5	-0.19854267
55	0x3c89ee4c	0.016837262
56	0xbe77aa21	-0.24185993
57	0xbda127a4	-0.07868889
58	0x3dce395a	0.10069533
59	0x3db55454	0.08853975
60	0x3de2da77	0.11076825
61	0x3dfdab2c	0.12386164
62	0xbe65977f	-0.22421072
63	0xbde13145	-0.109957255
64	0xbe4a0a11	-0.19730403
65	0xbdec9d4b	-0.11553439
66	0xbe240047	-0.16015731
67	0xbddc8418	-0.107673824
68	0xbcb20d6e	-0.02173492
69	0xbddb7ff9	-0.10717768
70	0x3ddb686f	0.107132785
71	0x3da8dad1	0.08244861
72	0x3cd84038	0.02639781
73	0xbdebb162	-0.115084425
74	0xbcba66a7	-0.022754027
75	0xbca822a9	-0.02052434
76	0x3e0d2cc7	0.13786612
77	0xbe7e83b9	-0.24854936
78	0x3e030876	0.12796196
79	0x3e4a9e91	0.19787051
80	0x3df735f8	0.120708406
81	0xbdf94624	-0.121715814
82	0xbdd110c2	-0.102082744
83	0x3d1869c8	0.037210256
84	0xbc102713	-0.0087983785
85	0xbe014f6a	-0.1262795
86	0x3c9921f8	0.018692955
87	0xbe6a95b0	-0.22908664
88	0xbce5a4b8	-0.028032646
89	0xbd4d55d0	-0.050130665
90	0x3de58215	0.11206452
91	0xbdac49b8	-0.08412498
92	0xbe339397	-0.1753677
93	0xbd526b14	-0.05137165
94	0xbe4b82f6	-0.19874176
95	0xbe4e89ec	-0.201698
96	0xbda4a983	-0.08040144
97	0x3de71dff	0.11285018
98	0x3d06d721	0.032920007
99	0xbe8c2ed0	-0.27379465
100	0xbe1d4f98	-0.15362394
101	0xbdc1502e	-0.09439121
102	0xbd267e4d	-0.040647794
103	0xbe92ce97	-0.2867324
104	0x3e50f838	0.20407188
105	0xbe9b561e	-0.3033914
106	0x3d811303	0.06302454
107	0xbdb0dde5	-0.08636073
108	0x3e7738ee	0.2414281
109	0x3e3af436	0.18257222
110	0x3e52a7c0	0.20571804
111	0xbc879f2e	-0.016555395
112	0x3d83127e	0.064000115
113	0xbd371251	-0.044695202
114	0x3c1d4556	0.0095990505
115	0x3e26b258	0.1627897
116	0xbdb140b7	-0.086549215
117	0x3eba4c64	0.36386406
118	0xbad5b48f	-0.0016304421
119	0xbc9d23a2	-0.01918203
120	0xbba27215	-0.0049574473
121	0xbe29c244	-0.16578013
122	0x3d5f91d1	0.05458242
123	0xbd6e2d59	-0.058148716
124	0x3d9bd8cd	0.07609711
125	0xbdb19592	-0.086711064
126	0x3e0874fa	0.13325873
127	0x3e36bb8b	0.1784498
128	0x3e72587b	0.23666565
129	0xbd8e11df	-0.069370024
130	0x3d304c8d	0.043041755
131	0x3dd23750	0.10264456
132	0x3e23952f	0.15974878
133	0xbddaee0a	-0.106899336
134	0xbedb1f93	-0.42797527
135	0xbe004b6f	-0.12528776
136	0x3e2565a4	0.16152054
137	0xbed3df5f	-0.41381356
138	0xbe10b157	-0.1413015
139	0xbe426ec8	-0.18987572
140	0xbe9127fb	-0.28350815
141	0x3db90bde	0.090354666
142	0xbd95ba1c	-0.07310888
143	0x3dbcc213	0.09216704
144	0x3ccffb51	0.025388392
145	0xbee20a24	-0.44148362
146	0x3cc7113c	0.02430021
147	0x3e2199b0	0.15781283
148	0x3cdfb24f	0.027306704
149	0xbd3d2a0e	-0.046182685
150	0xbd27f44e	-0.04100447
151	0x3cab3473	0.020899033
152	0xbd628add	-0.05530821
153	0xbe5d2774	-0.21597081
154	0xbe177c43	-0.14793496
155	0xbd3ba204	-0.045808807
156	0x3e14d306	0.14533624
157	0xbd4fe48a	-0.05075506
158	0xbe955d9c	-0.2917298
159	0xbd110840	-0.03540826
160	0x3e06f637	0.13179861
161	0x3da5c423	0.08094051
162	0x3e776d5d	0.24162813
163	0x3cfcdf74	0.03086827
164	0x3d7fd010	0.062454283
165	0xbe0f6d45	-0.14006527
166	0xbcd9c245	-0.026581893
167	0x3d0d8875	0.034553964
168	0xbd3b5d72	-0.045743413
169	0x3e23c340	0.1599245
170	0x3e03d9ca	0.12876049
171	0x3dde060b	0.10840996
172	0xbe33deb2	-0.1756542
173	0xbe49c9e9	-0.19705929
174	0x3dfaca2f	0.12245595
175	0x3ca3177c	0.01990866
176	0xbd530461	-0.051517848
177	0xbd951da1	-0.07281042
178	0xbed5939e	-0.41714185
179	0xbe1e8463	-0.15480189
180	0xbdc4f335	-0.096167006
181	0xbe617a41	-0.22019292
182	0xbe191b1f	-0.14951752
183	0xbcd19f77	-0.025588734
184	0xbe09a612	-0.13442257
185	0xbd93838d	-0.07202826
186	0xbe3b27ab	-0.18276851
187	0x3d3286c4	0.043585554
188	0x3cdbec19	0.026845979
189	0xbc343649	-0.010999271
190	0x3d25e435	0.04050084
191	0xbd7e3eb9	-0.062071536
192	0x3e13407d	0.14380069
193	0x3daa275f	0.08308291
194	0x3d0c99e7	0.03432646
195	0xbc24300c	-0.010021221
196	0x3da69d1f	0.08135437
197	0xbe5311b1	-0.20612217
198	0x3e11642b	0.14198367
199	0x3da3059d	0.07960055
200	0x3e85764d	0.2606682
201	0xbca90e33	-0.020636654
202	0x3da8f376	0.082495615
203	0xbd13d6e6	-0.036093615
204	0xbe0565b7	-0.13027082
205	0xbe08d9f2	-0.1336439
206	0x3e26b86b	0.16281287
207	0x3ec29145	0.38001457
208	0x3e02c8f4	0.1277197
209	0xbd2e1594	-0.042501047
210	0xbdf288d5	-0.11842505
211	0x3e62006f	0.22070478
212	0x3e6526fd	0.22378154
213	0xbd192094	-0.037384585
214	0x3e8db945	0.27680412
215	0x3d16262a	0.03665749
216	0x3e1fc732	0.1560333
217	0x3e2b8c38	0.16752708
218	0xbba20e4f	-0.0049455534
219	0xbe1f2492	-0.15541294
220	0xbdf08c34	-0.117454916
221	0xbe0a9ee2	-0.13537171
222	0x3df68d3c	0.12038657
223	0xbf0374fa	-0.5135037
224	0xbd61a138	-0.05508539
225	0x3cb1877f	0.021671055
226	0xbda1204c	-0.07867488
227	0x3e1c9d01	0.15294267
228	0x3d878984	0.06618026
229	0xbd0f3165	-0.034959216
230	0xbe22c657	-0.15895973
231	0x3e6969a9	0.22794212
232	0xbe2d2337	-0.16907965
233	0xbe708537	-0.23488317
234	0x3cd05477	0.025430901
235	0x3cae42fe	0.021272179
236	0x3dd64072	0.10461511
237	0x3d94087f	0.07228183
238	0x3d9526b9	0.072827764
239	0x3d898add	0.06715939
240	0x3ca3db5d	0.020002062
241	0x3ca53751	0.020167978
242	0x3e32cdc4	0.17461306
243	0x3d843761	0.06455875
244	0x3d303c6b	0.04302637
245	0xbd82f16f	-0.06393706
246	0x3def4d0a	0.11684616
247	0x3d812a59	0.06306905
248	0xbeafb296	-0.34315938
249	0x3c82a22b	0.015946468
250	0xbe3c8bd7	-0.1841272
251	0x3e1a2a43	0.15055184
252	0xbe1f1a72	-0.15537432
253	0xbe98cf23	-0.29845533
254	0xbcdd8c11	-0.027044328
255	0x3d5f7825	0.054557938

actor.4.bias f4 [32]
0	0xbcd86012	-0.026412997
1	0x3e483225	0.19550379
2	0xbec37828	-0.3817761
3	0xbd0cc588	-0.034368068
4	0xbd1cd786	-0.038291477
5	0xbde39324	-0.11112049
6	0xbd22bc58	-0.0397304
7	0xbd9be370	-0.0761174
8	0xbe6732c7	-0.22577964
9	0x3daee926	0.08540563
10	0xbe749ec0	-0.23888683
11	0xbd96b63b	-0.073589765
12	0xbcbdf804	-0.023189552
13	0x3cab9920	0.02094704
14	0xbe17e073	-0.14831714
15	0xbe1f5a7d	-0.15561862
16	0xbe5067df	-0.20352124
17	0xbe461b4c	-0.1934635
18	0xbe8a1467	-0.2696869
19	0xbc7798b7	-0.015112094
20	0x3dca556a	0.09879573
21	0xbe48ce0a	-0.19609848
22	0xbe5eb9dc	-0.21750587
23	0xbd826e1b	-0.06368657
24	0x3cc133cd	0.02358427
25	0xbd0c7ef7	-0.03430077
26	0xbe7b77be	-0.24557397
27	0x3c9bbeea	0.019011933
28	0xbca286d9	-0.019839691
29	0x3e216217	0.15760075
30	0xbd8937c4	-0.067000896
31	0xbe085bcc	-0.13316268

actor.6.weight f4 [12, 32]
0	0xbc4f517e	-0.012653707
1	0xbdd8c7b4	-0.10584965
2	0x3e17cbf1	0.14823891
3	0x3d912da2	0.07088782
4	0xbddc1b08	-0.10747343
5	0xbe5341ed	-0.20630617
6	0xbd3b2f9c	-0.0456997
7	0x3c66f6c5	0.01409692
8	0x3dbea39b	0.09308549
9	0xbda5adb4	-0.08089772
10	0xbcd4e4b5	-0.025987962
11	0x3e00ce3e	0.12578675
12	0xbd045341	-0.03230596
13	0x3d292c8b	0.041302245
14	0x3d7bf5ff	0.061513897
15	0x3dacd71b	0.084394656
16	0x3d0cacc0	0.034344435
17	0xbd27bfd0	-0.04095441
18	0xbd297fea	-0.041381754
19	0xbd9a8957	-0.07545727
20	0xbd2a5e5e	-0.0415939
21	0x3c371b15	0.01117589
22	0xbd822b78	-0.06355947
23	0xbd789e7b	-0.060698014
24	0x3d3e6315	0.04648121
25	0x3e1dc2d9	0.1540636
26	0x3bef60f4	0.007305259
27	0x3e50db5f	0.20396183
28	0xbc5b5299	-0.013386392
29	0xbde9ec1c	-0.114219874
30	0xbcad4eee	-0.0211558
31	0xbd9c63f8	-0.07636255
32	0x3d08e881	0.033424858
33	0x3de8d561	0.11368824
34	0x3c75003a	0.014953667
35	0xbcf3dec1	-0.029769303
36	0xbd1d370f	-0.038382586
37	0xbb784084	-0.0037880251
38	0x3d8a3859	0.06749029
39	0x3d817829	0.06321747
40	0xbcd2108e	-0.02564266
41	0x3e242705	0.1603051
42	0xbdaa2cc7	-0.08309322
43	0x3e054c6c	0.13017434
44	0xbe01eaeb	-0.1268727
45	0xbc392a4d	-0.011301589
46	0xbe9b4802	-0.30328375
47	0x3d140ab4	0.03614302
48	0x3b7a3a30	0.0038181655
49	0x3dc1dd8f	0.09466087
50	0xbde789cc	-0.113055795
51	0x3bee342e	0.007269404
52	0xbe30c18a	-0.1726133
53	0xbe019193	-0.12653188
54	0xbd587e4c	-0.05285482
55	0x3dcbee82	0.09957601
56	0x3e4112de	0.18854854
57	0xbd14431d	-0.036196817
58	0x3d992448	0.07477623
59	0x3d8237a3	0.06358268
60	0xbddbe842	-0.10737659
61	0xbd15b6b4	-0.036551192
62	0xbc0496b4	-0.008092571
63	0xbca0f551	-0.019648226
64	0xbd3d46d7	-0.046210136
65	0xbd91c758	-0.071181
66	0x3d2a8e1d	0.041639436
67	0x3c841b07	0.016126169
68	0xbd21ef1c	-0.039534673
69	0x3db2ff15	0.08740059
70	0x3ccf9c70	0.02534315
71	0x3d407d23	0.04699434
72	0xbe23c34c	-0.15992469
73	0x3c8d5534	0.017252542
74	0xbd4b8b21	-0.04969323
75	0x3d819af6	0.063283846
76	0xbd0a8f98	-0.033828348
77	0xbe033f15	-0.12817033
78	0x3e522c4d	0.20524712
79	0xbddc936d	-0.10770307
80	0xbe1c924a	-0.1529018
81	0x3c971ffa	0.018447865
82	0x3e409dbf	0.18810175
83	0x3cd91c5e	0.026502784
84	0x3dea9997	0.11455076
85	0x3e4a1087	0.19732867
86	0x3e2d8ecc	0.16949004
87	0x3e931653	0.2872797
88	0xbe34941d	-0.17634626
89	0x3e16cd25	0.14726694
90	0x3ddcaf91	0.10775674
91	0xbda28e34	-0.07937279
92	0xbd3a6676	-0.04550787
93	0xbd7fc450	-0.062443078
94	0xbb8cd776	-0.004298146
95	0x3af53b8e	0.0018709765
96	0x3cd06a52	0.025441322
97	0xbdc267f7	-0.09492486
98	0x3e6d0baf	0.23148988
99	0xbd25e67e	-0.040503018
100	0x3c5df48c	0.013547074
101	0x3e0fc26e	0.14039013
102	0x3cf13608	0.02944471
103	0xbd54d63a	-0.051962115
104	0x3d77a856	0.060463272
105	0x3dc71018	0.097198665
106	0xbd40921c	-0.04701434
107	0xbc9c5eee	-0.019088235
108	0xbd607b50	-0.0548051
109	0x3cda1d2a	0.026625235
110	0x3b97eb1d	0.004636182
111	0x3dab8617	0.08375185
112	0x3ddc1d0b	0.10747727
113	0x3d4280d6	0.04748615
114	0x3cfa82b1	0.030579897
115	0xbe067b39	-0.13132943
116	0x3da10f20	0.07864213
117	0xbdf0d8f3	-0.1176013
118	0x3d0d2a9c	0.034464464
119	0xbccbb91b	-0.024868539
120	0xbd9fde3a	-0.07806058
121	0x3df87a7d	0.12132738
122	0x39a1cfbb	0.00030863084
123	0xbe3ab9f9	-0.18235005
124	0xbc6499f7	-0.013952724
125	0xbdc44711	-0.09583867
126	0xbd581a46	-0.05275943
127	0x3e529989	0.20566382
128	0xbdb98d3b	-0.09060141
129	0xbd8b17c1	-0.0679164
130	0xbd5a2b47	-0.05326393
131	0xbd586e16	-0.05283936
132	0xbe43fa78	-0.19138515
133	0x3b7b1fbb	0.0038318473
134	0xbc9e9ceb	-0.019361934
135	0xbdb30f17	-0.087431125
136	0xbdb59c55	-0.088677086
137	0x3df925e4	0.1216543
138	0x3e137b70	0.14402556
139	0xbdfa61b3	-0.12225666
140	0x3d82e1b4	0.06390706
141	0xbcf33c13	-0.029691732
142	0xbd3d4287	-0.046206024
143	0xbd8fa46b	-0.07013782
144	0xbd9f8b26	-0.07790212
145	0xbd4752e3	-0.04866303
146	0xbe505694	-0.20345527
147	0x3d85d63d	0.06535003
148	0xbcd06ad1	-0.025441559
149	0xbd773463	-0.060352694
150	0xbe1a675c	-0.15078491
151	0x3add71c1	0.0016894863
152	0xbd4adb8d	-0.049525786
153	0x3d8f31fb	0.06991955
154	0x3df14c9b	0.117821895
155	0x3e6a06ee	0.22854206
156	0x3d16b8b7	0.03679725
157	0xbd81b809	-0.0633393
158	0xbdec31c3	-0.11532929
159	0x3e04bffe	0.12963864
160	0x3ded156f	0.11576354
161	0xbdfb62a2	-0.12274672
162	0x3cadf04f	0.021232752
163	0xbc8d2092	-0.017227445
164	0x3d871152	0.065951005
165	0x3e997944	0.2997533
166	0x3d6335ac	0.055471107
167	0x3df77c4e	0.12084256
168	0x3c0b6999	0.008509063
169	0xbe853876	-0.2601964
170	0xbe2588e9	-0.16165508
171	0xbe103ff2	-0.14086893
172	0x3dc5a72b	0.096510254
173	0xbd4cf517	-0.050038423
174	0x3cda7395	0.026666442
175	0xbcf860c5	-0.03031958
176	0xbd9db269	-0.07700045
177	0x3e09728e	0.13422605
178	0xbce77ddd	-0.028258258
179	0xbdbaef16	-0.09127633
180	0x3de2b0d1	0.11068881
181	0x3e38a666	0.18032226
182	0x3dfaae4d	0.122402765
183	0x3c398a3b	0.011324461
184	0x3dffba27	0.124866776
185	0xbd3cf4e2	-0.046131976
186	0xbc2071b4	-0.009792734
187	0xbd0549d7	-0.032541122
188	0xbdeb63d9	-0.11493654
189	0x3d43d4be	0.04781031
190	0xbe47bdba	-0.19505969
191	0xbe28a8a6	-0.16470584
192	0x3e208ad9	0.15677966
193	0x3d871f8f	0.06597816
194	0xbd69c162	-0.05706919
195	0xbdd2efb4	-0.10299626
196	0xbd6e5d8a	-0.058194675
197	0x3c22fe71	0.009948359
198	0x3d81a7d2	0.06330837
199	0xbd5b8a47	-0.05359867
200	0xbcdccef7	-0.026954157
201	0x3dac542d	0.08414493
202	0xbe3bddc8	-0.18346322
203	0x3cf9421f	0.030427037
204	0x3d52d2ce	0.05147057
205	0x3da82f49	0.08212144
206	0x3d50d459	0.05098376
207	0xbe12031d	-0.14259
208	0xbdbcb341	-0.092138775
209	0xbb8ae095	-0.004238198
210	0xbc8285ce	-0.015932944
211	0x3d8fb079	0.07016081
212	0x3d96f5cc	0.07371101
213	0xbe3d762b	-0.18502109
214	0x3e131d25	0.14366587
215	0xbcfb69fd	-0.030690188
216	0xbdbc547c	-0.091958016
217	0xbd1c5ed4	-0.038176373
218	0x3b484bef	0.0030562838
219	0x3e2a140d	0.16609211
220	0x3dbb4b29	0.09145195
221	0xbd5e93f3	-0.054340314
222	0x3d1ab13a	0.037766673
223	0x3c88e0f3	0.016708827
224	0x3b9b4a71	0.0047390987
225	0xbded0f6a	-0.115752056
226	0xbd90b3c3	-0.07065537
227	0xbdaa7ca9	-0.08324558
228	0x3d80dcc2	0.06292106
229	0xbe351ce0	-0.17686796
230	0xbc93a92a	-0.018025
231	0xbd4598eb	-0.048241537
232	0x3e0ca2ee	0.13734028
233	0x3d5255ea	0.051351465
234	0x3c3a20d0	0.011360362
235	0xbd2abd03	-0.041684162
236	0x3d02b09b	0.031906705
237	0xbd34c210	-0.044130385
238	0xbcc0ba85	-0.02352644
239	0x3957d218	0.00020582264
240	0xbe95749a	-0.29190522
241	0x3b224173	0.002475825
242	0xbdaca15b	-0.084292136
243	0xbd72429d	-0.05914556
244	0x3cc27835	0.02373896
245	0x3db6bb62	0.08922459
246	0xbd91e297	-0.07123297
247	0x3e2e110b	0.16998689
248	0x3dab743f	0.083717816
249	0xbe1ce1e0	-0.1532054
250	0x3dd6c48a	0.104867056
251	0xbe04f719	-0.12984885
252	0x3d06ff04	0.032958046
253	0xbe1f39bb	-0.15549366
254	0xbda081ba	-0.078372434
255	0x3e0d6e8a	0.13811699

actor.6.bias f4 [12]
0	0xbe3adaba	-0.182475
1	0xbbc7dfd2	-0.0060996795
2	0x3de59493	0.11209979
3	0xbe0f9e09	-0.1402513
4	0xbe61ec6a	-0.22062841
5	0xbd5a6b5d	-0.053325046
6	0x3e316a04	0.17325598
7	0xbc64ce01	-0.013965131
8	0xbd48cfcd	-0.0490263
9	0x3e24757a	0.16060439
10	0xbd7082d8	-0.058718532
11	0xbe22621c	-0.15857738

critic.0.weight f4 [128, 48]
0	0x3e908a4e	0.28230518
1	0x3e618492	0.22023228
2	0x3f4169e8	0.75552225
3	0xbe8065b1	-0.25077584
4	0x3ebc669e	0.3679704
5	0xbef8d2c5	-0.48598304
6	0xbf9abb34	-1.208838
7	0x3f1df148	0.6169629
8	0xbccc2f99	-0.02492504
9	0xbe1e3e21	-0.15453388
10	0xbeb52068	-0.35376287
11	0x3f46c042	0.7763711
12	0xbb084c2c	-0.0020797355
13	0xbdae16a7	-0.08500414
14	0x3d2bba4a	0.041925706
15	0x3a7f46e3	0.0009738041
16	0xbe36f8ea	-0.1786839
17	0xbe7215bf	-0.23641108
18	0xbea1f9dc	-0.3163594
19	0x3d8cbe91	0.06872285
20	0xbd3bf64b	-0.04588918
21	0xbe936ecb	-0.28795466
22	0x3ce89961	0.02839345
23	0xbe49f35b	-0.19721739
24	0x3e080fff	0.13287352
25	0xbe2e7524	-0.17036873
26	0xbd410ecf	-0.047133263
27	0xbec2635a	-0.37966424
28	0xbe89a753	-0.2688547
29	0x3d36e60f	0.044652995
30	0xbdd996c2	-0.10624458
31	0x3dfa9da4	0.12237099
32	0xbe69ea86	-0.2284337
33	0x3caf3bf9	0.021390902
34	0x3da69157	0.0813319
35	0x3d62e77d	0.055396546
36	0x3c6969c1	0.014246405
37	0x3d392014	0.045196608
38	0x3cbdd2f8	0.023171887
39	0xbce1fbd7	-0.027585907
40	0x3d29142c	0.041279003
41	0xbd94469a	-0.07240029
42	0xbbb8fe57	-0.005645554
43	0x3b2e96e2	0.0026640226
44	0xbc5a5ff4	-0.013328541
45	0x3c56eae9	0.01311753
46	0xbcad7b7b	-0.021177044
47	0x3d5a4b87	0.053294685
48	0x3e39a385	0.18128784
49	0xbb9b24b0	-0.004734598
50	0xbc341515	-0.0109913545
51	0xbe08bb06	-0.13352594
52	0x3e4e3ce3	0.20140414
53	0x3cfbc1c5	0.030732045
54	0x3f9ddf3c	1.2333751
55	0x3e993132	0.29920346
56	0xbc5102b3	-0.012756991
57	0xbda10101	-0.078615196
58	0xbe7aee05	-0.2450486
59	0x3f1ae57d	0.6050642
60	0x3cf607b3	0.030032968
61	0x3e8ab664	0.27092278
62	0x3ea18abf	0.31551167
63	0x3df4141c	0.11917898
64	0xbd7cb47e	-0.06169557
65	0xbd1610a8	-0.03663698
66	0x3e9e17ed	0.3087763
67	0x3e594340	0.2121706
68	0x3e990cf9	0.2989271
69	0xbdb90d33	-0.09035721
70	0xbe5976b5	-0.2123669
71	0xbcf9450c	-0.030428432
72	0x3c6c71da	0.014431441
73	0x3ec51ca7	0.38498423
74	0x3d59b69e	0.053152673
75	0x3df23d4f	0.118281
76	0xbe40febb	-0.18847172
77	0x3c92a579	0.01790117
78	0xbd8d2b7f	-0.06893062
79	0xbda27122	-0.079317346
80	0x3ce5fe82	0.02807546
81	0xbde7a304	-0.1131039
82	0xbd32e4f3	-0.043675374
83	0xbd3a61f5	-0.045503575
84	0xbd144bc0	-0.036205053
85	0x3c762b1e	0.015024928
86	0xbd83f229	-0.06442673
87	0x3d6e7f1c	0.05822669
88	0x3c845797	0.016155047
89	0xbc2cdabf	-0.0105502
90	0x3d4c2126	0.0498363
91	0x3da55f92	0.08074869
92	0xbd839d1a	-0.06426449
93	0x3d96480b	0.0733796
94	0x3ccd4cee	0.025061097
95	0xbd618448	-0.055057794
96	0xbe036135	-0.1283005
97	0x3d8bf5af	0.0683397
98	0x3de2b59f	0.11069798
99	0x3ba9bc02	0.005179883
100	0x3d0669ac	0.03281562
101	0x3e856863	0.26056203
102	0xbeee9492	-0.46597725
103	0x3ec509e7	0.38484117
104	0x3de3c325	0.11121205
105	0x3d1c825b	0.038210254
106	0xbe4c0d21	-0.19926883
107	0x3f8917a0	1.0710335
108	0xbed64084	-0.41846097
109	0xbeb542c8	-0.35402513
110	0xbeac3cc4	-0.3364011
111	0xbd89ea18	-0.06734103
112	0x3d1debbb	0.03855489
113	0x3dac08cf	0.084001176
114	0x3e9dcb95	0.30819383
115	0x3dbd12af	0.09232079
116	0x3de76539	0.112986036
117	0x3dc8ddcc	0.098079294
118	0xbe413bff	-0.18870543
119	0x3cbf53b5	0.023355344
120	0x3c51518f	0.012775793
121	0xbcb6ae4b	-0.022299906
122	0xbe0c4069	-0.13696446
123	0xbe81f1b7	-0.25379726
124	0x3eaaa71b	0.33330616
125	0xbd5ea8fd	-0.05436038
126	0x3d7ba568	0.06143704
127	0x3d4a953a	0.04945872
128	0x3e155d16	0.1458629
129	0xbcc2f4e9	-0.023798423
130	0x3db29f7a	0.08721824
131	0xbdc21724	-0.0947707
132	0x3d5e17c1	0.054221872
133	0x3905f1ca	0.00012773942
134	0xbd25eebb	-0.040510874
135	0xbd677158	-0.056504577
136	0x3cda2d3e	0.026632901
137	0x3cb43a9c	0.022000603
138	0xbd1fd372	-0.03902001
139	0x3c18a434	0.009316493
140	0x3dd63fdc	0.10461399
141	0x3b4f91b5	0.0031672542
142	0x3cbe6c3e	0.023244973
143	0xbca9f071	-0.020744534
144	0xbf03c26d	-0.51468545
145	0xbd8c0fa8	-0.06838924
146	0x3d5b0c86	0.05347874
147	0xbdac8832	-0.08424415
148	0xbeb87d1f	-0.3603296
149	0xbe942410	-0.28933764
150	0xbff831eb	-1.9390234
151	0xbcaa705e	-0.020805534
152	0x3d903331	0.07041014
153	0xbf0388a1	-0.51380354
154	0x3e3bc478	0.18336666
155	0x3ea9374c	0.3305
156	0x3ed805e5	0.42191997
157	0xbe765664	-0.24056393
158	0xbeac3f93	-0.33642253
159	0xbf22f648	-0.63657045
160	0xbeb693c6	-0.35659617
161	0xbea42284	-0.32057583
162	0xbeec0d8f	-0.46104094
163	0xbf20229c	-0.6255281
164	0xbeb62ff2	-0.35583454
165	0x3f2e1b68	0.6801057
166	0xbe8ff0af	-0.28113315
167	0xbed07f28	-0.40722013
168	0x3e075fa2	0.13220075
169	0x3e6572a7	0.22407018
170	0xbc9f9a7d	-0.019482845
171	0xbe845ad1	-0.25850537
172	0x3e05b157	0.13055931
173	0xbd96094d	-0.07325993
174	0xbe6e8f81	-0.2329693
175	0xbda3a52e	-0.0799049
176	0xbcd48e46	-0.025946748
177	0x3e157460	0.14595175
178	0x3e7e274e	0.24819681
179	0xbe22edba	-0.15910998
180	0x3b99a2f8	0.004688617
181	0xbc73eecd	-0.0148884775
182	0x3d5634d6	0.052296482
183	0xbc3ef3b0	-0.011654779
184	0xbc8190a4	-0.01581604
185	0x3ca04fc3	0.019569283
186	0xba12bccb	-0.00055975904
187	0xbcaf886b	-0.021427354
188	0xbd4d7fd7	-0.050170746
189	0x3bfc8075	0.007705743
190	0xbc87429f	-0.01651126
191	0x381785b9	3.6125744e-05
192	0xbdaf9d27	-0.08574896
193	0x3dab0efa	0.08352466
194	0x3d8319e5	0.06401423
195	0x3e527220	0.20551348
196	0x3f4fd5c6	0.8118557
197	0xbabe4982	-0.0014517757
198	0x3f47f3f0	0.78106594
199	0xbed03086	-0.4066202
200	0xbd7d3038	-0.061813563
201	0xbd8419a3	-0.06450202
202	0x3e093292	0.13398197
203	0xbf036516	-0.5132612
204	0xbdac8a7d	-0.08424852
205	0xbe295b3d	-0.16538711
206	0xbec697bc	-0.3878764
207	0x3d0e4bd4	0.034740284
208	0x3b65b6d9	0.0035051613
209	0xbeba2744	-0.36358082
210	0xbdafdf2e	-0.0858749
211	0x3ea032ae	0.31288666
212	0x3e830616	0.2559058
213	0xbe7204de	-0.23634669
214	0x3d64ded9	0.055876587
215	0x3e2a7b6c	0.16648644
216	0x3f13760c	0.57602
217	0x3f16adc0	0.5885887
218	0xbe713aa7	-0.2355753
219	0x3d9be1b9	0.076114126
220	0x3ea65ca6	0.3249256
221	0x3cba0c7c	0.022711031
222	0xbe90a273	-0.2824894
223	0x3dc77826	0.09739713
224	0x3e432a41	0.19059087
225	0x3e8cacc1	0.2747555
226	0xbe0017f7	-0.12509142
227	0x3e11d9b9	0.14243211
228	0x39c4db45	0.00037547402
229	0x3d91fe21	0.07128549
230	0xbda35490	-0.079751134
231	0xbdbdc5de	-0.09266256
232	0x3cf5d88d	0.030010486
233	0x3d7691cf	0.060197648
234	0xbd9f3e34	-0.07775536
235	0xbd77412d	-0.06036489
236	0x3dffcfdf	0.1249082
237	0xba1db13e	-0.0006015486
238	0xbd7703e1	-0.060306434
239	0x3d8aa8c1	0.067704685
240	0x3e3e1fbd	0.18566795
241	0xbede0d85	-0.4336969
242	0xbe472914	-0.19449264
243	0x3e1a30c4	0.15057665
244	0x3efa4197	0.48878166
245	0x3e21aa26	0.15787563
246	0x3f61f9fc	0.8827207
247	0xbf3e7d10	-0.7440958
248	0xbdf86ec1	-0.121305
249	0xbe69fe04	-0.22850806
250	0x3dc7569f	0.097333185
251	0x3ec0eacc	0.37679136
252	0x3dd0b5fb	0.1019096
253	0x3e5395f8	0.20662677
254	0x3d9aed51	0.07564796
255	0x3ef7d02f	0.4840102

critic.0.bias f4 [128]
0	0x3e82b189	0.25526074
1	0x3cac1b01	0.02100897
2	0xbe83cbab	-0.25741324
3	0xbea9ec98	-0.3318832
4	0xbdae1f8d	-0.085021116
5	0x3e37fc5a	0.17967358
6	0xbe2c5d45	-0.16832455
7	0x3c8a408a	0.016876478
8	0x3d640a53	0.05567391
9	0x3d830827	0.06398039
10	0xbe578fed	-0.21050997
11	0x3dc2fed2	0.09521259
12	0x3d45beb2	0.048277564
13	0x3cce0243	0.025147563
14	0x3d0c44eb	0.034245413
15	0x3c8d9d1e	0.017286833
16	0x3e35c2a5	0.17750032
17	0xbe28a178	-0.16467845
18	0x3da0c2a2	0.07849623
19	0xbe5d7c5b	-0.21629469
20	0x3e216182	0.15759853
21	0xbe5c2e92	-0.2150214
22	0xbd860ad4	-0.06545034
23	0xbcb0f42d	-0.021600807
24	0x3ca8c307	0.020600809
25	0xbe0b2cb9	-0.13591279
26	0xbccf132b	-0.025277695
27	0x3da4eaf7	0.080526285
28	0x3d6a1b01	0.05715466
29	0xbe6527d0	-0.22378469
30	0xbde8a0eb	-0.11358818
31	0xbe5815d7	-0.21102081
32	0xbe99129e	-0.29897016
33	0xbe82d46f	-0.255527
34	0xbd1e92de	-0.038714282
35	0xbdfcd5c5	-0.12345461
36	0x3e470d3d	0.19438644
37	0xbc3ec874	-0.011644471
38	0xbdb24b81	-0.087058075
39	0xbe488540	-0.19582081
40	0x3cd59dfd	0.026076311
41	0xbd79e31a	-0.061007597
42	0xbd391de5	-0.045194525
43	0xbe38769a	-0.18013993
44	0xbe6ed256	-0.23322424
45	0xbea2ef36	-0.31823128
46	0xbe44409e	-0.19165275
47	0xbe046281	-0.12928201
48	0xbe6772e8	-0.22602427
49	0xbe77d2cd	-0.24201508
50	0xbe6fec55	-0.23429997
51	0xbd87e99b	-0.066363536
52	0xbe40095b	-0.18753569
53	0xbe498b93	-0.1968215
54	0xbdc30b2d	-0.09523616
55	0xbd1a7fc6	-0.03771951
56	0xbe5affc1	-0.21386625
57	0x3c96f94f	0.018429426
58	0xbe86af7d	-0.26305762
59	0x3e169227	0.1470419
60	0x3cf0bf79	0.029388176
61	0xbe827a8b	-0.25484118
62	0xbe87f8fa	-0.26557142
63	0xbe076ce8	-0.13225138
64	0xbde6a423	-0.11261775
65	0x3d177d8b	0.03698496
66	0x3e405747	0.18783294
67	0x3db355c1	0.08756591
68	0xbd074a41	-0.0330298
69	0x3e2e7e44	0.17040354
70	0x3e23a70d	0.15981694
71	0x3e660a4d	0.22464867
72	0xbe20f639	-0.15718926
73	0xbdfa0aac	-0.12209067
74	0x3c956d74	0.018240668
75	0xbe0a74d3	-0.13521127
76	0xbe28396f	-0.16428159
77	0xbe76ec8b	-0.24113671
78	0x3df496fd	0.11942861
79	0xbdcb8bf0	-0.099388
80	0x3e050154	0.12988788
81	0xbdc3cb70	-0.09560287
82	0xbe7cc843	-0.24685769
83	0xbd76cb85	-0.060252685
84	0x3e54d1cf	0.2078316
85	0x3d822a8d	0.06355772
86	0xbe78af48	-0.24285614
87	0xbe740a35	-0.23832019
88	0xbe24d0fe	-0.16095349
89	0xbe1161ca	-0.1419746
90	0xbc45b6d0	-0.012067512
91	0xbe552e29	-0.2081839
92	0x3d88882f	0.066666
93	0x3a04dac6	0.0005068
94	0xbd55f3c4	-0.052234426
95	0xbe0db4a0	-0.13838434
96	0xbd6093b0	-0.054828346
97	0xbd0ea4c5	-0.034825105
98	0x3d414b25	0.047190804
99	0x3cce7a9b	0.025204947
100	0x3dd1ed0f	0.102502935
101	0xbe6c1076	-0.23053154
102	0xbd852589	-0.065013
103	0x3daf457e	0.085581765
104	0x3ac9474a	0.0015356329
105	0x3e336396	0.17518458
106	0xbecf7042	-0.40515333
107	0xbe1fd676	-0.15609154
108	0x3e04634d	0.12928505
109	0xbd86d3e4	-0.06583384
110	0xbdb8eddb	-0.09029742
111	0xbd829874	-0.063767344
112	0x3d4e0211	0.05029494
113	0xbd2eddeb	-0.042692106
114	0xbe76ba3e	-0.24094483
115	0x3d40c730	0.04706496
116	0xbdab3207	-0.08359151
117	0xbd60700b	-0.054794353
118	0x3c0b6451	0.008507804
119	0x3e17b649	0.1481563
120	0xbe8878a1	-0.26654533
121	0xbde94665	-0.1139038
122	0xbdad0915	-0.08448998
123	0x3dc68653	0.09693589
124	0xbe8f2f3c	-0.27965724
125	0xbe232ad1	-0.15934302
126	0x3d1542b5	0.03644057
127	0xbea9838b	-0.33108172
